prompt_sliders/models/skyslider/learned_embeds-steps-500.safetensors (safetensors, 3184 bytes, 1 tensors)

<sky-ti> f4 [1, 768]
0.0017150809 0.016626744 -0.0063109584 0.0013635808 0.017572222 0.015230841 -0.0029544148 0.048306916
0.011352027 0.0043545254 -0.008088993 -0.0065625985 -0.0019089004 -0.021805594 -0.015777515 -0.016885174
-0.003289595 -0.021297362 -0.008139498 0.03711503 0.010267632 0.015935581 -0.027975999 0.0014048789
0.013475033 0.006021898 -0.025932426 0.0186682 -0.00022876535 0.0025145405 -0.0011066839 -0.0027401475
0.035505816 0.008091161 0.02193621 0.010230755 0.023710202 -0.0013572493 -0.025023973 -0.00963897
0.006769451 -0.006520414 0.0016215972 -0.000146446 0.013607346 -0.027940322 0.0150539195 -0.00746624
-0.0034982036 -0.021838076 0.029852226 0.011117616 -0.015521764 -0.01691327 0.0110466825 0.011841361
0.023822535 0.0003416508 0.005255978 0.0073001073 0.013275957 -0.025863051 0.008549835 0.008481354
-0.0313991 0.0027610038 0.008968387 0.009807725 -0.0117031755 -0.020723574 -0.009416862 -0.0065960824
-0.048716165 -0.023858923 -0.0057225153 -0.0047391444 0.01575319 0.0095680645 0.00781509 -0.010814131
-0.015374325 -0.0031862576 0.0039710337 0.0056412593 -0.0012513575 -0.0005128561 -0.00012500442 -0.008372991
-0.008546317 0.0016340468 -0.008814177 -0.034648243 -0.015406556 0.0060083945 -0.035004064 0.0150903305
0.012714649 -0.0029657506 -0.0124395825 -0.0031022918 -0.013169264 -0.03516302 -0.00036508442 0.01792434
0.023172567 -0.005680835 0.026174402 -0.035248056 -0.0032359008 0.005451438 0.0288637 0.0014536387
0.010775703 0.0015037946 -0.013489518 -0.006157963 -0.017034173 0.008066754 -0.0065968293 0.007924487
-0.0017528823 0.01991394 0.024057826 0.0076658702 0.015328709 -0.017652933 0.0026284948 0.014619061
-0.01717447 -0.00031706446 -0.00054886995 0.047810182 -0.007494918 -0.0049881665 -0.004416755 0.006692229
0.010775547 0.022601943 0.012589229 0.011190344 -0.020424642 -0.00800577 0.0015163919 0.008898702
-0.025322972 -0.0034579614 -0.0010687802 1.7568453e-05 -0.0095218625 -0.021089584 0.017814035 -0.018805545
0.01602628 -0.0032775558 -0.02189894 -0.0022425232 0.007055217 0.021698354 -0.017425537 0.0063003567
-0.007348894 0.01650311 0.0012671862 0.003847319 0.0075362935 -0.029071692 -0.02845716 0.02459869
0.0025042116 -0.008951887 0.0066712406 0.0070335777 -0.022938728 0.0036578276 0.0031394055 0.0143680405
0.0035317624 0.011491553 -0.003666592 -0.02127643 0.022618642 0.0033527117 -0.0136628 -0.030370716
0.0029627925 -0.022395885 0.051288564 -0.024524966 -0.0057317256 -0.009045321 0.0031221183 0.0128769595
-0.011479088 -0.010713973 -0.0055281324 0.00869724 -0.0016451643 -0.01468734 -0.0086236 0.037617963
-0.032572094 -0.020615915 0.0007641466 -0.0081635155 0.0006405269 -0.03063269 -0.047934186 0.0034345575
0.006603954 -0.00975246 0.0070692385 -0.0035068903 0.008085001 0.013159892 0.03298487 0.0073857363
-0.015459217 0.0040796995 0.010023541 -0.01992311 0.019322528 0.0058681495 -0.007613317 0.021983314
0.0048337146 0.0072989245 -0.010973295 0.014133276 0.0196986 0.008186423 -0.0151777 0.022872636
0.012856513 0.01568929 -0.0070282985 0.008392702 -0.016324293 0.011348474 -0.020736234 -0.0043463977
0.0014802642 -0.010241916 -0.022931293 -0.008356388 0.022094272 -0.01404019 0.042657964 0.0009907004
0.025063923 0.018659575 -0.020136246 -0.005649611 -0.010045357 -0.011202175 0.0067778453 0.006018204
00000000: 91cc e03a cf34 883c 28cc cebb 2eba b23a
00000010: 9ff3 8f3c c78a 793c db9e 41bb 79dd 453d
00000020: dafd 393c 68b0 8e3b b287 04bc 110b d7bb
00000030: 1234 faba a5a1 b2bc d93f 81bc c752 8abc
00000040: 3f96 57bb ce77 aebc 875b 05bc ee05 183d
00000050: 9239 283c 568b 823c ec2d e5bc ea23 b83a
00000060: 63c6 5c3c 5753 c53b 3d70 d4bc 0eee 983c
00000070: bbe0 6fb9 fdca 243b 260e 91ba 0c94 33bb
00000080: 8c6e 113d ca90 043c 91b3 b33c e69e 273c
00000090: e63b c23c bbe5 b1ba 13ff ccbc c5ec 1dbc
000000a0: 45d2 dd3b 32a9 d5bb c68b d43a 4c8f 19b9
000000b0: 59f1 5e3c 1ae3 e4bc b7a4 763c 5ca7 f4bb
000000c0: 1e42 65bb c4e5 b2bc a88c f43c a926 363c
000000d0: ff4e 7ebc b38d 8abc 25fd 343c 4502 423c
000000e0: 7a27 c33c 981f b339 573a ac3b bd35 ef3b
000000f0: 6683 593c c0de d3bc 9b14 0c3c 61f5 0a3c
00000100: 589c 00bd f5f1 343b 24f0 123c 95b0 203c
00000110: adbe 3fbc 7cc4 a9bc 2f49 1abc f323 d8bb
00000120: 9a8a 47bd ca73 c3bc f083 bbbb d34a 9bbb
00000130: d50c 813c 5fc3 1c3c dd0a 003c c12d 31bc
00000140: 98e4 7bbc 88d0 50bb 721f 823b 50da b83b
00000150: 9704 a4ba 3171 06ba 9e13 03b9 df2e 09bc
00000160: da05 0cbc 832d d63a 5669 10bc 51eb 0dbd
00000170: c86b 7cbc 11e2 c43b 6c60 0fbd 6f3d 773c
00000180: 1a51 503c 0a5d 42bb 64cf 4bbc d24f 4bbb
00000190: e6c3 57bc 1907 10bd cd68 bfb9 11d6 923c
000001a0: 65d4 bd3c 4c26 babb b36b d63c 4460 10bd
000001b0: 6811 54bb faa1 b23b 9173 ec3c 0588 be3a
000001c0: 938c 303c f91a c53a 2403 5dbc bdc8 c9bb
000001d0: 408b 8bbc 6b2a 043c 372a d8bb b5d5 013c
000001e0: f8c0 e5ba 8f22 a33c eb14 c53c fb31 fb3b
000001f0: 4425 7b3c e29c 90bc d342 2c3b c984 6f3c
00000200: 79b1 8cbc ac3b a6b9 0ae2 0fba 9cd4 433d
00000210: ee97 f5bb c673 a3bb 6dba 90bb 7c4a db3b
00000220: eb8b 303c b627 b93c 0e43 4e3c b457 373c
00000230: 9451 a7bc a22a 03bc abc1 c63a ddcb 113c
00000240: 1f72 cfbc f79e 62bb 5016 8cba f75f 9337
00000250: 9601 1cbc 10c4 acbc bdee 913c 160e 9abc
00000260: 8c49 833c 43cc 56bb 6865 b3bc 4cf7 12bb
00000270: 732f e73b bfc0 b13c 00c0 8ebc 3973 ce3b
00000280: fece f0bb 8831 873c b717 a63a 4d23 7c3b
00000290: 03f3 f63b c227 eebc fd1e e9bc 3183 c93c
000002a0: b31d 243b efaa 12bc 6c9a da3b ed79 e63b
000002b0: 00ea bbbc 2ab8 6f3b 7cbe 4d3b ee67 6b3c
000002c0: 2475 673b 1147 3c3c 354b 70bb e84b aebc
000002d0: bb4a b93c 2bb9 5b3b f0d9 5fbc 02cc f8bc
000002e0: 692b 423b 9377 b7bc f513 523d 95e8 c8bc
000002f0: 33d1 bbbb d332 14bc 749c 4c3b e2f9 523c
00000300: c912 3cbc a989 2fbc 5625 b5bb de7e 0e3c
00000310: 8ea2 d7ba 2ba3 70bc 004a 0dbc 4b15 1a3d
00000320: 516a 05bd b5e2 a8bc 0351 483a 44c0 05bc
00000330: 08e9 273a 68f1 fabc a356 44bd 5016 613b
00000340: fb65 d83b c8c8 1fbc 12a5 e73b dbd3 65bb
00000350: f476 043c 969c 573c 251b 073d 0c04 f23b
00000360: a848 7dbc 00af 853b c739 243c ca35 a3bc
00000370: 474a 9e3c 9b49 c03b 2279 f9bb 5a16 b43c
00000380: 2364 9e3b d12b ef3b 56c9 33bc 428f 673c
00000390: f55e a13c 5920 063c e3ab 78bc 655f bb3c
000003a0: 20a4 523c d386 803c a44d e6bb 8b81 093c
000003b0: 86ba 85bc f3ee 393c 09df a9bc 3a6c 8ebb
000003c0: 6d05 c23a b6cd 27bc 68da bbbc 3be9 08bc
000003d0: 0cff b43c d308 66bc 1eba 2e3d 64da 813a
000003e0: db52 cd3c f7db 983c c5f4 a4bc 5f20 b9bb
000003f0: 4895 24bc 5489 37bc b018 de3b 5b34 c53b
