prompt_sliders/models/skyslider/learned_embeds-steps-1500.safetensors (safetensors, 3184 bytes, 1 tensors)

<sky-ti> f4 [1, 768]
0.006430587 0.017334368 -0.011668806 0.02494704 0.02606252 0.023648465 -0.019911032 0.051930647
0.00011748276 0.01711443 -0.010559465 -0.0017818704 -0.007008524 -0.03878248 -0.02030713 -0.014013303
0.0020907638 -0.029113386 0.020364463 0.05598943 0.03774677 0.011776054 -0.03227674 0.0024356893
0.014182387 0.0035692395 -0.03605274 0.0050992784 -0.009384392 0.013769718 0.015929552 0.0045262272
0.035334993 0.010067603 0.0407637 0.016527642 0.0019612357 -0.0019745883 -0.03461151 -0.032973062
0.014996287 -0.007651707 -0.012737061 -0.015731895 0.0036108098 -0.04150991 0.0062900423 -0.018274065
0.010965319 -0.021293528 0.022341114 0.0128187295 -0.0012921443 0.004734907 0.005836956 -0.0029686019
0.024729341 -0.008437935 0.016115649 0.00439149 0.006342975 -0.025757512 0.009440167 0.018502224
-0.056379836 0.012769495 0.01918202 0.032484792 0.00068042526 -0.023947002 -0.0017896492 -0.011165428
-0.06082263 -0.010337469 0.008441519 -0.003569542 0.019280234 0.014125719 0.008976447 -0.008298163
-0.010304868 0.006776031 0.00998284 0.0030517082 -0.00023359028 -0.00951572 -0.012275931 -0.020217443
-0.020105911 0.0068291477 -0.008622049 -0.035792205 -0.032793812 0.002083948 -0.026606878 0.018356215
0.015227453 0.00086640334 -0.027300514 -0.01714138 -0.013026924 -0.04131101 -0.020741513 0.01816777
0.028980242 -0.010772402 0.03660359 -0.033725966 -0.015468963 0.022720492 0.032407187 -0.003980864
0.01699392 -0.011329363 -0.020605605 0.0042054625 -0.016684633 0.03341319 -0.004263055 0.0066378303
0.028403211 0.009359605 0.030462617 0.012285534 0.01319606 -0.030447965 0.0110103255 0.025572788
-0.021289134 -0.009215808 -0.0034971302 0.0681905 -0.0048830593 -0.01224673 0.008646958 0.01720503
0.011700427 0.019824851 0.02101882 0.012393878 -0.029138105 -0.0060826303 -0.0125573585 -0.007840378
-0.04018179 0.00050876423 0.0007202465 0.014585708 -0.009463122 -0.027646577 0.0073815524 -0.012284339
0.011447986 -0.0010911983 -0.024786444 -0.0087113865 -0.0049138656 0.021310376 -0.023777552 0.020778222
-0.013083562 -0.0073711863 0.010414746 0.0054641124 -0.0012410119 -0.040819786 -0.054997604 0.016966347
-0.0058933054 -0.00093283056 -0.0053470414 -0.0012420819 -0.021780927 0.009876444 -0.002981619 0.011752182
-0.0034934697 0.013018953 0.008716732 -0.029238537 0.0022704974 0.028271427 -0.015467235 -0.020519562
-0.0072690127 -0.029986309 0.047600806 -0.031476934 0.0032365106 -0.012461677 0.009721535 0.005436069
-0.009867838 0.0035708945 0.003556259 0.036053218 0.0018958827 -0.017858109 -0.0020549628 0.039844293
-0.03644609 -0.010992312 0.0029020642 0.0076582055 0.006966921 -0.027913311 -0.044938844 0.0014025375
0.022577677 -0.023477547 0.008964105 0.0062910947 0.004269921 0.014399103 0.034159772 0.0069305217
-0.023000678 0.011847131 0.012187336 -0.015614844 0.026550487 0.0031807672 -0.020919155 0.031044077
0.0054461868 0.013896049 -0.00594672 0.018576339 0.024711613 0.00875391 -0.013740878 -0.0020356223
-0.0006000311 0.03724927 -0.028211601 0.004818465 -0.0073882965 0.01885458 -0.0025475298 -0.014109828
-0.018935341 0.0016696273 -0.026385065 -0.01016337 0.026563661 -0.0060978094 0.038629055 0.002214007
0.039798643 0.021475406 -0.022922363 -0.016903903 -0.019082889 -0.008406938 0.009404947 0.003985267
00000000: acb7 d23b ce00 8e3c 852e 3fbc bc5d cc3c
00000010: 1181 d53c 6dba c13c 761c a3bc 3bb5 543d
00000020: 1461 f638 9033 8c3c 9b01 2dbc a68d e9ba
00000030: c3a7 e5bb 61da 1ebd 235b a6bc 0e98 65bc
00000040: 3205 093b 327f eebc 60d3 a63c 2c55 653d
00000050: 5b9c 1a3d 5af0 403c 9d34 04bd 16a0 1f3b
00000060: 3e5d 683c e7e9 693b 0aac 13bd d917 a73b
00000070: fec0 19bc 629a 613c b17e 823c bf50 943b
00000080: 6dbb 103d 96f2 243c d6f7 263d fa64 873c
00000090: 1388 003b 1868 01bb ccc4 0dbd c30e 07bd
000000a0: fdb2 753c 2cbb fabb 1baf 50bc 2de0 80bc
000000b0: 56a3 6c3b 4c06 2abd b31c ce3b 7eb3 95bc
000000c0: e2a7 333c c46f aebc b604 b73c a605 523c
000000d0: 2b5d a9ba 4727 9b3b f043 bf3b e08c 42bb
000000e0: 3095 ca3c 443f 0abc f704 843c 7de6 8f3b
000000f0: bbd8 cf3b 6b01 d3bc eeaa 1a3c fa91 973c
00000100: 8bee 66bd 2537 513c 9d23 9d3c c60e 053d
00000110: 915e 323a 812c c4bc aa92 eaba 33ef 36bc
00000120: 2621 79bd 7d5e 29bc 4c4e 0a3c faee 69bb
00000130: 95f1 9d3c 8f6f 673c f311 133c 05f5 07bc
00000140: c0d5 28bc 7809 de3b 118f 233c 2bff 473b
00000150: eaef 74b9 d3e7 1bbc fd20 49bc 0d9f a5bc
00000160: 27b5 a4bc 0bc7 df3b 7f43 0dbc d99a 12bd
00000170: ce52 06bd d992 083b abf6 d9bc c65f 963c
00000180: 917c 793c 581f 633a 54a5 dfbc 146c 8cbc
00000190: e16e 55bc bc35 29bd 1bea a9bc 93d4 943c
000001a0: f967 ed3c bb7e 30bc a5ed 153d 3d24 0abd
000001b0: 8971 7dbc 5320 ba3c 66bd 043d e871 82bb
000001c0: d536 8b3c cb9e 39bc 16cd a8bc facd 893b
000001d0: 36ae 88bc 45dc 083d 19b1 8bbb 2882 d93b
000001e0: daad e83c 0759 193c bd8c f93c 4449 493c
000001f0: 4a34 583c 036e f9bc a764 343c 067e d13c
00000200: 8d66 aebc e6fd 16bc 1c30 65bb 76a7 8b3d
00000210: 1202 a0bb 82a6 48bc f8ab 0d3c 90f1 8c3c
00000220: 26b3 3f3c ba67 a23c a92f ac3c b10f 4b3c
00000230: 09b3 eebc cd50 c7bb 61bd 4dbc ee74 00bc
00000240: a995 24bd 975e 053a edce 3c3a e5f8 6e3c
00000250: 360b 1bbc 137b e2bc f3e0 f13b 4144 49bc
00000260: 5590 3b3c 8a06 8fba f10c cbbc 34ba 0ebc
00000270: 7e04 a1bb 1993 ae3c 24c9 c2bc 1737 aa3c
00000280: 705c 56bc fe89 f1bb 9ca2 2a3c 4c0c b33b
00000290: 73a9 a2ba a632 27bd 2b45 61bd 02fd 8a3c
000002a0: a11c c1bb 3389 74ba 3c36 afbb 5acd a2ba
000002b0: ea6d b2bc cfd0 213c 4467 43bb 398c 403c
000002c0: b2f2 64bb 724d 553c a0d0 0e3c a885 efbc
000002d0: a0cc 143b 7b99 e73c 496a 7dbc a418 a8bc
000002e0: e630 eebb d9a5 f5bc 10f9 423d f5ed 00bd
000002f0: a31b 543b 102c 4cbc 1347 1f3c 0d21 b23b
00000300: b6ac 21bc ab05 6a3b 2010 693b 8aac 133d
00000310: 447f f83a 2b4b 92bc 8eac 06bb c533 233d
00000320: 7f48 15bd 1919 34bc 8f30 3e3b aff1 fa3b
00000330: c54a e43b 75aa e4bc cb11 38bd 59d5 b73a
00000340: d2f4 b83c fc53 c0bc 2ede 123c 8725 ce3b
00000350: b2ea 8b3b 37ea 6b3c 1eeb 0b3d 6e19 e33b
00000360: eb6b bcbc 781a 423c 64ad 473c 67d5 7fbc
00000370: 6880 d93c 6b74 503b a65e abbc 2650 fe3c
00000380: ed75 b23b 41ac 633c b4dc c2bb 682d 983c
00000390: 0270 ca3c 8f6c 0f3c 6b21 61bc 1368 05bb
000003a0: 684b 1dba b192 183d 041c e7bc 37e4 9d3b
000003b0: 8619 f2bb ec74 9a3c 75f4 26bb e82c 67bc
000003c0: 4a1e 9bbc 65d7 da3a 7e25 d8bc 4384 26bc
000003d0: 099c d93c 22d0 c7bb 8039 1e3d e018 113b
000003e0: e703 233d 31ed af3c aec7 bbbc 0e7a 8abc
000003f0: b853 9cbc 41bd 09bc 3517 1a3c d896 823b
