prompt_sliders/models/skyslider/learned_embeds-steps-1000.safetensors (safetensors, 3184 bytes, 1 tensors)

<sky-ti> f4 [1, 768]
00000000: b052 423c 0d66 a73c 9fc3 36bc 07c5 543c
00000010: 0afa d53c 3fc5 c53c 0e90 3cbc fe5a 623d
00000020: 73cf 7a3b 376a 6e3c 1d7b 13bc 616b f6bb
00000030: 9d2f 88bb 81bd f0bc 95ff 94bc 3386 22bc
00000040: 4f08 4e3b 8e1d edbc 16bb 2e3c 2007 4f3d
00000050: a9b1 c13c 68a8 813c 604a cabc b82b 233b
00000060: 9b33 903c 6b25 1eba efd6 f4bc e5c8 813c
00000070: b93c bfba ab5e 313c 1c91 803b 74a8 6bbb
00000080: 58f8 f63c 19f7 673c d063 223d b2a7 003c
00000090: 0d25 5a3c 9b8f ebbb 8692 e4bc 9642 b0bc
000000a0: b6b0 623c db21 80bc 6e7c 27bc 0838 51bb
000000b0: 7094 f93b bce4 42bd f735 2d3c 6f46 6ebc
000000c0: cfbb 953a 0ec0 9ebc f3f3 f53c d1e1 033c
000000d0: 2db3 0ebc 4cc1 3bbb 55d0 db3b 4312 e13b
000000e0: 4a2d e73c 3d3f 12bc dbd4 b03b ce7e b13b
000000f0: 25f9 693c f2bf e2bc 0afb 863b 0c24 553c
00000100: 3f2e 49bd 4af1 0b3c b778 853c 5a10 ee3c
00000110: 192c dbbb 4e9c e9bc d410 3bbc fbcb 46ba
00000120: d80f 5dbd bd37 8bbc 788b 133c 0196 32bc
00000130: 40ea a43c 19ed 203c 99f2 133c c9f8 89bb
00000140: 2765 3ebc d78c 75bb b9a1 123a b60e f03b
00000150: 26fd b0bb 81bf 85bb c26f 2bbc 028e 88bc
00000160: 79d7 72bc 9b81 ab3b 974d 8bbc 5d05 29bd
00000170: e02d c8bc 9cb9 bc39 f6e0 f2bc 5c92 8e3c
00000180: 69fe 5f3c 42c2 b3b9 4af0 a7bc b4fb 5cbc
00000190: ad67 76bc 671b 22bd 5123 19bc 4a4a 803c
000001a0: 6792 9d3c 7903 11bc 7276 053d 78bf 1bbd
000001b0: 0ad4 d4bb e65e 413c fa84 023d 4e80 6739
000001c0: b073 943c ffc9 e8bb 0d58 37bc 9b4e 383b
000001d0: 7d7e 8cbc 7127 943c beff 36bb 248b df3b
000001e0: 88e7 373c 63cb 923c 678d d63c ebcf b53b
000001f0: c436 243c 6083 b4bc ea1f 063c 965d 993c
00000200: 38a6 c1bc 3415 15bc b93b 5abb 2ca6 733d
00000210: 3aea 21bc 8886 46bc 4045 70ba 838d 433c
00000220: 1a22 313c 7336 da3c 45a4 a23c 1ec4 2e3c
00000230: 8766 a9bc 98b6 da39 85f7 d5bb 6d08 b939
00000240: 20cf 13bd efef eb3a 3fee daba 8278 5d3b
00000250: 69fc 98bc 366f e6bc f9de 4c3c 9e02 3bbc
00000260: d430 a73c f13a 9b3a d351 c0bc d54e 0cbc
00000270: ccb9 7f3a 2d68 bc3c 5756 a3bc c3c5 3c3c
00000280: d333 27bc b884 5a3b 1e13 333c d5b1 0e3b
00000290: a75b 16b9 1d0b 09bd c583 2ebd 6491 b63c
000002a0: 87b6 4abc 02f7 7dbb 9c0f 9aba a57b e63b
000002b0: 0186 adbc 05e6 013c 0849 363b 480e 843c
000002c0: e080 c73a 4358 573c 6e3b 9c3b a400 a8bc
000002d0: 679e 293c a903 8e3c d1e5 91bc 8b29 aabc
000002e0: b970 003c 1d7f e5bc 74a3 463d 2e7d 0cbd
000002f0: 8f03 583b 347d 2fbc 3f48 0dbb 4591 053c
00000300: 597d 14bc bcb7 1ebc c476 c13a 537a b53c
00000310: e47f a83b a2d6 a1bc cbf1 eeba 0754 1e3d
00000320: 9dbc 02bd 3bff 87bc 012f 1c3b 4b97 46bb
00000330: 286f c63a 3c64 02bd 3101 36bd 465c fa3a
00000340: 038f ad3c f88c 8abc be27 6b3c 429c 613a
00000350: 6238 ce3b c789 963c f006 063d d533 d03b
00000360: 2999 abbc 978c d43b 3d58 993c 138f 94bc
00000370: 87c2 c03c 1316 323b 2bfc 46bc 3b32 e23c
00000380: db5d d7ba 3959 123c dbf5 3dbc 5564 813c
00000390: de68 b53c 3998 003c 9750 53bc 14fd d23b
000003a0: 617a ce3b 5d95 d13c e048 6bbc 7904 843b
000003b0: b190 4cbc 29f9 823c 5eed 1cbc b81e 2dbc
000003c0: 2512 02bc 8ff5 71bb 13de dcbc 6192 3fbc
000003d0: e135 ce3c d475 37bc f28f 1d3d 5f36 3fba
000003e0: c010 d03c 5a71 c73c 96b8 c0bc 0fea dabb
000003f0: 7e3c 3fbc f559 6bbc f7b6 f23b 417b 15ba
0.011860535 0.020434404 -0.011155038 0.012986428 0.026120204 0.024141906 -0.011508955 0.05526256
0.0038270622 0.014551691 -0.00900152 -0.007520125 -0.0041560666 -0.029387238 -0.018188277 -0.009919691
0.0031438058 -0.028944757 0.010664722 0.050543904 0.023644285 0.015827373 -0.024693668 0.0024897885
0.017602732 -0.00060327974 -0.029887645 0.015842864 -0.001459024 0.010825793 0.0039235484 -0.003595856
0.030147716 0.014158034 0.03964597 0.007852482 0.013314498 -0.00718875 -0.0279019 -0.021516126
0.0138360765 -0.015641144 -0.010222537 -0.0031924266 0.007616572 -0.04758142 0.010571948 -0.01454316
0.0011423769 -0.019378688 0.03002355 0.008049444 -0.008709711 -0.002864915 0.0067081847 0.006868632
0.028219838 -0.00892621 0.005396468 0.0054167276 0.014280592 -0.027679417 0.0041192817 0.0130090825
-0.04911637 0.0085414145 0.016292913 0.029060531 -0.0066886065 -0.028516915 -0.011417586 -0.0007583496
-0.053970188 -0.016994352 0.00900542 -0.0109000215 0.02013123 0.0098221535 0.009030008 -0.0042105657
-0.011620796 -0.003746798 0.00055935566 0.0073259724 -0.0054012714 -0.004081667 -0.010463657 -0.016669277
-0.0148218805 0.005233956 -0.017004771 -0.04126488 -0.024435937 0.00035996444 -0.029648285 0.017403774
0.013671496 -0.00034286274 -0.020500321 -0.013487745 -0.015039367 -0.039576914 -0.009346799 0.015660424
0.01923485 -0.008850926 0.03258366 -0.038024396 -0.0064950036 0.011802411 0.031865098 0.00022077674
0.01812157 -0.007104158 -0.011190427 0.0028123024 -0.017150158 0.018085213 -0.002792343 0.006822007
0.011224635 0.017919248 0.026190473 0.0055484674 0.010022823 -0.0220353 0.00818632 0.018721383
-0.02363883 -0.0090992935 -0.0033299758 0.059484646 -0.009882504 -0.012117036 -0.00091655925 0.0119355945
0.010811353 0.026637292 0.01985372 0.010666875 -0.020678772 0.00041716243 -0.006529751 0.00035292227
-0.0360862 0.0018000583 -0.0016703083 0.0033793752 -0.018675046 -0.028129201 0.012504333 -0.011414198
0.020409025 0.0011843127 -0.023476517 -0.008563717 0.0009755164 0.022998894 -0.019938631 0.011521759
-0.010205227 0.0033343267 0.010929851 0.0021773477 -0.00014339258 -0.033457864 -0.042606134 0.022286125
-0.0123726195 -0.0038751964 -0.001175392 0.0070337825 -0.021182062 0.007928376 0.0027814526 0.016120091
0.0015220903 0.013143602 0.0047678268 -0.020508118 0.0103527075 0.01733573 -0.01780978 -0.020771762
0.007839375 -0.028014714 0.048495725 -0.03429907 0.0032961105 -0.010711003 -0.0021557955 0.008152311
-0.009063088 -0.00968736 0.0014760126 0.022153055 0.005142199 -0.019755665 -0.0018230019 0.038654353
-0.031918157 -0.016601196 0.0023831727 -0.003030258 0.0015139328 -0.031833872 -0.04443473 0.0019100986
0.021186357 -0.016912922 0.014352737 0.0008606353 0.0062933424 0.018376244 0.03272146 0.006353835
-0.020947056 0.006486486 0.018718833 -0.01813463 0.023530258 0.0027173802 -0.0121450825 0.027611842
-0.0016431169 0.008932405 -0.011594261 0.015794912 0.022144731 0.007848793 -0.012897632 0.0064388607
0.00630121 0.025583917 -0.0143606365 0.0040288535 -0.012485669 0.01598795 -0.009578077 -0.010566406
-0.007938896 -0.0036920046 -0.026961362 -0.011692614 0.025172176 -0.011197526 0.038467355 -0.00072941737
0.025398612 0.024346042 -0.023525517 -0.006680734 -0.011672137 -0.014364709 0.007407065 -0.0005702265
