prompt_sliders/models/weatherslider/learned_embeds-steps-1000.safetensors (safetensors, 3184 bytes, 1 tensors)

<weather-ti> f4 [1, 768]
00000000: 29fa a73b 6698 2b3c e7ba b13b 48b1 0b3c
00000010: 67ee 0d3d 55c2 6f3c fc3f 88bb a623 003d
00000020: 64a0 1f3c 5f8a 75bc 0374 4bbb 34e6 62bc
00000030: 2ef7 64bc 62ed 82b9 7740 9e3c 3546 afbc
00000040: e75c baba ab44 133c 8c9f 5dbb 0aa5 0e3c
00000050: 533c debc 6594 a63a 95b7 853c 0bf0 feba
00000060: c83b 293b a974 a83c d792 00bd 9ce6 2d3c
00000070: 2fdd 88bb 4bfb 06bb 5f40 2a3c cc0a 6abb
00000080: b21c 60bb bc90 6fbb 19c2 acbc 0987 50bc
00000090: ecf0 bc3c 10f0 2b3c ef59 04bd 27b5 713c
000000a0: c37a 133b 1e8a 42bc e96a 7b3b d899 483b
000000b0: f472 73bc 7388 c0bc 2ba9 bd3c 6848 7a3c
000000c0: 25bd 8d3c d546 3fbc c0e6 a8bb 87d3 f83c
000000d0: dfb2 2b3c bf5f 16bc 11e8 bbbc 7a4d 4d3b
000000e0: 57b2 c0bb 610a b03c 220b dcbc ec2b df3c
000000f0: a299 803b cbe6 d3bc d0d9 06bc 81e3 76bb
00000100: 545b 12bc 65b5 57bb 9f46 6c3c fd6a 8b3c
00000110: 4d87 f13c 6da5 6e39 0c66 813b de65 2839
00000120: be05 fdbc 0688 d938 e876 3abb 3285 1f3c
00000130: 85a7 3cbc da2c 7a3b 8854 3e3c f2e4 05bd
00000140: 95d7 143c bd6f 393b 4b45 58bc a1fe 753c
00000150: e1ee 923c 71f3 d0b9 1f96 313c 782a 95bc
00000160: 16e9 99b9 e5f7 67bc 64c9 9c3c 8155 65bc
00000170: 3216 ef3c 5295 0cbc 8f63 88bb 42f2 3b3c
00000180: db4f 7dbb 2636 41bc bb71 07bb 2cd6 cebc
00000190: 5b85 123b 54b6 58bc bae4 09bb 0fac d0bb
000001a0: f260 aeba d098 263c d8bd 943c 9778 cb3c
000001b0: 0cc0 9e3b f0a5 5abc 97fb b1ba 497b a8ba
000001c0: 1428 38bc 139c 86bc 4c0b d43c 9264 953c
000001d0: b164 dc3c baa2 a3bc 8db2 fcbc 0eed f83b
000001e0: 06ff 03bb 86c9 c4bb 2671 51bc f8c3 50bc
000001f0: 7641 5d39 3cf9 b13c 20e3 d13c b1f6 4e3b
00000200: e73c b0bb 9350 763a 3c7b 72bc 61b8 223c
00000210: 4b9f aa3b ed33 863c 3db5 ee3b 2ba3 acbb
00000220: 90a2 8fbc 6464 ac3c 1469 c53a ac76 243c
00000230: 5842 0dbc 2ddc 8d3b af08 b9bb 5c73 bcbc
00000240: 2038 a43b bfd9 10bc d2f9 31bc a688 c03c
00000250: d5ee 25bb d944 4ebc f6f5 a2bc 3002 363b
00000260: 617b 3f3b fe90 883b 5b0d 943b e5d4 1b3d
00000270: de27 8f3c 2bfd 10bc 1293 aa3c 0291 faba
00000280: 1e31 e9bc 8b46 b2bc 6a2a f1bb 3166 f53b
00000290: 932b c6ba c1c7 933c cf95 e2ba d230 5bbc
000002a0: 9e06 2dbc 9a27 65bc 8a00 bfbc be97 4f3c
000002b0: 35df 153c fd0b b43c d948 563b a1e0 d43c
000002c0: 2990 afbc cdff 6bbc 9004 18bc 490b fb3c
000002d0: 8d14 c53a 2a6b d33a 7cb2 1cbc 405e 98bc
000002e0: 8c5d 65ba 9832 91bc 99c4 ec3b 33e7 ee39
000002f0: d186 563b 1754 ad3b df24 203d 0d3a 3a3b
00000300: 9698 bc3b 98a2 21bc c888 c13c c0fb e33b
00000310: 9f95 1cbd 5f3d 533c faa0 d23c 0f39 86bc
00000320: 4056 b4ba 5f41 dc3a 16d3 27bc 1754 933c
00000330: 92e8 a43c bcd8 bdba ec71 503b 1a99 bf3c
00000340: 0f63 8bbc 4f20 91bc 92e0 8e3b 3f09 3a3c
00000350: 0ca4 973b 770f 9b3c 526f f7bc 98d3 723b
00000360: 92d9 d93b ab0c 85ba 416e 55bc 61c9 eaba
00000370: fd31 29bc 9ea4 cd3b dfbf 61bc 5f9a d03c
00000380: 2531 c0bc b076 71bb 3787 c63b ff57 e63b
00000390: 06bb 853c 37d2 5b3c 50cc c8bc be51 e13b
000003a0: bc63 95bc f77b 923c 2307 123c c1af 88bc
000003b0: 0d6a c13c 051b ea39 13fe f5bb ee2f ae3c
000003c0: 6409 293c 0b05 a63c 447c 953b 490b c43c
000003d0: 8539 c4bb e724 00bd 560e 91bb 05c8 aa3a
000003e0: a0f8 873b a782 b33b 835a 96bc f5f7 70bc
000003f0: 83f5 1bbb a1b0 a1bc 751a 323c bb1a 17bb
0.005126257 0.010473346 0.005423892 0.008526154 0.034651186 0.014633735 -0.004158018 0.031283997
0.00974283 -0.0149866035 -0.003104449 -0.01384883 -0.013974948 -0.00024972396 0.019317849 -0.021395782
-0.0014218361 0.00898854 -0.0033817021 0.008706341 -0.027128374 0.001270902 0.01632289 -0.00194502
0.0025822986 0.02056344 -0.031390037 0.010614064 -0.0041767578 -0.002059656 0.010391324 -0.0035712002
-0.0034196791 -0.0036554774 -0.021088647 -0.012727507 0.0230641 0.010494247 -0.03231233 0.014752663
0.0022503592 -0.01187375 0.0038363284 0.0030609276 -0.01485895 -0.023502564 0.023151955 0.015276052
0.017302105 -0.0116746025 -0.0051544607 0.030374302 0.010479658 -0.009178101 -0.022937806 0.0031326697
-0.0058806348 0.021489324 -0.026860777 0.027242623 0.0039245645 -0.025866887 -0.0082306415 -0.0037672224
-0.008932907 -0.0032914516 0.014421134 0.01701879 0.029483462 0.00022759075 0.0039489325 0.00016059677
-0.030886527 0.00010372703 -0.0028452221 0.009736346 -0.011514549 0.0038173706 0.0116168335 -0.032689042
0.009084602 0.002829536 -0.0132001145 0.015014322 0.017936172 -0.0003985423 0.010839014 -0.018208727
-0.00029356097 -0.014158224 0.019139 -0.0139974365 0.029185388 -0.008580523 -0.004162259 0.011471333
-0.0038652334 -0.011792695 -0.0020667154 -0.02524861 0.0022357318 -0.013227064 -0.0021040873 -0.006368167
-0.0013304038 0.010168269 0.01815693 0.024837775 0.004844671 -0.013345227 -0.0013579008 -0.0012854125
-0.011240024 -0.016431844 0.025884293 0.018236432 0.026903482 -0.019975055 -0.030846858 0.0075966185
-0.002014102 -0.006005469 -0.012783324 -0.012742035 0.00021100588 0.02172529 0.025620997 0.0031580145
-0.005378354 0.0009396162 -0.014799889 0.009931655 0.0052069775 0.016382182 0.007284789 -0.0052684746
-0.01753357 0.021043964 0.0015061223 0.010038059 -0.008621775 0.0043292255 -0.005646787 -0.023004226
0.0050115734 -0.008840977 -0.010862784 0.023502659 -0.0025319357 -0.012589657 -0.019892674 0.00277723
0.0029217827 0.004167675 0.0045181937 0.03804483 0.017475065 -0.008849422 0.020822082 -0.0019116702
-0.028465804 -0.021762153 -0.0073597925 0.007488989 -0.0015119187 0.018039586 -0.0017287078 -0.013378339
-0.01056066 -0.0139864925 -0.023315687 0.0126704555 0.009147455 0.021978373 0.003269723 0.025986018
-0.021431046 -0.014404249 -0.009278432 0.03064503 0.0015036032 0.001612996 -0.009564038 -0.01859963
-0.00087495963 -0.01772432 0.0072255847 0.00045567154 0.0032734165 0.0052895653 0.039097663 0.0028415949
0.0057554943 -0.0098654255 0.023624793 0.006957501 -0.038228627 0.01289305 0.025711525 -0.01638463
-0.0013758615 0.001680415 -0.010243198 0.017984433 0.02013043 -0.0014484148 0.0031806184 0.023388434
-0.017015008 -0.017715601 0.004360267 0.0113547435 0.00462771 0.018928273 -0.030204449 0.003705239
0.006648251 -0.001015087 -0.013026775 -0.0017912799 -0.01032686 0.0062757274 -0.013778656 0.025464235
-0.023460934 -0.0036844425 0.0060585993 0.007029533 0.016324531 0.013416818 -0.024511486 0.0068761995
-0.018236034 0.017881377 0.008912834 -0.016685368 0.02361014 0.0004465209 -0.0075070946 0.021263089
0.01031718 0.020266077 0.0045619328 0.023931162 -0.005988302 -0.031285193 -0.004426758 0.0013029581
0.0041495115 0.0054782215 -0.018353706 -0.014707555 -0.002379746 -0.019737544 0.010870566 -0.0023056704
