prompt_sliders/models/appleslider/learned_embeds.safetensors (safetensors, 3184 bytes, 1 tensors)

<apple-ti> f4 [1, 768]
000000 55 bd 33 bd ef 00 7d bc 40 12 23 bd 34 a8 de bc
       -0.043881733 -0.015442117 -0.039812326 -0.027179815
000010 07 90 95 bd f0 23 ab 3c 4d cd 90 bc 6d 90 b9 3c
       -0.07302862 0.02089116 -0.01767602 0.022651875
000020 ef 46 87 3b e1 8c 66 3d 1d af 19 3d f3 7b 4e bc
       0.004128329 0.056286696 0.037520517 -0.012602794
000030 be 4b be 3b c1 2d 5f bc 20 9e 02 bd 94 93 99 3d
       0.005807369 -0.013621748 -0.03188908 0.074988514
000040 fc c6 89 bc 16 d6 6b 3c 8b 4c e5 3a 29 f0 48 3d
       -0.016818516 0.014394304 0.0017494125 0.04905716
000050 09 1b 17 3c a3 e9 7f 3c d7 9c 52 3d 84 27 21 bc
       0.009222754 0.015619668 0.051419105 -0.009836081
000060 d5 88 10 bc 3e 25 4f bc b4 9b 96 bd a7 3e 58 3d
       -0.008821686 -0.012643157 -0.07353917 0.052794125
000070 1e 3e f1 bc e5 44 3a 3d 06 53 c8 3b a9 c0 75 3d
       -0.029448565 0.04547586 0.006113413 0.05999819
000080 38 27 7a bc 8a 7c 06 bd 28 71 3c bd 89 2a 1e 3c
       -0.01526814 -0.032833613 -0.04600635 0.009653696
000090 0b 69 4e 3d 97 a4 1b bc a4 6c e1 bc 4e 71 47 bd
       0.050393146 -0.0094996905 -0.027517624 -0.04869204
0000a0 a0 87 c0 3c 36 ce 37 3d 2e 1c 3f bd 9f e0 5d 3c
       0.023502171 0.044874392 -0.046657734 0.013542323
0000b0 e6 06 3e 3c 46 17 88 bb 24 2d 0e 3d 97 41 0a bd
       0.011598324 -0.004153165 0.03471102 -0.033753958
0000c0 71 78 74 3d c8 01 f3 3b 72 07 71 bd 44 7b eb bc
       0.059685174 0.007415984 -0.05884499 -0.028745301
0000d0 16 71 51 bc b4 07 0a bd 4d 49 5a bb 42 32 1c 3d
       -0.012783309 -0.033698753 -0.003330785 0.038133867
0000e0 e7 6d 45 3c 26 d9 de bc 44 5d 39 bd da e5 3e 3d
       0.012050129 -0.027203154 -0.04525496 0.046605922
0000f0 d2 9b 36 3d 6f 09 3f 3b d4 c6 91 bc db df de 3b
       0.044582196 0.002914991 -0.017795004 0.006801588
000100 85 99 12 bd 56 a7 f0 3c a4 c0 3c 3d 36 0a c0 bc
       -0.03579094 0.029376667 0.046082154 -0.023442369
000110 47 f4 86 3a db 6c 31 bd 2b 3f 5f 3c 2e 77 c9 bc
       0.0010296189 -0.043316703 0.0136259 -0.024592962
000120 dd 91 1a bd a9 2b 10 bd 6f 20 1c bd 16 0c 47 bc
       -0.037736762 -0.035197888 -0.03811687 -0.012148878
000130 17 71 01 bb 02 d5 fc bb 4d 41 bd 3c 64 43 a9 3c
       -0.0019751245 -0.007715822 0.023102427 0.020662017
000140 c6 09 63 3c 9a 16 0e bc 95 98 b0 bb b3 aa 0c 3d
       0.013857311 -0.008672381 -0.005389283 0.03434248
000150 bf 18 b7 bb 8b f1 23 bd 75 0f 02 3c b4 39 26 bd
       -0.0055876668 -0.040025275 0.007938256 -0.040582374
000160 16 08 35 3d 19 cd d6 3c 21 d5 ee bb 65 37 1a bd
       0.044197164 0.026220845 -0.0072885905 -0.037650485
000170 b7 d5 d3 bb 43 aa 01 bd a9 39 d2 3c 40 7c 3a 3c
       -0.006464686 -0.031656515 0.02566226 0.011382163
000180 70 30 22 3c 0e 22 df bb 95 9f 91 bc 3c ac 6f bd
       0.009899244 -0.0068094796 -0.01777629 -0.058513865
000190 0b fa 1b 3d 81 ee 87 3c 87 de d7 bc a4 93 85 bb
       0.038080256 0.01659322 -0.026351226 -0.004076438
0001a0 d9 ff 0e 3d ed 85 b5 bd 49 0d cd 3a bb 66 9f bc
       0.034911964 -0.08863435 0.0015644218 -0.019458165
0001b0 05 5b 33 bd 0a 00 7f 3c 73 7c ea 3b a6 33 72 3c
       -0.043787975 0.015563974 0.007155949 0.014782822
0001c0 8a d0 26 3c d2 84 18 bb 77 4c 09 bb 15 5d 47 bc
       0.0101815555 -0.0023272526 -0.0020950118 -0.012168189
0001d0 a9 7d 0e 3d 56 58 19 3c 85 5c ed 3c 1a 2c 3e bd
       0.034787808 0.00935944 0.02897478 -0.046428777
0001e0 cb 82 37 3c 87 00 7e bc 33 b3 a4 3c 39 f5 8a 3c
       0.011200617 -0.015503055 0.02010498 0.016962634
0001f0 4f 9f 9e 3b af e0 60 bc 4d 1c ac 3b f4 6f b5 3b
       0.0048407684 -0.013725444 0.005252397 0.0055370275
000200 ea 10 8a bd 35 28 57 bc 4c fd 34 3c d2 58 5e 3d
       -0.06741507 -0.013132145 0.011046719 0.054283924
000210 c4 59 fa 3c ad fb 37 3d 1e 52 75 3d 78 f4 09 bb
       0.030560382 0.04491775 0.059892766 -0.0021050256
000220 6b 84 b3 3c 72 da 03 3c 54 89 b7 bb de b7 18 3d
       0.021913728 0.008047687 -0.0056010876 0.037284724
000230 64 0f cf bc 5e 30 57 3d c4 2e 04 3d f0 42 03 3d
       -0.025275894 0.05253636 0.03227116 0.03204626
000240 23 76 d8 3c df be d6 3c da e3 3b 3d 92 6d d3 3c
       0.02642352 0.026214061 0.045871593 0.025809083
000250 8a 35 85 ba 6f 84 4f bd 3d 43 dd bb ed 72 36 3c
       -0.0010163051 -0.050663408 -0.0067524 0.011135799
000260 ec 8f 2a 3d 4b c9 0a bd 0a 1f 4d bd 1a 65 0e bd
       0.04164116 -0.033883374 -0.05007843 -0.034764387
000270 a3 f5 f0 b8 d6 2f 97 3c 4e 8e a0 bc 06 e0 3b 3c
       -0.00011489845 0.018455427 -0.019599106 0.011466986
000280 d1 e4 ab 3c 7b 76 4c bc 3a 2c e7 3c a7 32 e2 bc
       0.020983132 -0.01247942 0.028219331 -0.027612044
000290 f8 11 ae 3c c9 9c e2 bc 90 7a ba bc fa 88 ea bb
       0.021248803 -0.027662652 -0.02276352 -0.007157442
0002a0 9e e1 11 bc 6c 95 1c 3d 44 2d 1e ba 7b 19 92 3c
       -0.008903889 0.038228437 -0.0006033967 0.017834416
0002b0 ab dc 58 3c f4 66 b8 bc b5 27 1a 3d b9 1e 84 bc
       0.013236205 -0.02251003 0.037635524 -0.016127931
0002c0 e7 3d 1f bd dc d3 d1 37 d5 38 02 3d 01 be b3 bc
       -0.038877394 2.5013396e-05 0.03179248 -0.021941187
0002d0 76 b9 f0 3b 0f a6 f2 3b 9f a9 ec bc 5e a7 a3 bc
       0.0073463274 0.0074050496 -0.028889475 -0.019977268
0002e0 fd 83 c6 bc 0e 41 08 bb f5 ef 61 bd 3c 5d 3a 3d
       -0.024232859 -0.0020790729 -0.05516048 0.04549907
0002f0 ce f7 72 bd 5d 06 55 3c 27 e4 fc 3c 1c fc 57 bc
       -0.059318356 0.013002005 0.03087051 -0.013182666
000300 18 a4 22 bd 33 75 9b 3c 27 f8 b7 3c ec 75 dc bc
       -0.039707273 0.018976783 0.022457195 -0.026911698
000310 9e 99 a6 ba 33 71 eb 3b 91 eb 68 3d 5e 36 2b 3c
       -0.0012710576 0.0071851253 0.05686528 0.010449974
000320 ae 9c fb bc 61 d2 aa 3c 1e e0 4d 3b 52 f2 ff bc
       -0.03071436 0.02085227 0.0031414102 -0.031243477
000330 21 e2 2a bd 2a 2d 21 bc 2b a7 f6 39 62 d7 d7 3b
       -0.04171956 -0.009837428 0.00047045326 0.006586955
000340 ce 42 2f bc dc 15 14 b9 bd 90 a7 bb 51 97 f9 bb
       -0.01069708 -0.00014122523 -0.0051136897 -0.0076169153
000350 37 c3 6b bd 14 ac 7a 3b da 44 0b 3d 44 50 dd bc
       -0.05755922 0.003824954 0.03400121 -0.027015813
000360 01 1a 7a bc 2e 0e 2a bd 1b 61 d7 bc df b3 99 bd
       -0.015264989 -0.04151743 -0.02629142 -0.07505011
000370 22 20 63 3c ba ae 53 bd e2 d9 b0 3c 52 0a d3 3c
       0.0138626415 -0.051680304 0.02158827 0.025761757
000380 71 7e 74 3c c9 d9 d2 bc a7 22 25 3d 5f b1 a8 bc
       0.014922724 -0.025738614 0.04031625 -0.02059239
000390 db dd 0d bd ad e6 25 bb f0 30 05 3d 17 6c 3a 3c
       -0.034635406 -0.0025314495 0.032517374 0.01137831
0003a0 44 bb 80 3d 62 cc 4d bc 22 be d4 bc 31 f4 f0 3c
       0.06285718 -0.012560936 -0.025969569 0.029413315
0003b0 72 e0 ce 39 78 5c 48 bc 83 ee d5 3b 06 a0 0b bd
       0.00039458607 -0.0122290775 0.006528677 -0.034088157
0003c0 f1 74 08 3d c2 5c c0 3c d4 d9 17 3d 77 7f 66 bc
       0.03331465 0.02348173 0.03707297 -0.014068476
0003d0 c0 c2 a1 3c 91 d1 da bc c9 ad 3e bc c0 3c 5c bd
       0.019746184 -0.026711257 -0.011638113 -0.053768873
0003e0 fd 42 0e bd b7 96 a9 b9 45 4e 09 3c 27 82 4f bd
       -0.034731854 -0.00032346483 0.008380477 -0.050661232
0003f0 f7 ec 03 bc dc a0 f0 3c 9f 71 1f 3d a9 f6 79 bd
       -0.008052102 0.029373579 0.038926717 -0.06102625
