prompt_sliders/models/smilingslider/learned_embeds-steps-500.safetensors (safetensors, 3192 bytes, 1 tensors)

<smiling-lora> f4 [1, 768]
0	0xbbdcf828	-0.0067434497
1	0xba346bb0	-0.0006882502
2	0x3d3345d7	0.043767776
3	0xbbf6ed96	-0.0075356467
4	0xbbb062d0	-0.005382873
5	0x3d1256d1	0.035727326
6	0x3d0c49c2	0.03425003
7	0x3cd37594	0.025812902
8	0x3ba1f169	0.0049421084
9	0xbbcbc976	-0.0062190844
10	0x3b80fe79	0.0039365855
11	0x3c1e8a2b	0.0096764965
12	0xbbe68ba9	-0.0070356918
13	0x3ccef3f1	0.025262805
14	0xbcdb157f	-0.026743649
15	0x3be17e58	0.0068815164
16	0x3b72cd2f	0.0037048568
17	0x3ccdca33	0.02512083
18	0x3b5e861f	0.0033954454
19	0x3b856aa4	0.0040715504
20	0xbd07dc4f	-0.033169087
21	0xbcb9f944	-0.022701867
22	0x3c48fc97	0.012267253
23	0xbbb91232	-0.005647921
24	0x3bc869d2	0.0061161304
25	0xbbb13588	-0.0054079928
26	0x3cfb9b84	0.030713804
27	0xbcb5c421	-0.022188248
28	0xbd0e9747	-0.034812238
29	0x3c3b91d9	0.011448347
30	0xbce956b5	-0.028483728
31	0xbc5592dd	-0.013035503
32	0xbb43859e	-0.002983428
33	0xbc470e2a	-0.012149373
34	0xbca3235c	-0.019914322
35	0xbc7ee35e	-0.015557138
36	0x3c283922	0.010267528
37	0x3c03246f	0.008004292
38	0xbb7ccebd	-0.0038575374
39	0x3c3245a9	0.010880866
40	0x3c849950	0.016186386
41	0xbbf250fc	-0.007394908
42	0x3cf6d0e3	0.030128902
43	0x3b9602ea	0.004577984
44	0x3ac13910	0.0014741737
45	0xbc47243b	-0.012154634
46	0xbc86b99a	-0.016445924
47	0xbc58a50d	-0.013222945
48	0xbc6a52fa	-0.01430201
49	0xbc82025f	-0.015870271
50	0xbafc399b	-0.0019243242
51	0x3c88a9d6	0.016682547
52	0xbd0d50bd	-0.034500826
53	0xbc961882	-0.018322233
54	0xbc5ba6d7	-0.013406477
55	0xbbac862c	-0.005265018
56	0xba92e037	-0.0011205737
57	0x3b45bfb6	0.0030174083
58	0xbcb1aa83	-0.021687752
59	0xbc93710c	-0.01799824
60	0xbc6280f0	-0.013824686
61	0x3c5157ba	0.012777263
62	0x3cb6e16d	0.022324288
63	0xbc1a44ac	-0.009415787
64	0xbca2a71b	-0.019855073
65	0x3c5f9ff8	0.013648979
66	0xbbe7fcab	-0.007079681
67	0xbcabf378	-0.020990118
68	0x3cbc588c	0.022991441
69	0xbb56cf40	-0.003277734
70	0xbc3ff5ac	-0.011716288
71	0x3aa72550	0.0012752209
72	0xbcff84f0	-0.03119132
73	0xbca3d727	-0.020000054
74	0x3bf4b55f	0.00746791
75	0x3982c2b4	0.00024940597
76	0xbb60c829	-0.0034298992
77	0xbba75fe6	-0.0051078675
78	0x3ba97080	0.0051708817
79	0xba505a23	-0.0007948002
80	0x3c61273a	0.0137422625
81	0xbc3977b6	-0.011320045
82	0xbcd2fc85	-0.025755176
83	0xbb71f889	-0.003692182
84	0xbd768d4c	-0.060193345
85	0x3c234e79	0.00996744
86	0xbbfc80ff	-0.007705807
87	0xbc0d0cbd	-0.008608994
88	0xbc4c27af	-0.012460633
89	0xbbc02944	-0.0058642942
90	0xbc065498	-0.00819888
91	0x3cbfecdf	0.023428379
92	0x3cd10e0b	0.025519392
93	0xbcc7ce18	-0.024390265
94	0x3ccbe79b	0.024890712
95	0x3bf04da8	0.007333476
96	0x3c5087c1	0.012727679
97	0x3cceec6e	0.025259223
98	0xbba1603c	-0.004924802
99	0x3bfd5e3f	0.0077321823
100	0x3d0de066	0.03463783
101	0xbc9504c5	-0.01819075
102	0x3d19e0af	0.03756779
103	0x3c952a52	0.018208656
104	0x3ce7f916	0.028317016
105	0x3c00f22d	0.007870239
106	0x3cb87437	0.022516353
107	0xbc17c177	-0.009262434
108	0xbc331ca3	-0.0109321205
109	0x3a869fa1	0.0010270962
110	0xbbb05d6c	-0.0053822305
111	0xbb04c977	-0.0020261684
112	0xbc68797c	-0.01418912
113	0x3d0114fa	0.031514145
114	0xbbfdcac7	-0.00774512
115	0x3c0d6197	0.008629224
116	0xbb21ef2f	-0.0024709215
117	0x3b9c8e0d	0.004777676
118	0x3cc40f17	0.023932977
119	0xbc9779b2	-0.018490646
120	0x3c4a1095	0.012333055
121	0xbc1466a5	-0.0090576755
122	0x3c39e0c7	0.011345095
123	0x3ce9c1e3	0.028534835
124	0x3d247213	0.040147852
125	0xbc30feb7	-0.010802916
126	0x3c541172	0.012943612
127	0x3b0201dc	0.0019837534
128	0x3c45cf4e	0.012073351
129	0xbbdbdd94	-0.006709764
130	0xbcaf576b	-0.021403989
131	0x3cc88798	0.024478719
132	0x3c9d1802	0.019176487
133	0x3b0cdb56	0.002149304
134	0xb9a42f64	-0.00031315826
135	0xbae21d0c	-0.0017251088
136	0x3bd5972b	0.0065182648
137	0x3cdfbdf0	0.027312249
138	0x3c4e6433	0.012597132
139	0x3c51ced0	0.012805656
140	0xbca8b0ed	-0.020592177
141	0x3b78725e	0.0037909965
142	0x3c226939	0.009912782
143	0x3b249df4	0.0025118561
144	0xbc321228	-0.010868587
145	0x3bf6f4f4	0.007536525
146	0xbc64ef50	-0.013973072
147	0xbc6e4bf9	-0.0145444805
148	0xbb75b153	-0.0037489727
149	0xbb8af4f2	-0.0042406255
150	0xbc682d88	-0.014171012
151	0xbb91c8ff	-0.0044490094
152	0xbc024b31	-0.007952497
153	0x3cbec9dd	0.023289615
154	0x3caa9711	0.020823987
155	0x3ba24f62	0.004953311
156	0x3b7e54a1	0.0038807767
157	0x3c412ece	0.011790944
158	0x3ba62d2a	0.005071302
159	0xbce42acf	-0.027852444
160	0xbcbddcf1	-0.023176642
161	0xbc644b22	-0.013933929
162	0xbd0d5dda	-0.034513332
163	0x3c551800	0.01300621
164	0xbc59551e	-0.013264922
165	0xbc13eb6e	-0.009028299
166	0xbd15bf70	-0.036559522
167	0x3a909ff1	0.0011033994
168	0x3c2533eb	0.010083179
169	0x3bcf95a3	0.0063349768
170	0xbbe5f35d	-0.0070175366
171	0x3bbbbc29	0.0057292175
172	0xbcc62217	-0.024186177
173	0x3c196ac6	0.009363836
174	0xbcbcb9b4	-0.023037769
175	0xbcd74054	-0.026275791
176	0x3c363638	0.011121325
177	0xbc5cac3e	-0.0134688
178	0xbc9d3528	-0.019190386
179	0x3ce2a626	0.027667116
180	0x3c66371d	0.014051226
181	0xbca1971f	-0.01972538
182	0xbc5e5d72	-0.013572084
183	0x3c23928f	0.009983673
184	0xbd686e5e	-0.05674588
185	0xbb6c3491	-0.0036042074
186	0x3c9ffda2	0.019530121
187	0x3c39c7c6	0.011339134
188	0x3baeeb3d	0.005338101
189	0x3bfada5e	0.007655426
190	0xbacfd24b	-0.0015855519
191	0xbc9d0388	-0.019166723
192	0x3b035e5a	0.0020045252
193	0x3cb5d8d6	0.022198122
194	0x3c5f3b0e	0.01362492
195	0x3ce6ce7d	0.028174633
196	0x3ca38829	0.019962387
197	0xbc4b10ab	-0.012394111
198	0xbc6b5470	-0.014363393
199	0xbbef26d8	-0.0072983317
200	0x3b0f3112	0.0021849317
201	0x3b566722	0.003271528
202	0x3c1e6f46	0.009670084
203	0xbd0363d1	-0.032077614
204	0xbc8786d8	-0.01654379
205	0xb91d8164	-0.00015020889
206	0x3ca8582f	0.020549862
207	0x3c18b649	0.009320804
208	0xbb0f1b99	-0.0021836518
209	0x3c550f03	0.013004067
210	0xbb55e482	-0.0032637422
211	0x3b832323	0.0040019914
212	0x3cd9d346	0.02659
213	0x3cf57d2e	0.029966917
214	0x3c896ff6	0.01677702
215	0xbcaaeb65	-0.020864198
216	0x3c03dc7d	0.008048174
217	0xbccad760	-0.024760902
218	0x3d2c373c	0.042044863
219	0xbc782d20	-0.015147477
220	0xbcca5648	-0.024699345
221	0xbd2515cf	-0.040304
222	0xbc966b58	-0.018361732
223	0x3c200a81	0.009768129
224	0x3c3de1e7	0.011589504
225	0x3cb4507c	0.022011034
226	0xbc31a937	-0.010843567
227	0x3ccc5649	0.024943488
228	0xbc5389dd	-0.012911287
229	0xbbc2c144	-0.005943449
230	0xbb99b16e	-0.0046903407
231	0xbb06693b	-0.00205095
232	0xbc39d7d6	-0.011342963
233	0x3bfcde9f	0.007716968
234	0x3d0a0d27	0.03370395
235	0xbbc76e1f	-0.0060861255
236	0x3806c68d	3.2133004e-05
237	0xbc2fe6e1	-0.010736198
238	0x3d03c89b	0.032173734
239	0xbc9a435d	-0.01883095
240	0xbc09c5d1	-0.0084089795
241	0xbb42ab72	-0.002970424
242	0x3bd9c0f5	0.0066453167
243	0x3b0a9b24	0.00211496
244	0xbc59b371	-0.013287411
245	0xbbd910f0	-0.0066243336
246	0xbab270cd	-0.001361394
247	0xbb85d453	-0.004084149
248	0xbabd8464	-0.0014459011
249	0xbcae7da1	-0.021300139
250	0xbce55801	-0.027996065
251	0xbc50a7f8	-0.012735359
252	0x3cae6810	0.021289855
253	0x3d10874c	0.03528528
254	0x3ca36eaa	0.01995023
255	0x3c28748f	0.010281696
