prompt_sliders/models/smilingslider/learned_embeds-steps-1000.safetensors (safetensors, 3192 bytes, 1 tensors)

<smiling-lora> f4 [1, 768]
00000000: 8289 abba 9f36 043c 674a 573d 2c55 45bc
00000010: 15c9 5bbc d382 173d b7a4 0e3d ebf6 c53c
00000020: 2147 a33b b047 f0bb d21a 463c 48c6 543c
00000030: 9de6 5ebc f5c6 9f3c 3139 18bd d890 ed3b
00000040: febc 383b 9422 d93c 199d 3f3b ecad 893b
00000050: 9e76 dcbc a58f 00bd 4399 05bb 4434 cbb9
00000060: c1f5 a23b ef15 fbba e683 f73c bc16 dabc
00000070: 3e2d 15bd 2c70 8b3c 7563 fabc 589d 68bc
00000080: afc1 cabb ffe7 5ebc 9931 6bbc 2744 41bc
00000090: 6f46 563c 133a 753c 4b5f c6bb 0cc8 cb3a
000000a0: ca50 a23c e1e5 c5bb 0e14 073d 3d86 613c
000000b0: a4fd 003c a472 8bbc 2f46 aebc adad a9bc
000000c0: e9be 9ebb 12e2 7cbc 00e5 e5bb 6ce2 893c
000000d0: 4e93 43bd 7fec b0bc 4b91 9bbc 7345 aabb
000000e0: 6c1b 81bb 6769 7c3c 7cb9 f6bc a9e0 95bc
000000f0: 712b 65bc adb0 003c 7b64 553c 5b8a 52bc
00000100: 73c0 52bc 6d89 703c d121 1abb b726 f7bc
00000110: 4917 ce3c 4b84 33bc 124a 61bc e318 363b
00000120: 0b5a 13bd 52e6 89bc 4b2a 733b 89c2 20bc
00000130: f736 e2bb 301d a6bb 3271 c53b d7e8 4e3c
00000140: 8f47 6a3c bcc3 2abc 81a1 b4bc 5354 3bbc
00000150: 526d 89bd 57db 8b3c 8683 c2b9 1711 e5b9
00000160: 607e f9ba 23c2 a7bb 584a 85bc 042e 963c
00000170: c341 1c3d d036 debc 6069 193d 5d79 c33b
00000180: 5db8 a93c 2373 d73c 76c2 84bc 707e 433c
00000190: 069b 0a3d 9d5d 86bc 24d5 2c3d f9ee 683c
000001a0: 37b4 fd3c 55a6 773c d225 6e3c e788 fcbb
000001b0: ba5a 7cbc 7993 b1bb f8f5 5cbc 7eb5 303c
000001c0: ec26 8fbc 86ce 643c 0e91 84bc 9a3c 783c
000001d0: 22aa 03bc a14a 033c c46b 963c ff5d ebbc
000001e0: 0917 7b3a 0fe3 03bc 175e 0f3c 1ff5 063d
000001f0: dff7 3e3d 9165 003b 2855 703c 0cd4 033c
00000200: ff3b 9f3c a781 bbbb 95ef 7ebc 740e bf3c
00000210: 3a2e fb3c fd40 413b df2a 993b 8fbf 6ebb
00000220: 8bb1 a83c dbd5 e23c f48e a03b aff7 de3c
00000230: e757 8cbc fb1e 3e3c 416a 283c b747 133b
00000240: 3256 9bbc 4862 3a3c 189f d3bb 85e8 4fbc
00000250: 0285 5e3c 4517 a6bb 2071 6fbc 6214 60bb
00000260: 90dc 9dbc e235 d03c d10c af3c 7a05 443c
00000270: b4b0 943b 55da b23c bef0 263c 4009 c6bc
00000280: cb86 8fbc 3c03 47bc 3d8d 15bd 10e5 613c
00000290: aa3e 8ebc b131 17bc d8e5 2dbd c87a c03a
000002a0: 975c 9b3b 895f 813c 20da b43b 0c61 2d3c
000002b0: aa1a d3bc 2109 5c3c 6094 a6bc 86a2 efbc
000002c0: a67a 2b3c b04e 67bc 395c 74bc 756c 093d
000002d0: 64b2 983c b527 03bc 652a 4cbc 4afe 5a3b
000002e0: 7d81 6cbd 53f9 2ebb 135e 953c c4cf 223b
000002f0: 3f19 263b ae42 413c ce6c 58bb fb81 b1bc
00000300: 3858 86bb 8c5d d63c ca7b 833c dcf1 df3c
00000310: 33f3 043d d698 09bc b804 38bc 8dc3 1a3c
00000320: 8b12 123c 8618 443a 94f6 223c 810e 3bbd
00000330: 54a9 d0bb ed40 1bbc 7a86 b23c f638 84ba
00000340: 5184 50bc c242 c13c bb5c 5f3b ec51 7a3a
00000350: 5505 1a3d 2efc 303d d87e 213c a77f e9bc
00000360: 37c5 693c a9ea a8bc 5624 ec3c 7309 9cbc
00000370: 7ef0 1ebd 8bc6 30bd c1b5 82bc 98b7 bf3c
00000380: 7cef 923c 27a5 c03c a06a 64bb c14e c33c
00000390: 807e 49bc 3af1 5b38 31e6 efba 6168 cebb
000003a0: 8dc6 e1bc c2ea b43b 9627 1d3d 1f58 09bc
000003b0: cde9 783a fb3b 3cbc cf60 003d af10 f6bc
000003c0: f3b6 84bc 5b17 1c3c adac d73b 4a75 baba
000003d0: 86a7 f6bc ebb0 03bb 0778 933a 17bc c3ba
000003e0: a794 b13b 6958 c5bc 85f8 c6bc 3f45 c0bb
000003f0: dff1 763c f551 d43c 8fe6 023d 3be9 623c
-0.0013087245 0.008069663 0.05256119 -0.012044232 -0.013414641 0.036989998 0.034825053 0.024165591
0.0049828445 -0.0073327646 0.012091355 0.012986727 -0.013604787 0.01950405 -0.037163917 0.0072499327
0.002818882 0.026505746 0.0029237925 0.0042016413 -0.02691203 -0.03138699 -0.002038554 -0.00038758118
0.004973144 -0.0019156317 0.030214261 -0.026622169 -0.0364201 0.017021261 -0.030565003 -0.01419767
-0.0061876397 -0.013605117 -0.014355087 -0.011796034 0.013078316 0.014967459 -0.0060538403 0.001554729
0.019813914 -0.0060393666 0.03297811 0.013764915 0.007872973 -0.017022438 -0.0212737 -0.020712698
-0.0048445356 -0.015434759 -0.0070158243 0.0168316 -0.047747903 -0.021597145 -0.01899018 -0.0051962673
-0.0039400365 0.015405989 -0.030117743 -0.018295603 -0.013987408 0.007854623 0.013024445 -0.012850369
-0.012863266 0.014681202 -0.0023518691 -0.030169828 0.025157588 -0.010956834 -0.01375057 0.002778583
-0.035974544 -0.016833458 0.0037104066 -0.009812006 -0.006903525 -0.0050693974 0.006025457 0.0126287555
0.014299287 -0.010422643 -0.022049667 -0.011433679 -0.06710304 0.017072363 -0.00037100556 -0.00043691017
-0.0019034855 -0.0051195784 -0.016270801 0.018332489 0.038148653 -0.027125746 0.03745401 0.0059653954
0.020717794 0.026300019 -0.016206007 0.0119320005 0.033839248 -0.01640206 0.042195454 0.014217132
0.030969722 0.01511534 0.014535384 -0.0077067497 -0.01540249 -0.0054191914 -0.013486378 0.010785459
-0.017474614 0.013965255 -0.016182449 0.015151167 -0.008036168 0.008013398 0.018361934 -0.028731344
0.00095783226 -0.00804974 0.00875046 0.03294861 0.046623107 0.0019591788 0.01466874 0.008046161
0.019437788 -0.005722243 -0.0155600505 0.023322321 0.030661691 0.00294882 0.0046743 -0.0036430096
0.020592472 0.027689865 0.004899854 0.027217714 -0.017131759 0.011604066 0.010279239 0.0022473165
-0.018962 0.011375971 -0.0064581744 -0.012689714 0.013581516 -0.005068692 -0.014614373 -0.0034191837
-0.019270211 0.025416318 0.021368416 0.011964196 0.004537666 0.021832624 0.010189233 -0.024174333
-0.017520329 -0.012146767 -0.03651165 0.013787523 -0.017363865 -0.009228156 -0.042455524 0.0014685029
0.004741262 0.015792625 0.0055191666 0.01058222 -0.02576955 0.013429911 -0.020334423 -0.029252302
0.010466253 -0.014117882 -0.014914566 0.0335507 0.01863975 -0.008005072 -0.0124612795 0.0033415728
-0.057740677 -0.0026698902 0.018233335 0.0024843076 0.0025344638 0.011795683 -0.0033023837 -0.021668425
-0.004099872 0.026167654 0.016050238 0.027337007 0.032458495 -0.008398255 -0.011231594 0.009446037
0.008915554 0.0007480461 0.009946484 -0.04566813 -0.0063678417 -0.009475929 0.021792639 -0.0010087776
-0.012726859 0.023591403 0.0034082371 0.00095489505 0.03760274 0.043209247 0.009856902 -0.028503252
0.014268211 -0.020619707 0.02882592 -0.019047474 -0.03880357 -0.043158095 -0.015955808 0.023402974
0.01793646 0.02351625 -0.0034853593 0.023841264 -0.012298226 5.243833e-05 -0.0018302855 -0.006299064
-0.027560497 0.0055211494 0.03836783 -0.008382826 0.0009495288 -0.01148891 0.031342324 -0.030037252
-0.016200518 0.009527053 0.006581864 -0.0014225629 -0.030109178 -0.0020094465 0.0011250981 -0.0014933374
0.005419332 -0.024090009 -0.024288425 -0.00586763 0.015072315 0.025917986 0.03195816 0.013849552
