prompt_sliders/models/age-promptslider/learned_embeds.safetensors (safetensors, 3184 bytes, 1 tensors)

<age-ti> f4 [1, 768]
000000 fe 35 05 bd de 3d 37 3c 6b 9a b1 3b e9 7a 04 bc
       -0.032522194 0.011184184 0.0054200194 -0.008085945
000010 8d e2 81 3c d9 0d dc bb 56 e8 a2 bd 50 65 11 3d
       0.015855098 -0.006715518 -0.07954471 0.03549701
000020 a2 55 fb 3b c1 3a 1f bb 17 e9 4b bd 64 fb f6 3b
       0.0076701203 -0.0024296495 -0.04978284 0.0075372923
000030 49 50 97 ba b8 c5 8f 3c c5 7f 84 3c 85 c9 81 3c
       -0.0011544313 0.017550334 0.016174207 0.015843162
000040 d7 af 7c 3c 6b 00 39 bb 1f 35 cb bb 61 d5 f3 3b
       0.015422783 -0.002822901 -0.006201401 0.007441208
000050 c8 af b0 bb e4 46 be 3c 79 7e 5c 3d de cd ed 3c
       -0.0053920485 0.023227163 0.05383155 0.02902883
000060 c1 84 51 bb 83 12 16 bb be 9f 11 bc 5c 1e 99 3b
       -0.0031969997 -0.0022899217 -0.008888183 0.0046728086
000070 98 0f b4 bb bb 24 48 3d 5c be b2 bc 61 48 0f 3d
       -0.005495023 0.048863154 -0.021819286 0.034981135
000080 08 dd ea 3b 72 58 72 3c f9 8f 34 3d e5 41 ef bc
       0.0071674623 0.014791595 0.044082616 -0.029206226
000090 66 29 c1 3b 8d 5e c5 bc 73 3e 82 3d ea ec 1b 3d
       0.0058948277 -0.024092937 0.063595675 0.038067736
0000a0 e8 ec 80 bb cf f4 ed bc 89 84 31 bd 05 59 ac bc
       -0.0039344914 -0.029047398 -0.043339286 -0.021038542
0000b0 e1 fc 86 3c 12 07 97 bd f3 a9 d3 3c 11 95 a8 3c
       0.016478004 -0.073743954 0.025837874 0.020578893
0000c0 79 2b 8e bc e3 fb a8 bc 99 ee 7a bc 6d 68 8a bc
       -0.017354714 -0.020627921 -0.015315675 -0.016895497
0000d0 e1 bd 1f bc d2 92 07 3d a4 4d 7e bd 74 cc ba bc
       -0.0097498605 0.033099003 -0.062085763 -0.022802569
0000e0 fa 00 28 bd b3 ce 20 3c 4a 84 2a bb 47 4c f4 bb
       -0.041016556 0.009814906 -0.0026018792 -0.007455382
0000f0 2f 5e 06 3c c0 9f 47 3d 38 86 5c bc dc 82 a5 bc
       0.008201166 0.048736334 -0.013459735 -0.020204
000100 86 42 05 bd be 76 37 bd e1 3b 92 38 87 67 4e 3d
       -0.032534145 -0.044790976 6.972976e-05 0.0503917
000110 64 c7 90 bb c8 db 33 3d 3c d8 4c 3a 83 f7 ea bb
       -0.0044183005 0.04391077 0.0007814204 -0.007170619
000120 df 29 ab bc 28 d9 dd bc 5d 5f 88 3c 06 cc f8 3c
       -0.02089399 -0.027081087 0.016647035 0.030370723
000130 f5 b5 87 bc 00 24 46 3d f5 4d 6b bc 47 d0 83 bb
       -0.016566256 0.048374176 -0.014361848 -0.0040226313
000140 ed c7 71 bc 6c 6e c9 3c a6 d2 36 bc 77 88 3e 3c
       -0.014757139 0.024588786 -0.011158621 0.011629215
000150 b8 40 94 3c c0 c9 03 bd 88 3c 6d bc 9e cf f2 bb
       0.018097267 -0.032174826 -0.014479764 -0.007410004
000160 39 fb c0 bb 72 be b1 3c 65 c7 71 ba 35 5b 47 bc
       -0.005889323 0.021697257 -0.00092231325 -0.012167742
000170 b0 82 88 bd d0 bc 35 bc fe f7 c5 bc c3 06 d0 3b
       -0.06665552 -0.01109238 -0.024166103 0.0063484623
000180 e8 a8 95 bc d6 08 e8 bc d3 29 c4 3b e8 c0 75 bc
       -0.018269017 -0.028324526 0.005986431 -0.014999606
000190 cf 96 1b bd 3c 7f 70 bc dc 2c 32 bd 8d 6a cf 3c
       -0.03798562 -0.014678773 -0.043499812 0.025319362
0001a0 64 45 b5 bc 12 ea c4 bb 3e 33 f3 3b ee 56 c0 3b
       -0.022127815 -0.0060093487 0.00742188 0.005869738
0001b0 83 81 1d bd a4 bc 21 3c cb 27 3d 3b 95 b8 b7 3b
       -0.03845359 0.009871636 0.002886283 0.0056067207
0001c0 8a a5 9b bc de 10 86 bc b4 5f fc 3b 3c 95 fe bc
       -0.018999834 -0.016365465 0.0077018384 -0.03107702
0001d0 96 85 b1 bc 46 36 b6 bc 3a cf 02 3c 16 9c 46 3b
       -0.021670144 -0.022242676 0.007983977 0.0030305437
0001e0 1e fb f6 3b 2f 00 40 3c 34 bf 32 bc 91 40 b1 3c
       0.0075372597 0.011718794 -0.010909844 0.021637233
0001f0 88 ef 30 bd 34 fe 87 bc 43 ec 0b bd fd ce 9b 3c
       -0.043197185 -0.016600706 -0.034160864 0.019019598
000200 a1 94 01 3d df ee 9a 3c df b3 08 3c 75 97 97 3c
       0.031635884 0.01891273 0.008343666 0.018504838
000210 ed 11 3d 3c 30 a1 04 bc 3b 89 40 bd 05 c5 fd bc
       0.011539918 -0.008095071 -0.047005873 -0.030977735
000220 7a 97 55 bc 81 7d 83 3b 88 67 d5 3c 43 f3 0f 3d
       -0.013036603 0.004012764 0.026050344 0.0351441
000230 7a 9a f4 bc 70 35 11 bc 84 32 69 bc 68 6d fa 3c
       -0.029858816 -0.008862838 -0.014233235 0.030569747
000240 99 14 d9 3c 67 2c 68 3c f9 e8 92 39 a1 11 84 bb
       0.02649908 0.014170743 0.00028020868 -0.004030422
000250 f0 bf 90 bc 26 f3 da 3c e9 61 b4 3c 61 ac b0 ba
       -0.017669648 0.02672727 0.022019343 -0.0013479107
000260 0e ef b1 3b ff 66 b9 bc e6 19 30 3d 37 f8 55 bd
       0.005430109 -0.02263212 0.04299345 -0.05223867
000270 a0 13 91 3c 42 9e 97 3b 0b 3c 80 bc 70 46 28 bd
       0.017709553 0.00462702 -0.01565363 -0.0410828
000280 07 e9 bd 3b f0 ce 10 3d e1 be fa 3c f4 3d be bb
       0.0057956013 0.0353536 0.030608596 -0.005805725
000290 3f 40 26 bc 16 e3 c5 3c ee 47 85 3c 56 af 36 3c
       -0.010147153 0.024156135 0.01626965 0.011150202
0002a0 b2 d8 ec 3c 76 8d 99 3c 95 63 84 3c 19 3e 31 3c
       0.028911922 0.018744212 0.016160766 0.010818028
0002b0 26 24 22 3d 4a ec e4 bc 80 15 31 3c 24 02 3f bd
       0.039585255 -0.027944703 0.010808349 -0.0466329
0002c0 be b7 d8 bc 29 8b d7 3c c3 3a 98 bc 5b 9b 89 3b
       -0.026454803 0.026311474 -0.018582707 0.004199428
0002d0 fe be 99 bb c2 a2 8c bd 52 99 5c bb 57 0f 0c 3c
       -0.0046919575 -0.06866981 -0.0033660722 0.008548579
0002e0 24 05 72 39 7e fc 83 3c b0 8d 99 bb 4e 9a 14 3d
       0.00023080833 0.016111609 -0.00468608 0.03627997
0002f0 23 b4 91 bc d0 67 45 bc f3 17 81 3c a7 13 43 3c
       -0.017786091 -0.012048677 0.01575849 0.011906541
000300 80 71 5e 3c 56 04 53 bc 3f 77 bf bb 8d 6f 91 3c
       0.013576865 -0.012879452 -0.0058430727 0.017753387
000310 7e 82 4b bc 69 b8 9a ba f6 4c 07 3b 8d af b8 bb
       -0.0124212485 -0.0011804226 0.0020645238 -0.0056361617
000320 26 35 44 3d d0 e7 2d 3d 79 51 9b 3c 29 bb fe bb
       0.04790225 0.0424574 0.018959748 -0.007773776
000330 5b 28 ee 3b ce ec bd 3b 0f 50 b6 3c 31 1f 0f bd
       0.0072679943 0.0057960516 0.022254972 -0.034941856
000340 21 c9 9f 3c ee 5e 95 bc bb 81 7b bc 26 3a 77 3d
       0.019505085 -0.018233743 -0.015350754 0.06035819
000350 e0 f6 a4 bc 45 5c a6 3c a7 e5 c4 bc 2b 3e de bb
       -0.02013725 0.02030767 -0.024035288 -0.0067823133
000360 db 25 88 3a 9a fc 4a 3b 96 5c e7 3b 8a ac 38 3c
       0.0010387258 0.0030973316 0.0070605977 0.011271605
000370 e5 bf db 3c 99 86 cb bb 48 c6 de bc 16 e0 15 bc
       0.0268249 -0.0062111137 -0.027194157 -0.0091476645
000380 b8 c5 92 3b 58 24 9d bb 2a da 00 3d 19 d4 41 3a
       0.0044791363 -0.0047955923 0.031458057 0.0007393971
000390 48 5f bb 3c 2b e2 b3 3c d1 b1 22 3c 15 51 1d bd
       0.022872582 0.021958431 0.00993009 -0.038407404
0003a0 51 b8 a0 3a 4c 8f 26 bd d6 1c 57 3c b2 e6 2c 3c
       0.0012261962 -0.040664002 0.013129434 0.010553049
0003b0 77 ee d3 39 1f 4d 09 3d 19 cf 08 3c 0b d4 e5 bc
       0.00040422726 0.033520814 0.008350157 -0.028055212
0003c0 25 bf 4f 3d dc b9 cc 3c 25 d8 76 bd 7d 7d 46 3d
       0.0507194 0.024990968 -0.060264725 0.04845952
0003d0 ee 1b e9 ba a7 1e 80 3c 3d 7f 0f 3d 1b c3 fb bb
       -0.0017784813 0.015639616 0.035033453 -0.0076831705
0003e0 e5 37 ff 3b a1 01 a4 bc 88 a7 c3 bc 0b 02 a0 3c
       0.0077886456 -0.020020308 -0.023883596 0.019532224
0003f0 79 40 f6 3c e4 a9 be bc 37 e3 26 3c 40 09 6a bc
       0.03006004 -0.02327437 0.010186008 -0.014284432
