prompt_sliders/models/carslider-normal/learned_embeds-steps-1000.safetensors (safetensors, 3184 bytes, 1 tensors)

<car-ti> f4 [1, 768]
0.03086045 -0.024896627 -0.0015125655 0.018706137 -0.008242312 -0.024358667 -0.04611149 0.030490737
-0.022796541 -0.02944663 -0.011422893 0.00954138 -0.019412428 0.0070130304 -0.014585941 0.02935936
0.010111661 -0.00306065 -0.0024645731 0.020461451 -0.005634149 0.001167364 0.007848289 -0.0037858193
0.014138632 -0.05970163 -0.030495644 0.021380037 0.020866705 -0.0029383136 0.004713156 0.009795773
0.017533457 -0.01723652 -0.0012513249 -0.024902457 0.018582512 0.0069966675 -0.003515004 -0.010357045
-0.017508758 0.0017415201 -0.024268873 0.011143538 -0.001186728 0.00899113 0.022000778 -0.00578865
-0.010030312 -0.005503273 0.012890406 -0.0031975692 0.028941808 -0.009252332 -0.013801975 0.0005462008
-0.0049145473 -0.019967858 0.011818074 0.017724179 -0.001663184 -0.010466526 0.0035153409 -0.0038125059
0.0064628636 -0.0043402887 0.014371438 0.013263407 0.003885743 0.0045894943 -0.020846207 -0.0023829248
-0.04652599 -0.030142432 0.013241879 -0.025330301 0.0036055746 0.012403062 -0.0022052943 0.006738801
0.0042546545 -0.014336971 -0.024111012 0.005045944 -0.0159284 0.0244326 0.0077003753 -0.011244392
0.0156035395 -0.0029363905 0.028335838 0.019842507 -0.0051980903 0.004563752 0.003897132 -0.0011890143
0.010198215 -0.008411685 0.007965986 0.017024862 0.014299819 -0.05337872 0.004396006 -0.0076047657
-0.0021952924 0.0046564904 -0.03710283 -0.029615799 -0.021226157 -0.0321649 0.015358994 0.009374278
0.007846367 -0.004146736 0.016592663 -0.00850908 -9.335943e-05 -0.014933752 0.0030617716 -0.028410507
0.011971134 0.0033189843 -0.028831271 -0.013871024 0.0005284202 0.0038218235 -0.024409495 -0.013571039
-0.027899034 0.035495922 0.015645567 -0.019035522 -0.016490906 -0.02680687 0.014194909 0.018149747
0.0123452665 0.025109095 0.016392618 0.0047661117 -0.0050660116 -0.029899746 0.009755932 -0.016137283
-0.0112103345 0.04491496 -0.018506961 0.018838739 -0.019223798 0.04783142 -0.0014241573 -0.0049334844
0.01946969 -0.00021429716 0.014659828 -0.0037228323 0.008585926 0.0030310184 -0.0033510781 -0.0076012625
0.020328207 -0.02227922 0.013049174 0.0014162106 0.011158921 0.016588068 -0.006543598 -0.014867361
-0.0076488373 0.013511312 0.011318074 0.03218982 0.012906598 0.007134274 -0.023127323 0.016986597
0.0017662052 0.024685688 0.009080727 -0.06009294 0.0049731955 -0.010718339 0.01098943 0.02373036
-0.016263084 0.012527116 -0.016376391 0.0025743835 0.0077344147 0.0014853799 -0.008929097 0.024979068
-0.0077206427 0.025671022 0.02026021 -0.00998997 -0.02386227 -0.01690108 -0.0035770524 -0.024680145
0.0076375823 -0.0021882222 0.0007616956 0.00044854218 0.0252967 -0.025082715 -0.0015596034 0.008205978
-0.009395155 -0.00038627427 0.0013034998 0.0014507788 -0.007472454 -0.008902035 0.0011529397 -0.008059768
-0.0005946068 -0.0016673469 -0.009863014 0.0006846637 0.013028619 -0.002102197 -0.021323651 0.0002816037
0.0033104431 -0.016900342 -0.01729478 -0.028254522 -0.002404077 0.006680696 0.024227489 0.021311639
0.018797565 0.0023182945 -0.0069994223 -0.036211036 -0.028648667 0.02603809 -0.019009849 -0.0032970866
-0.0044542025 -0.006773797 -0.0050532925 -0.0030916657 -0.0037706816 0.006596657 -0.016539348 -0.031684723
0.010263488 0.020499157 -0.035398774 -0.02263114 0.015925584 -0.019056894 -0.011381164 -0.015231485
00000000: 0ecf fc3c 03f4 cbbc 4741 c6ba 9d3d 993c
00000010: c30a 07bc d48b c7bc 67df 3cbd b6c7 f93c
00000020: d0bf babc 0f3a f1bc 1627 3bbc 7353 1c3c
00000030: d006 9fbc 90cd e53b dff9 6ebc 0a83 f03c
00000040: 61ab 253c 3095 48bb ad84 21bb c69e a73c
00000050: ab9e b8bb 3c02 993a 1c96 003c 821b 78bb
00000060: b9a5 673c b289 74bd 00d2 f9bc 3025 af3c
00000070: a7f0 aa3c b990 40bb d170 9a3b 737e 203c
00000080: 53a2 8f3c 9a33 8dbc 7f03 a4ba 3d00 ccbc
00000090: 5a3a 983c 4d44 e53b fb5b 66bb 98b0 29bc
000000a0: 876e 8fbc b843 e43a 84cf c6bc 6393 363c
000000b0: fc8b 9bba 884f 133c fa3a b43c b7ae bdbb
000000c0: 2e56 24bc cd54 b4bb 4832 533c 4f8e 51bb
000000d0: 5f17 ed3c 1897 17bc ae21 62bc ea2e 0f3a
000000e0: 360a a1bb a293 a3bc 98a0 413c 4c32 913c
000000f0: 32ff d9ba cb7b 2bbc a261 663b 3cdb 79bb
00000100: 6ec6 d33b fb38 8ebb 2e76 6b3c c34e 593c
00000110: f3a7 7e3b 7863 963b aac5 aabc d82a 1cbb
00000120: 0992 3ebd 43ed f6bc 77f4 583c 7e81 cfbc
00000130: 814b 6c3b 3636 4b3c b386 10bb 29d1 dc3b
00000140: a16a 8b3b 9de5 6abc 7584 c5bc 7258 a53b
00000150: 477c 82bc e026 c83c 6e53 fc3b 663a 38bc
00000160: fda5 7f3c 7570 40bb 8f20 e83c c18c a23c
00000170: be54 aabb 878b 953b 0667 7f3b b3d8 9bba
00000180: 6a16 273c 2ad1 09bc c483 023c b977 8b3c
00000190: ca49 6a3c a5a3 5abd 5f0c 903b 6631 f9bb
000001a0: e5de 0fbb 7995 983b 23f9 17bd d59c f2bc
000001b0: 7ae2 adbc 58bf 03bd 4aa4 7b3c 9296 193c
000001c0: 0c8e 003c 58e1 87bb 56ed 873c ab69 0bbc
000001d0: f6c9 c3b8 b2ac 74bc 01a8 483b 27bd e8bc
000001e0: 9322 443c 5183 593b 8f2f ecbc 4b43 63bc
000001f0: ae85 0a3a 8f77 7a3b 6cf6 c7bc 1059 5ebc
00000200: 848c e4bc 2c64 113d 222b 803c 62f0 9bbc
00000210: f017 87bc 159a dbbc c391 683c c7ae 943c
00000220: cd43 4a3c 97b1 cd3c d049 863c 0b2d 9c3b
00000230: c900 a6bb 50f0 f4bc 58d7 1f3c 5632 84bc
00000240: 8dab 37bc c0f8 373d e99b 97bc b353 9a3c
00000250: 3a7b 9dbc e1ea 433d caaa baba 11a9 a1bb
00000260: e67e 9f3c f5b4 60b9 c62f 703c c3fa 73bb
00000270: fcab 0c3c 0da4 463b c39d 5bbb 0314 f9bb
00000280: 5787 a63c e982 b6bc 34cc 553c 24a0 b93a
00000290: e8d3 363c b3e3 873c ae6b d6bb 3b96 73bc
000002a0: 19a3 fabb 8d5e 5d3c 716f 393c 79d9 033d
000002b0: 3276 533c a1c6 e93b 8375 bdbc 7a27 8b3c
000002c0: 0380 e73a a439 ca3c 54c7 143c 0424 76bd
000002d0: 30f6 a23b f99b 2fbc 030d 343c 2c66 c23c
000002e0: 293a 85bc 883e 4d3c c827 86bc fdb6 283b
000002f0: f970 fd3b 14b1 c23a 594b 12bc e7a0 cc3c
00000300: 72fd fcbb 094c d23c bdf8 a53c f9ac 23bc
00000310: cf7a c3bc 2274 8abc fb6c 6abb 042e cabc
00000320: af44 fa3b 4768 0fbb 87ac 473a 502a eb39
00000330: 063b cf3c 447a cdbc 9b6b ccba 5e72 063c
00000340: 23ee 19bc db84 cab9 32da aa3a 0f28 be3a
00000350: 7ddb f4bb d7d9 11bc 3d1e 973a 1e0d 04bc
00000360: 63df 1bba e18a daba 7b98 21bc 017b 333a
00000370: fd75 553c 03c5 09bb f0ae aebc 35a4 9339
00000380: 05f4 583b 9672 8abc c8ad 8dbc 0776 e7bc
00000390: b88d 1dbb bde9 da3b ba78 c63c bf95 ae3c
000003a0: 5afd 993c 87ee 173b 695b e5bb 0652 14bd
000003b0: 9cb0 eabc d54d d53c 8bba 9bbc ef13 58bb
000003c0: 8ff4 91bb baf6 ddbb 1796 a5bb 8b9d 4abb
000003d0: 8a1d 77bb c528 d83b 877d 87bc d7c7 01bd
000003e0: 3028 283c d9ed a73c 4efe 10bd f164 b9bc
000003f0: 5f76 823c 341d 9cbc 1078 3abc 7a8d 79bc
