prompt_sliders/models/carslider-normal/learned_embeds.safetensors (safetensors, 3184 bytes, 1 tensors)

<car-ti> f4 [1, 768]
0	0x3ce3d66d	0.027812207
1	0xbcb15e4e	-0.021651413
2	0xbaea5a4b	-0.0017879693
3	0x3ce692d3	0.028146183
4	0xbc2b6e1f	-0.010463267
5	0xbcead09d	-0.028663928
6	0xbd3ec250	-0.04657203
7	0x3d0ea23a	0.03482268
8	0xbcf94016	-0.030426066
9	0xbd18e517	-0.037327852
10	0xbc5f0141	-0.013611139
11	0x3c31639d	0.010826972
12	0xbcbcef34	-0.02306328
13	0xbaed6829	-0.0018112707
14	0xbc6b73a5	-0.0143708335
15	0x3cbc445d	0.022981817
16	0x3a91a358	0.0011111302
17	0xbbf9dbf4	-0.0076250974
18	0xbc124ae7	-0.008928991
19	0x3cac02ac	0.020997368
20	0xb9ebdcbb	-0.0004498715
21	0x3b96176b	0.0045804284
22	0x3c59c463	0.013291451
23	0x39f3b032	0.00046479848
24	0x3c438e4b	0.011935781
25	0xbd98a7f0	-0.074539065
26	0xbd096363	-0.03354205
27	0x3cd4eccd	0.025991822
28	0x3c19822f	0.009369417
29	0xbbb906d8	-0.005646568
30	0xbb8add8c	-0.004237836
31	0x3bcca2ee	0.0062450087
32	0x3ce883ca	0.028383154
33	0xbc242739	-0.010019117
34	0x3a1d6b71	0.0006005085
35	0xbcfbf5d2	-0.030756865
36	0x3c7fbc6e	0.01560889
37	0x3caed36f	0.021341054
38	0xbb465de6	-0.003026837
39	0x3b4788ba	0.0030446486
40	0xbcf697e9	-0.030101733
41	0x3af7ee06	0.0018915541
42	0xbcf8f22a	-0.03038891
43	0x3b8528a2	0.0040636817
44	0xbc453317	-0.012036107
45	0x3bf47eaf	0.007461391
46	0x3c8834b8	0.0166267
47	0x3b287136	0.0025702245
48	0xbc42b3b9	-0.0118836695
49	0xbc0bdddf	-0.008536785
50	0x3bc97805	0.0061483406
51	0x3aad7ee2	0.0013236667
52	0x3d1fcc83	0.039013397
53	0xbc766b8d	-0.015040291
54	0xbc5491b8	-0.012974195
55	0x3be05096	0.006845544
56	0xbb96ef22	-0.0046061436
57	0xbc446f01	-0.011989356
58	0x3bbf3548	0.005835209
59	0x3cdb4424	0.02676589
60	0x3b00eddc	0.0019673025
61	0xbb4b3b26	-0.0031010597
62	0x3c9d0eeb	0.019172153
63	0xbbb62428	-0.0055585094
64	0x3c054dc9	0.008136221
65	0xbaf19349	-0.0018430735
66	0x3ca806f7	0.020511134
67	0x3c5c1387	0.01343239
68	0x3c00f754	0.007871468
69	0xbaff4310	-0.0019474942
70	0xbcd8029c	-0.026368432
71	0xbbe8cde2	-0.0071046213
72	0xbd2ff8b4	-0.04296179
73	0xbd41858b	-0.047246497
74	0x3c8c4ace	0.017125513
75	0xbcaf9d01	-0.02143717
76	0x3c038a69	0.008028605
77	0x3c962f38	0.018333063
78	0xbb8d9596	-0.0043208105
79	0x3c969e8e	0.018386152
80	0x3c121386	0.008915788
81	0xbc6fd519	-0.014638209
82	0xbccc3e0e	-0.024931934
83	0x3c11f121	0.008907587
84	0xbc89e78b	-0.016834041
85	0x3cedd45e	0.029031929
86	0x3cb5153b	0.02210485
87	0xbbbd25b4	-0.005772317
88	0x3c73bd5d	0.014876691
89	0x39a98e7d	0.00032340354
90	0x3d19803c	0.03747581
91	0x3c8ac2ac	0.01693853
92	0x3c4005f4	0.011720169
93	0x3c382b0f	0.011240735
94	0x3b1f516c	0.0024310006
95	0xbb84d448	-0.004053626
96	0x3c663b3a	0.014052207
97	0xbc411a23	-0.011786017
98	0x3b42e563	0.0029738776
99	0x3ca33135	0.019920925
100	0x3c4d5b09	0.0125339115
101	0xbd5785e8	-0.052617937
102	0x3c288072	0.01028453
103	0xbc809550	-0.015696198
104	0xbb2022c9	-0.0024434796
105	0xbbce3750	-0.006293215
106	0xbd28c31d	-0.0412017
107	0xbcd6fe49	-0.0262443
108	0xbcdda040	-0.027053952
109	0xbd2307a5	-0.039802212
110	0x3c588ab0	0.013216659
111	0x3c769ff1	0.015052781
112	0x3b9752ba	0.004618016
113	0xbb890827	-0.00418188
114	0x3c318c06	0.010836607
115	0xbc836045	-0.016037116
116	0xbbbe5b40	-0.0058092177
117	0xbc8e13a3	-0.017343348
118	0x3bfa6375	0.0076412507
119	0xbd055f6b	-0.0325617
120	0x3c63dc4d	0.013907504
121	0xbb42cdc6	-0.0029724701
122	0xbcbca3f6	-0.023027401
123	0xbae7495d	-0.0017645765
124	0x3ae69be9	0.0017594072
125	0x3c883f9f	0.0166319
126	0xbb498360	-0.0030748472
127	0x3ba95518	0.0051676147
128	0xbd0f5a09	-0.034997974
129	0x3d22defb	0.039763432
130	0x3c45fe25	0.012084519
131	0xbc7d153c	-0.015446957
132	0xbc996c70	-0.018728465
133	0xbca85b69	-0.0205514
134	0x3cb79a5e	0.022412475
135	0x3ca75a92	0.02042893
136	0x3be2aeb2	0.006917798
137	0x3ca7cb3f	0.020482657
138	0x3ce04eef	0.027381388
139	0x3bc5144f	0.006014384
140	0xbc086577	-0.008324972
141	0xbcd39cac	-0.025831543
142	0x3b8083ac	0.0039219465
143	0xbce81058	-0.028328106
144	0xbc008b8e	-0.007845772
145	0x3d7de7f3	0.061988782
146	0xbce81397	-0.028329654
147	0x3c790f1c	0.015201356
148	0xbca8c9e5	-0.020604083
149	0x3d766171	0.06015152
150	0xbc0510c6	-0.008121675
151	0xbc43c04c	-0.011947703
152	0x3cef1048	0.029182568
153	0xbbf2da75	-0.007411296
154	0x3cf3b530	0.029749483
155	0xbc3b6a5b	-0.011438931
156	0x3bc13ec0	0.005897373
157	0x3b061a26	0.0020462363
158	0xbc8f50d6	-0.0174946
159	0x3a6ceb69	0.00090377644
160	0x3cb18350	0.02166906
161	0xbc806830	-0.01567468
162	0x3c4e0aca	0.0125758145
163	0xb9a184e5	-0.00030807327
164	0x3cb8205b	0.022476366
165	0x3cbce23d	0.023057098
166	0xbc460c13	-0.01208784
167	0xbc843190	-0.016136914
168	0xbc0e5b6b	-0.008688788
169	0x3cd3ca93	0.02585343
170	0x3c377d8e	0.011199368
171	0x3d09db4c	0.033656403
172	0x3bd2ce74	0.0064333025
173	0x3cd15baf	0.025556413
174	0xbcac7c3b	-0.021055331
175	0x3c0469e2	0.008081885
176	0xb90d41f6	-0.0001347138
177	0x3d05850f	0.032597598
178	0x3c01bdbe	0.007918773
179	0xbd74ac0f	-0.0597344
180	0x3bf099d1	0.007342555
181	0xbc4222ec	-0.011849146
182	0x3ba243f7	0.0049519497
183	0x3cce7f1a	0.025207091
184	0xbbbac84c	-0.005700147
185	0x3c9d5c4c	0.01920905
186	0xbc9beec3	-0.019034749
187	0x3add3b9c	0.0016878727
188	0x3c07b6df	0.008283346
189	0x3b478333	0.003044319
190	0xbc39b764	-0.011335228
191	0x3cce2f6c	0.025169097
192	0xbbfb2c56	-0.0076651974
193	0x3c82d262	0.015969459
194	0x3cefc784	0.029269941
195	0xbcb5931b	-0.022164872
196	0xbc6c3ee6	-0.014419293
197	0xbc547320	-0.012966901
198	0xba492bec	-0.00076740864
199	0xbd0b2919	-0.03397474
200	0x3b53761b	0.0032266441
201	0xbb3a47e0	-0.0028424188
202	0xbad23ee5	-0.0016040473
203	0x3bea8861	0.007157371
204	0x3d0f6d84	0.03501655
205	0xbd05042b	-0.032474678
206	0xbbf23222	-0.00739123
207	0x3beff886	0.0073233275
208	0xbae182a5	-0.0017205073
209	0xbc83d818	-0.016094252
210	0x3bfd91fe	0.007738351
211	0x3bfa4b17	0.007638346
212	0xbc03a3e4	-0.00803468
213	0xbc884c92	-0.016638074
214	0x3aa7794c	0.0012777238
215	0xbcc4bc50	-0.024015576
216	0x3bf96b34	0.0076116566
217	0x3be7112d	0.007051608
218	0xbcbccfca	-0.0230483
219	0xbb072b54	-0.002062519
220	0x3cb7672c	0.022388063
221	0xbc436e58	-0.0119281635
222	0xbcdd5756	-0.027019184
223	0x3b629165	0.0034571525
224	0xbbf4c2ab	-0.0074694953
225	0xbcb9f9ed	-0.022702182
226	0xbc516321	-0.012779982
227	0xbd0db457	-0.034595814
228	0xbaf46d98	-0.0018648384
229	0xbc7e8316	-0.015534183
230	0x3cedbc97	0.02902059
231	0x3c09a46f	0.00840102
232	0x3acc26e6	0.0015575557
233	0x3aaf3e2c	0.0013369969
234	0xbba9cbc7	-0.005181763
235	0xbd223f69	-0.039611254
236	0xbcdeb4d8	-0.027185842
237	0x3ca2cbb9	0.019872533
238	0xbc781552	-0.015141802
239	0xba1c1523	-0.00059540774
240	0xb78a8899	-1.651449e-05
241	0x3be407e0	0.0069589466
242	0xbc4cff0e	-0.012511982
243	0x3aa2d95e	0.00124244
244	0x3b286a35	0.002569807
245	0x3c677753	0.01412757
246	0xbcccc950	-0.024998337
247	0xbd24dac0	-0.04024768
248	0xb91a3b61	-0.00014708705
249	0x3c9b1e32	0.018935297
250	0xbd3282c6	-0.043581747
251	0xbc9890b9	-0.018623697
252	0x3cbb4642	0.02286065
253	0xbcbf1054	-0.023323216
254	0xbb9da23a	-0.0048105987
255	0xbc3622b9	-0.011116677
