prompt_sliders/models/carslider_xl/learned_embeds.safetensors (safetensors, 3184 bytes, 1 tensors)

<car-ti> f4 [1, 768]
000000 15 c2 3e 3d cd d6 09 bc 23 f3 9c bc 0f 36 21 3c
       0.04657181 -0.008413029 -0.019158905 0.009839549
000010 52 42 0a 3b a8 a6 09 3d a3 53 26 bd b2 69 6a bb
       0.002109666 0.0336062 -0.040607106 -0.0035768566
000020 cb d9 96 bc d9 bc 33 bd a3 a9 43 3d 7a 5a 0d bd
       -0.018414399 -0.04388127 0.0477692 -0.034510113
000030 17 d6 f7 3c 08 51 0c 3c f9 1a 5d bd 4e d0 30 3d
       0.030253453 0.008564241 -0.0539808 0.043167405
000040 1c 0c 31 bc b6 6f 1c 3b 48 30 2c bc e2 a2 07 3d
       -0.01080611 0.0023870296 -0.010509558 0.03311432
000050 ec f6 c8 bc 95 da 0d bd 9a cf 98 3c 01 c8 34 bc
       -0.024531804 -0.034632284 0.01865368 -0.011034013
000060 ca ee 90 bd e5 61 70 bc bb 2e b7 ba 03 c5 66 3d
       -0.070767954 -0.014671777 -0.0013975719 0.05634023
000070 5d 85 fd 3c 9a d5 13 bd 66 8b 05 3d 11 28 87 3c
       0.030947382 -0.03609238 0.032603644 0.016498597
000080 c0 02 11 3d e6 67 5c 3c ef ff c5 bb cc 56 ed bb
       0.035403013 0.013452506 -0.0060424726 -0.007243013
000090 6b f0 88 ba 77 bf ec 3c 4f 18 37 bd 3a 89 3c 3d
       -0.0010447627 0.028899891 -0.044700917 0.046029307
0000a0 31 bb 7e bc b1 10 1b bd 41 23 12 bb da f2 ae 3c
       -0.01554756 -0.037857715 -0.0022298845 0.021356035
0000b0 35 12 c3 3b c4 5d 45 bd d3 e5 61 3b 8d 47 ce bc
       0.005953098 -0.048185125 0.0034469261 -0.025180602
0000c0 bc e7 0e 3c 2f a8 38 3c 45 58 c3 bb 87 2f f4 3c
       0.008722242 0.011270567 -0.0059614503 0.029807819
0000d0 a0 74 bb bc 71 fe 24 bd f8 23 0a bc ce b5 d7 ba
       -0.02288276 -0.040281717 -0.008431427 -0.001645738
0000e0 c2 30 5b bc 69 e9 c0 3c 36 98 91 bc 77 1a d6 bc
       -0.013378324 0.023548799 -0.017772775 -0.026135666
0000f0 6b 2d d0 bc e0 88 5b 3c 76 6c ac 3c 53 ff 37 bb
       -0.025412282 0.013399333 0.021047812 -0.002807577
000100 bd 08 b9 3b 6d 00 ce bc c5 48 eb 3c a9 d4 10 38
       0.0056467936 -0.025146687 0.028721223 3.453033e-05
000110 79 70 09 3b 79 1d a5 3c 45 e7 cf bc f4 42 f2 3b
       0.002097158 0.020155655 -0.025378833 0.0073932353
000120 55 10 40 bc 24 79 2f bd ed 43 3a bc e7 9b 3f 3b
       -0.011722644 -0.042840138 -0.011368734 0.0029237212
000130 93 18 04 ba 9f d2 b8 bc d1 0a 52 3c ab 77 a4 3c
       -0.0005039062 -0.02256137 0.012819962 0.020076593
000140 63 ba 2d bd 40 f3 27 3d 27 fc a3 bc cc 61 04 3b
       -0.04241408 0.041003466 -0.020017697 0.0020199893
000150 74 93 84 bd ed 10 c2 3c 69 1a f4 bc bf 85 75 bd
       -0.06473437 0.023689711 -0.02979775 -0.059942003
000160 67 b9 2c 3d a6 25 da bc c3 18 e9 bb b2 5f 45 3c
       0.042169 -0.02662928 -0.0071135475 0.012046741
000170 38 f5 c8 bc e0 5a d8 bc 1e 0d 49 bb 25 02 1b 3c
       -0.024530992 -0.02641052 -0.0030677984 0.0094609605
000180 46 36 24 bc 9d c6 33 bd b3 78 aa bd f9 da 03 3d
       -0.010022705 -0.043890584 -0.08323803 0.03219125
000190 5a 75 5c 3c b0 ab ea bc be 10 32 3d ad a1 ca 3c
       0.013455713 -0.02864632 0.043472998 0.024735296
0001a0 09 99 44 3c 48 f3 1e 3d 4d fa 98 bd 5c 55 2d bc
       0.011999377 0.03880623 -0.07469616 -0.010579433
0001b0 35 9d 19 bc 30 52 7d bd 23 00 9c 3d 9b 45 b6 bc
       -0.00937586 -0.06184596 0.076172136 -0.022249987
0001c0 ab 1f ac bb f8 b5 f6 bb 0a cf 36 3d 4b 8b 95 bc
       -0.0052527986 -0.0075290166 0.04463104 -0.018254897
0001d0 59 e5 ef bc c6 97 3b bd a4 9b 1e bb 9c a9 28 bd
       -0.029284166 -0.04579904 -0.0024201656 -0.041177377
0001e0 35 84 8e bc d5 61 60 bb 80 95 9b bc a0 d1 a2 bc
       -0.017397026 -0.0034238 -0.018992186 -0.019875348
0001f0 5e de 0c 3d 01 ad e9 3b 3f 2b 25 bd 74 e9 86 bd
       0.034391753 0.0071312194 -0.040324446 -0.065874964
000200 72 59 96 bc 0c e4 35 3b e9 a2 29 bc 3d c3 1c 3d
       -0.018353198 0.0027754335 -0.010353782 0.03827213
000210 4e 0e 3e 3d 33 a4 f1 3c b0 03 bb bb 6f 71 f6 3b
       0.04640036 0.029497242 -0.0057072267 0.0075208466
000220 9d b4 df bc 16 80 0e 3d f8 7f 44 3d 0f d9 4a bb
       -0.027307803 0.03479012 0.047973603 -0.003095213
000230 61 d3 74 3c 14 fb 23 bc 4b 89 53 3d 89 2a 95 bc
       0.014942975 -0.010008592 0.051644605 -0.018208759
000240 a4 6c e4 bc 6a 9c d4 3b 3c 84 80 bd 56 32 d0 bc
       -0.027883835 0.0064883726 -0.06275222 -0.025414627
000250 3f ce c1 bc 07 12 f3 3c ce f4 14 bc 94 2e 67 bc
       -0.023657916 0.029671682 -0.009091569 -0.014110226
000260 58 4e 77 3c 42 cc ba bc 89 c1 cc 3c 3c 6a bc bc
       0.015094362 -0.022802476 0.024994629 -0.022999875
000270 dc b6 93 bb 4f f8 56 bb ef f4 79 bc 2d cc 27 3d
       -0.0045078825 -0.0032801812 -0.015256151 0.0409662
000280 4b bd 30 3d 37 18 6c bc f0 5d 01 3d 4b b9 05 bd
       0.043149274 -0.01441007 0.031583726 -0.032647412
000290 c6 24 28 3c 41 f2 66 bb db 12 ef bc e0 76 43 bd
       0.010262674 -0.003523961 -0.029183796 -0.04772079
0002a0 e2 eb cb ba e0 2e f8 bb 41 ac a4 bc d3 ee 96 3c
       -0.001555797 -0.0075739473 -0.020101668 0.018424427
0002b0 f0 73 a3 3b 96 45 7f bc 15 51 b1 bc f0 cc 0c bd
       0.004988186 -0.015580555 -0.021645108 -0.03437513
0002c0 e1 84 a5 bc db 4d e4 3c 60 c3 10 bc 71 14 e5 3c
       -0.020204963 0.027869156 -0.0088356435 0.027963849
0002d0 c0 27 8a 3c 1b d2 4e 3d f9 50 16 3d cc 9b cb 3c
       0.016864657 0.05049334 0.036698315 0.024854563
0002e0 28 36 0f bc 2d 57 bc 3b 96 d1 57 39 1e 2d 0e ba
       -0.008740939 0.005747697 0.00020582075 -0.0005423593
0002f0 43 ae 30 3d d4 82 a5 bb 29 b8 20 bd 08 e7 a9 3b
       0.04313494 -0.0050509963 -0.03923813 0.005185012
000300 53 cd c1 bc cf 81 31 ba 7b 4c ff 3c fe 98 b2 3c
       -0.023657477 -0.0006771357 0.031164398 0.021801468
000310 55 46 05 bc c6 8c ef bc a3 d2 cb 3c 5e 02 ba 3a
       -0.008134444 -0.02924193 0.024880713 0.0014191379
000320 52 40 88 bc a9 e2 95 ba a7 fa 2c 3c ab 17 1a 3c
       -0.016632233 -0.0011435348 0.010557807 0.009405057
000330 f3 d5 07 3c 56 f6 4d bd e8 d5 dd 3b a8 a6 06 3d
       0.008290756 -0.050283752 0.0067698844 0.03287378
000340 1e d4 ec bc 80 11 e7 3c 4e 49 21 bc ee 66 c6 3c
       -0.02890974 0.028206587 -0.009844137 0.024219003
000350 2c 46 16 3d 89 41 e2 bc f2 c4 db bc d2 44 0b 3c
       0.036688015 -0.02761914 -0.02682731 0.008500295
000360 d2 1e dc 3b 16 61 5d bb 6d 01 e4 bc d9 ce 3e 3c
       0.0067175413 -0.0033779792 -0.027832711 0.011645996
000370 ad 4f 3e bd 21 d5 b7 bc ee 94 c7 3a e1 ca 15 3c
       -0.046462703 -0.022440495 0.001522688 0.009142608
000380 58 36 1d bc 68 b5 13 3c 46 0f 00 3d 2b cf cf bc
       -0.009595476 0.009015419 0.031264566 -0.02536734
000390 69 6f cf 3c ba af c5 3b ea cb 18 3b 70 71 e6 bc
       0.02532168 0.006032911 0.0023314902 -0.028130263
0003a0 3c f6 c2 3c 9b 80 02 bd d0 31 ac 3c d8 5a d2 bc
       0.023799054 -0.03186093 0.021019846 -0.025678083
0003b0 a0 17 8a bc 74 7e 63 3d 0b fe 29 3c 93 c2 3b bc
       -0.016856968 0.055540517 0.01037551 -0.011459964
0003c0 11 6a b1 3c dd ea d0 3c b0 9c da bc b5 5e 0f 3b
       0.021657022 0.025502617 -0.026686043 0.0021876518
0003d0 cb 89 ea 3c ea 23 97 bb 17 6e 4b 3c fe 40 73 bd
       0.028630158 -0.0046124356 0.012416384 -0.059388153
0003e0 b9 cb 87 b9 38 77 29 3d 10 89 b2 3a 90 5a 0a bd
       -0.00025900992 0.04137346 0.001362117 -0.033777773
0003f0 6d d0 47 3c 45 05 1e 3c d7 0b 20 3c 43 13 2a 3d
       0.012195689 0.009644811 0.009768448 0.041522276
