prompt_sliders/models/comicslider_xl/learned_embeds-steps-500.safetensors (safetensors, 3184 bytes, 1 tensors)

<comic-ti> f4 [1, 768]
00000000: 948d 4a3d 03fd 14bc e6a3 5438 3ee2 cabc
00000010: 6386 5ebc 2886 48bc 82a3 c63b 10c1 703c
00000020: 247d 453b a5c0 78ba 2d16 873c 93b5 1e3c
00000030: 1b25 8a3c cbd1 2c3b a4c4 bd3a 0f5a c63c
00000040: 5620 71b9 04f7 643b 0d43 dbba a442 acba
00000050: 6ea8 043d a065 3c3b bca3 69bc ded9 c2bc
00000060: 0ee8 77bb 1b86 4cbc 94af a43b 3112 11bc
00000070: 99ee 5dbb 8ab2 a83c dd17 07bc 194c 54bc
00000080: 158b 923b fa7e 3abc 3f7b dabc b8b2 263c
00000090: ef0a 86bc c7aa d43c 3858 9c3c 7b1c 303d
000000a0: 920f 22bc 767f a8bc 2ef7 c5bb a36e 8ebb
000000b0: bda8 f7bb e28d febb 17ba 8fba c018 01bd
000000c0: e553 75bb 9f6d 8fbc 0fb8 f33c 8c6b f93c
000000d0: 329d bfbc 4e80 aabc 0058 46bd ee65 e6bc
000000e0: a069 b13b 1dda dd3c 17f2 a03b 70ac 2f3c
000000f0: ce3c 193b 89dc 0abc 26c8 803a 9140 b2bc
00000100: 48b1 0fbc e1f9 07bd 6e84 e5bc 4f52 0dbb
00000110: a518 f6bc dee8 88bc b79c cbbc c189 723c
00000120: 1861 263a a4f2 00bd 025f 8b3b a093 3c3c
00000130: 78db f6bb f72d d73b 6562 1b3b cfeb f83b
00000140: 8283 453c 2445 873c 8218 a63b 6cbf 5c3c
00000150: 4e49 d2bb a260 243b c60f bebc ae95 c73c
00000160: a4e5 313c c69f e73c cfba 943c 5af1 18bc
00000170: 156b f73c badd 163c b3bb 75bc 31b6 56bc
00000180: a389 40bc c818 73bb ae78 cd3c 6627 58bc
00000190: 4e06 8cbc 5a82 ddbb 7ec7 2cbb de5d 7b3c
000001a0: f679 153c 1f12 d03a a503 46bb 8d4b b43c
000001b0: 91c6 07bd 3f55 5f3c 2169 c43c b359 8c3c
000001c0: 183e 3c3c 3d60 98bc 5953 13bc 0c04 7cbc
000001d0: 2e2f 293c 753c 5b3c 0f49 cfbc d077 ec3c
000001e0: 2bed 11bd 937b 94bc 1cea 75bc c8b6 3bbc
000001f0: 2506 413d 0ea7 443b c720 86bc 0b9d 6c3c
00000200: 3aa1 73b9 27ed 4d3c 0adf 5bbc 4f7e 373a
00000210: bc8e d53c 3dc2 603c 3173 d7bc 8168 07bb
00000220: fa41 ca3a 5dcf 843c 0133 663c 3a1d d23c
00000230: 48d4 c6bb d08e eabb b8b9 0f3d 0cda b43c
00000240: 87dc afbc 2764 50bc 72d2 dc3c e26c 5dbc
00000250: 0f07 6abb d814 083c c793 8bbb 23a4 67bc
00000260: 9e33 e03c 1e0d 5bbb 1f9a 423d cc64 f1bc
00000270: 6f48 afbc a175 0a3b 4f86 8a3c 8ff5 bcbc
00000280: 5744 9b3b dd41 ac3c 8cef ce3c e276 953c
00000290: 08f6 503d 383d e53a 4837 613b 9fd9 8cba
000002a0: 4203 87bb 11f5 9f3b 653d 143c c998 543c
000002b0: 588e 03bb 969c 47bc 1941 8b3c cc6e 85bc
000002c0: 95ed 93bb 0e6e 513c 05ac 66bc 8a97 35bc
000002d0: 5355 3d3c 995b ef3c 5cf4 84bb b767 1c3c
000002e0: 5c8a 86bc 4304 c5bc fa71 64bc f236 ea3c
000002f0: 8874 693c f51b 143c 6cb4 ae3b c4ec 85bc
00000300: 2a46 b73c 86f2 edbc d712 78bc 8f2a 9339
00000310: d8b7 45bc 4c06 b03c a53b 703c 12b0 e63c
00000320: 061f d83c 3d3c bd3c 0330 24bd 39a8 1d3d
00000330: c8bd 063d aa52 0c3b 873a 243c 45cd a5bb
00000340: 3616 d03c e23d 11bd 8a7f b73c 82d4 1abd
00000350: fc43 cdb5 2cee d7bb 8cd1 82bb 4030 f63c
00000360: a395 a5bc ea59 263b 99fd 213c f95c d63a
00000370: e84d 05bd d9dc 13bc 5944 eebc cae4 39bc
00000380: 9bd0 823c 7bdc 333a b58d 6fbc ede7 e0bc
00000390: 4644 20bc 7a8e 6f3c b4c2 d93b 7b67 dbbc
000003a0: 9daf eb3a 0100 e93b 18d2 cf3c 6236 13bc
000003b0: ee0f d7bb a9e6 a13c e742 673c 3b83 16ba
000003c0: 5023 22bb 76be c13c d32d a3bc 7c93 c53b
000003d0: 8c95 113c 1c9f 203c 6b07 abbb 33f7 903a
000003e0: c694 77bc a61c 663c a0d1 e7bc 56d9 d53c
000003f0: ad64 9abb 9c76 363b bc0e e83b b065 a7bb
0.049451426 -0.009093526 5.069738e-05 -0.024766084 -0.013581845 -0.012239017 0.006061972 0.014694467
0.0030134404 -0.00094891555 0.016490066 0.009686845 0.016863396 0.0026370164 0.0014478159 0.024212865
-0.00022995597 0.0034937272 -0.0016728357 -0.0013142419 0.03238719 0.0028747097 -0.014260229 -0.023785528
-0.0037827524 -0.012483145 0.0050258134 -0.008854435 -0.003386414 0.020592947 -0.008245436 -0.012957596
0.0044721463 -0.011382813 -0.026670096 0.010174446 -0.016362635 0.02596034 0.019085035 0.04299591
-0.009891408 -0.02056859 -0.006041429 -0.004346685 -0.007557957 -0.0077683786 -0.0010965493 -0.031517744
-0.0037434038 -0.017508326 0.029750852 0.03044679 -0.023390386 -0.020813134 -0.048423767 -0.028124776
0.005414203 0.027081544 0.004911672 0.010722265 0.002338219 -0.008475431 0.0009825274 -0.021759303
-0.0087702945 -0.033197287 -0.028017249 -0.0021563952 -0.030041048 -0.016712602 -0.024855 0.014803351
0.00063468656 -0.0314814 0.004253269 0.011509806 -0.007533487 0.0065667587 0.002370977 0.00759647
0.01205528 0.016512461 0.0050688395 0.013473373 -0.00641743 0.0025082012 -0.02320088 0.024363365
0.010857973 0.028274428 0.018155484 -0.009334886 0.030202428 0.009208137 -0.014998364 -0.013104961
-0.011751565 -0.0037093628 0.025081959 -0.013192987 -0.01709285 -0.006759924 -0.0026364024 0.015342204
0.009123316 0.0015874541 -0.0030214575 0.022008682 -0.033148352 0.013631164 0.02397591 0.017132616
0.011489414 -0.018600577 -0.00899204 -0.015381824 0.01032619 0.013381113 -0.025303392 0.028865725
-0.03562657 -0.018125331 -0.015009429 -0.011457153 0.047125 0.00300068 -0.016373051 0.014441739
-0.00023234347 0.012568749 -0.013419876 0.00069997174 0.026069038 0.013718185 -0.026300045 -0.0020661654
0.001543104 0.01621216 0.014050246 0.025648702 -0.0060677864 -0.007158138 0.035089225 0.02207663
-0.02146746 -0.012719191 0.026955817 -0.013514729 -0.0035709774 0.008305751 -0.00425956 -0.014138254
0.027368363 -0.0033424566 0.047510263 -0.029467009 -0.021396844 0.0021127241 0.016909746 -0.02306631
0.0047383714 0.0210275 0.02526071 0.018245164 0.051015884 0.0017489558 0.0034365226 -0.0010746008
-0.0041202614 0.004881509 0.009047841 0.01297588 -0.0020073857 -0.012183329 0.016998814 -0.016288184
-0.004514406 0.012782587 -0.014079099 -0.011083493 0.011555987 0.029218482 -0.00405745 0.009546212
-0.016423397 -0.024049884 -0.01394319 0.028590653 0.014248975 0.009039869 0.0053315666 -0.01634825
0.022372324 -0.029046308 -0.0151412105 0.00028069734 -0.012067758 0.021487378 0.014662658 0.028160129
0.02638198 0.023100013 -0.04008485 0.038490508 0.032895833 0.0021411576 0.01002372 -0.0050598704
0.025401216 -0.035459407 0.022399683 -0.03780032 -1.5293476e-06 -0.0065896716 -0.003992265 0.030052304
-0.020212954 0.0025383183 0.009887123 0.0016354612 -0.032545 -0.009024822 -0.029085325 -0.0113460515
0.015968611 0.0006861162 -0.014621188 -0.02745434 -0.009781903 0.014621371 0.006645525 -0.026782742
0.0017981414 0.007110596 0.025368735 -0.008985134 -0.0065631783 0.019763308 0.014115072 -0.0005741601
-0.0024740286 0.02365039 -0.019919312 0.0060295444 0.008885752 0.00980356 -0.00521939 0.0011059999
-0.015111154 0.014044916 -0.0282982 0.02610461 -0.0047117085 0.0027841693 0.0070818346 -0.0051085576
