prompt_sliders/models/comicslider_xl/learned_embeds-steps-1000.safetensors (safetensors, 3184 bytes, 1 tensors)

<comic-ti> f4 [1, 768]
00000000: b956 3f3d 9025 91bc 0caf 583c 4ced babc
00000010: 661f b0bc 8592 d1bb 2d87 f43c 8f88 083c
00000020: 11c5 193c bfee 963b a730 b63c 1e88 b03c
00000030: e0db a33c f2e3 553c 571f 69bb 31a8 9f3c
00000040: c831 f3ba 5ff8 1bbc b3ef 2abc 6429 47bb
00000050: 7022 f03c 4d06 d33b f409 b8bc b66c 81bc
00000060: 8892 9cba b533 debc 0964 cd3b 34c9 2cbc
00000070: c390 41bc dacd 9f3c 6538 543c 9204 18bc
00000080: 5f4a afbb e114 4dbc 59fc f2bc b8bd 703c
00000090: 9c72 e4bc 0ee0 da3c 7292 7c3c 5bc5 393d
000000a0: ec4e 83bc fba2 15bd e290 9cbc bb86 67bc
000000b0: 9f60 bebc 8d13 8dbb bde0 053c c4e1 1bbd
000000c0: 337b 85bc b57a 6bbb 2b5f 0f3d 576a f93c
000000d0: a54f a7bc 4a7c 46bc e249 76bd e4dc 93bc
000000e0: 381c 123c 7a03 ca3c f43d d93b d1fe e23b
000000f0: 98bf 493c 8c84 d23b a2f0 ad3c 807a 9ebc
00000100: 7fcd e7bb beb7 2dbd 0e74 20bd 382e 59bb
00000110: 4efb cfbc 6c35 b7bc 0a89 c7bc f42c 9a3c
00000120: a2eb 193c f112 88bc 5bb3 8bbb 3b40 0b3d
00000130: 5932 d03b 2b35 923c 7643 07ba 0225 c13b
00000140: b9c9 a63c 6cee 423c f0ac 8b3b 8231 8c3c
00000150: 9f80 853c 7291 4c3c 544b c3bc 9a4c ff3c
00000160: 9cfe 333c db82 da3c 18fe a83c 8b32 e9bb
00000170: 15fd f43c 92ca 0bbb 181e 95bc 0179 c1bc
00000180: 7367 47bb fd90 0039 a818 0f3d d2c8 85bc
00000190: ac97 8cbc e06e 47bb 2b0a 973c 39d8 d13b
000001a0: 61a7 303c 63f3 103c d4fb 6c3b 908d 243c
000001b0: a9aa 06bd 9476 cb3c a8d5 083d cbbe 0b3d
000001c0: 0c4b 96ba 1b79 a1bc c53e e43a 0af5 26bd
000001d0: 1742 433c eb9d 393c 1052 86bc 94e4 f33c
000001e0: c6e8 f9bc 214d b8bc c7a1 84bc 6dfa 12bc
000001f0: cc4e 543d 41e1 793b 3fba c8bc fd45 3c3c
00000200: de8f 3cbc fe28 333c 383d bdbc 2521 ce3a
00000210: 6ffa e03c 09c9 8c3c 3e35 f4bc f695 67bc
00000220: e91f b3b9 8ec9 6d3a bc91 ed3b 2e04 1a3d
00000230: ca19 583b f878 993b ae05 283d 3d55 be3c
00000240: dbfb a1bc f515 84bc 0f86 d73c 9999 f0bb
00000250: 04cc 25bc b36b c5b8 54d4 8c3b c324 ffbc
00000260: 292e dc3c 6598 733b a80b 0c3d f43c dfbc
00000270: 5bfd 05bd 8ccc 673c bb8e 213d a595 babc
00000280: 5c0f 393c 4403 233d f157 cb3c 9787 dd3c
00000290: 8303 8e3d 1ffd 59bc 4344 703b cd5f 92bc
000002a0: 9bc6 dc3a 0324 f3bb 0b52 b8bb baf1 853c
000002b0: 5393 efba ff01 173c d292 2b3d be7b 96bb
000002c0: de50 6cbc 7fc3 a93b 2366 1abc e31b d0ba
000002d0: 1f38 5e3b fe4b c93c e45e d23b d732 e73b
000002e0: dfb6 94bc 45cd ddbc ffb4 01bc 9e94 f03c
000002f0: dcf7 a43c e79e bd3c eaa3 9a3b b404 ffbc
00000300: 511b 713c 0c6e fdbc a8bf 4abc 8582 7fbc
00000310: ad6c 14bc 72ad ed3c 0867 dc3c 5111 9b3c
00000320: 0bc2 c33c f8dc 273c d210 4ebd e3c9 543d
00000330: 9a0f 3a3d 2417 c33b 2851 ab3c d209 c6bb
00000340: 529d e23b c235 48bc c276 7d3c 0ade e1bc
00000350: e96c 52bb 932c 07bc 3dcf e53b f55b 593d
00000360: 235a e0bc 0bd3 cd3b bb5a 773c 591f 943b
00000370: 0107 3abd 029a 92bc 58f0 1cbd ec7b a7bc
00000380: 7888 0d3d 36ca a7bb 77a8 55bc 4ba1 eabc
00000390: 703b 1ebc fbb5 ab3c a53d 263c e665 cfbc
000003a0: 4a8c 68bb d0bb 423c 7b63 4d3d 0e15 52bc
000003b0: f000 16bc 63a1 173d 8939 9d3c 2325 c93b
000003c0: a250 743c 2c50 c03c 0f7a d7bc b860 e43b
000003d0: 9a39 143c 2957 8d3c 7f56 2dbb e495 053c
000003e0: fc03 3fbc 3d7d b13c c483 27bd 8d38 863c
000003f0: 15cd 15bb ef02 8fb9 a255 a5bb 3e64 18bc
0.046713565 -0.017718107 0.013225328 -0.02281823 -0.021499347 -0.0063956403 0.029849613 0.008333339
0.009385363 0.0046060975 0.022239996 0.02154928 0.020002306 0.013054835 -0.0035571659 0.01948938
-0.0018554265 -0.0095196655 -0.010433125 -0.003038966 0.029313296 0.00643996 -0.022465684 -0.015798908
-0.0011945525 -0.027124265 0.0062680286 -0.010546017 -0.011814299 0.019507337 0.012952899 -0.009278433
-0.005349442 -0.012517185 -0.029661344 0.01469367 -0.027886681 0.026718166 0.015415775 0.04535423
-0.016028844 -0.036532383 -0.019112054 -0.014131243 -0.023239432 -0.004305309 0.008171258 -0.038057104
-0.016294098 -0.0035931293 0.03500287 0.030446215 -0.02042372 -0.012114594 -0.060129054 -0.018049665
0.008917861 0.02465986 0.0066297 0.006927349 0.012313746 0.006424492 0.021232907 -0.019345522
-0.0070740576 -0.04241156 -0.03917318 -0.003313912 -0.025388386 -0.02236434 -0.024357338 0.018820263
0.009394558 -0.016610594 -0.004263324 0.0339968 0.006353658 0.017847618 -0.0005159894 0.0058943043
0.02035986 0.0118976645 0.004262559 0.01711345 0.016296683 0.012485849 -0.02383963 0.031164456
0.010985997 0.026673725 0.020628974 -0.007116621 0.029905835 -0.0021330458 -0.018202826 -0.02361727
-0.003042665 0.00012261044 0.034935623 -0.01633111 -0.017162167 -0.0030431077 0.018437466 0.0064039496
0.010782094 0.00884709 0.0036160843 0.010043517 -0.032877598 0.024836816 0.033406883 0.0341175
-0.0011466458 -0.019711068 0.0017413726 -0.04076103 0.0119176125 0.0113291545 -0.016396552 0.02977208
-0.030506503 -0.022497715 -0.016190423 -0.008970839 0.05183296 0.0038128647 -0.024502872 0.011491296
-0.01150891 0.010935066 -0.02310048 0.001572643 0.027463166 0.017185705 -0.029810544 -0.014134875
-0.00034165315 0.00090708665 0.007250039 0.037601642 0.0032974356 0.00468361 0.04102104 0.023234004
-0.019773414 -0.016123751 0.026309041 -0.007342529 -0.010119442 -9.4137526e-05 0.0042977724 -0.031145459
0.02687748 0.0037169692 0.034190804 -0.027250744 -0.03271232 0.014147889 0.03944276 -0.022776434
0.011295166 0.039798036 0.024822207 0.027042193 0.069342636 -0.013304978 0.003666178 -0.017867947
0.0016843857 -0.0074200644 -0.0056250147 0.016350616 -0.0018278159 0.0092167845 0.041888066 -0.004592388
-0.014423577 0.0051807757 -0.009423765 -0.0015877452 0.0033907962 0.024572369 0.0064200033 0.007055621
-0.018153606 -0.02707542 -0.007916688 0.029367741 0.02013772 0.02314706 0.004719247 -0.031130172
0.014715985 -0.030936264 -0.012374796 -0.015595083 -0.009059113 0.02901337 0.026904598 0.018929156
0.023896238 0.010245554 -0.05030901 0.051950347 0.045425035 0.0059536863 0.020912722 -0.006043651
0.0069157267 -0.012219848 0.015470209 -0.027571697 -0.0032108373 -0.008250373 0.00701323 0.053066213
-0.02738673 0.006281262 0.015097315 0.0045203385 -0.045416836 -0.017895702 -0.038315147 -0.020444833
0.034553975 -0.005120541 -0.013040653 -0.028641364 -0.009657726 0.020960798 0.010146533 -0.025317144
-0.003548401 0.011885598 0.0501437 -0.012822403 -0.009155497 0.037019145 0.019192474 0.0061384602
0.0149118025 0.023475729 -0.02630332 0.0069695376 0.009046936 0.017253475 -0.002644926 0.0081534125
-0.011658665 0.021666164 -0.040897146 0.016384387 -0.0022857834 -0.0002727727 -0.0050456086 -0.009301243
