prompt_sliders/models/comicslider_xl/learned_embeds-steps-2000.safetensors (safetensors, 3184 bytes, 1 tensors)

<comic-ti> f4 [1, 768]
0.04891855 -0.029954482 0.010338966 -0.009425625 -0.03169271 -0.022340637 0.023411013 0.0038126733
0.018696401 0.0018938733 0.021789782 0.010169432 0.028161567 0.01141637 -0.0019912114 0.028991552
-0.007675984 -0.010332935 -0.015782231 7.134628e-05 0.040437333 0.011557916 -0.023775376 -0.019186487
-0.0048365234 -0.044364527 0.009230544 -0.015854333 -0.019244408 0.0074707484 0.0072317137 0.0051150722
-0.014936227 0.00011087782 -0.021269076 0.03277486 -0.010603992 0.049611945 0.04491698 0.0599516
-0.026787238 -0.033007234 -0.00858346 -0.0062640635 -0.030382907 -0.00912648 -0.0009269867 -0.053316124
-0.01965807 -0.002416344 0.04970958 0.041165017 -0.011066668 -0.01655202 -0.06414625 -0.010015726
0.011462093 0.014049166 0.02049484 0.009003946 0.00869001 -0.000693468 0.04004168 -0.020996582
0.01007115 -0.049324717 -0.03580664 -0.028195959 -0.031747628 -0.016502488 -0.034091268 0.05439551
0.0118085975 -0.022246484 0.00019627491 0.03696091 0.006971355 -1.3728069e-05 0.015896548 0.023865053
0.022622177 0.004913701 0.0028688794 0.016218366 0.041937504 0.0055595883 -0.009800815 0.029806752
0.004483105 0.02196936 0.032178655 -0.01312219 0.016129186 -0.029148834 -0.016989058 -0.03849969
-0.00199943 0.008163847 0.034244362 -0.024047995 -0.022968927 0.0009519371 0.0400307 0.010284653
0.03240853 -0.0071559846 -0.007127563 -0.0011539493 -0.019498901 0.02308412 0.040887274 0.025130244
-0.025926372 -0.021675343 -0.0123201925 -0.05268311 -0.0076538282 0.006031852 -0.015369283 0.027621148
-0.02746537 -0.025581723 -0.007383912 -0.007646533 0.054089688 -0.002645667 -0.01848568 0.007930981
-0.004796658 0.0140688475 -0.016563684 0.0031918802 0.042277835 0.02313877 -0.038920462 -0.01182194
-0.011074706 -0.0087731015 -0.011761776 0.032426685 -0.00849835 0.015514265 0.05045183 0.032268744
-0.008436962 -0.020473292 0.0182719 -0.0060257763 -0.00032680307 -0.01171169 0.01400645 -0.04035336
0.02149821 0.01438144 0.020321513 -0.043898042 -0.055546146 0.013752222 0.04758835 -0.023693234
0.020966444 0.06445002 0.020007195 0.024883771 0.078461826 -0.014575266 0.011651457 -0.03332492
-0.01947981 0.00059758674 -0.0067806127 0.02312637 -0.0022809699 0.031623654 0.03876832 -0.004273737
-0.027146276 -0.023880351 -0.010017585 -0.011994251 -0.00605104 0.012341192 0.0266235 0.01320403
-0.017019654 -0.012514698 -0.017096052 0.034762762 0.021196814 0.018946938 0.016595652 -0.036824316
0.03397365 -0.0220556 -0.005523756 -0.018271547 0.0040228995 0.038598347 0.046233445 0.002001309
0.012483198 0.001359344 -0.04780924 0.06238575 0.04883134 0.011374657 0.036850657 -0.015631853
-0.0027579917 -0.008653979 -0.01206824 -0.035157453 0.022640768 -0.013269338 0.010505628 0.058592215
-0.03563038 0.004652494 0.0046364674 0.004058724 -0.07810749 -0.031690307 -0.05066214 -0.013337443
0.03290059 0.0032786294 -0.043769944 -0.026972326 -0.014796481 0.023751298 0.025108216 -0.031551633
-0.0065024314 -0.007939409 0.06018657 -0.024090648 0.008642132 0.04237663 0.010401071 -0.0015895913
0.016414233 0.033682756 -0.042258732 0.0109677855 0.028770916 0.016783254 0.0034503199 0.013720411
-0.03204333 0.020568527 -0.053790215 0.017241513 -0.00075688754 -0.007607349 -0.02797749 -0.0041387333
00000000: d15e 483d 1a63 f5bc c464 293c f06d 1abc
00000010: 37d0 01bd b603 b7bc 74c8 bf3c 0bde 793b
00000020: 3229 993c d83b f83a 7c80 b23c b09d 263c
00000030: 16b3 e63c ba0b 3b3c fc7e 02bb b17f ed3c
00000040: d286 fbbb 784b 29bc bd49 81bc be9f 9538
00000050: 9ea1 253d 6a5d 3d3c 94c4 c2bc fb2c 9dbc
00000060: b37b 9ebb 94b7 35bd b53b 173c f2e0 81bc
00000070: 73a6 9dbc 2ecd f43b 03f8 ec3b 569c a73b
00000080: 14b7 74bc 1487 e838 7c3c aebc ee3e 063d
00000090: 5ebc 2dbc e535 4b3d defa 373d cf8f 753d
000000a0: e970 dbbc 9832 07bd a4a1 0cbc c642 cdbb
000000b0: 93e5 f8bc 3b87 15bc 0601 73ba 0262 5abd
000000c0: f609 a1bc 865b 1ebb 469c 4b3d a69c 283d
000000d0: f850 35bc 1a98 87bc 1c5f 83bd 0019 24bc
000000e0: 81cb 3b3c 792e 663c cbe4 a73c 4985 133c
000000f0: 8b60 0e3c dac9 35ba bf02 243d 0601 acbc
00000100: 7701 253c b708 4abd fca9 12bd 36fb e6bc
00000110: cd09 02bd 3a30 87bc 49a3 0bbd d4cd 5e3d
00000120: d978 413c 423e b6bc 25cf 4d39 5364 173d
00000130: f76f e43b 9b51 66b7 7a39 823c a580 c33c
00000140: 2552 b93c 1d03 a13b cf03 3c3b 61dc 843c
00000150: a9c6 2b3d 352d b63b 9993 20bc 4a2d f43c
00000160: 03e7 923b 16f9 b33c c4cd 033d 74fe 56bc
00000170: 5b21 843c 89c9 eebc a32c 8bbc dab1 1dbd
00000180: de08 03bb a8c1 053c d143 0c3d 4d00 c5bc
00000190: 5529 bcbc 6b8b 793a 3bf7 233d f680 283c
000001a0: cfbe 043d c07c eabb 558e e9bb 1d40 97ba
000001b0: 29bc 9fbc e91a bd3c 6a79 273d f1dd cd3c
000001c0: 8b63 d4bc 7d90 b1bc a2da 49bc 3fca 57bd
000001d0: f7cc fabb d8a6 c53b 72cf 7bbc bf45 e23c
000001e0: 0eff e0bc c390 d1bc bef4 f1bb c58f fabb
000001f0: 268d 5d3d ed62 2dbb 486f 97bc f2f0 013c
00000200: 492d 9dbb 0681 663c 90b0 87bc dd2e 513b
00000210: 862b 2d3d 858d bd3c 106b 1fbd cfb0 41bc
00000220: af72 35bc 0ebd 0fbc 77b4 40bc d8d1 043d
00000230: aa3c 0bbc 8b2f 7e3c 94a6 4e3d 3b2c 043d
00000240: 2f3b 0abc 9bb7 a7bc f4ae 953c e073 c5bb
00000250: c456 abb9 63e2 3fbc 4f7b 653c 9149 25bd
00000260: 041d b03c 22a0 6b3c 4d79 a63c 6fce 33bd
00000270: 5b84 63bd 0051 613c 00ec 423d 5018 c2bc
00000280: d2c1 ab3c 5ffe 833d 21e6 a33c 0dd9 cb3c
00000290: 98b0 a03d 19cd 6ebc c1e5 3e3c b67f 08bd
000002a0: 1f94 9fbc 5ea7 1c3a e72f debb 8373 bd3c
000002b0: 537c 15bb ce87 013d 88cb 1e3d b40a 8cbb
000002c0: de61 debc baa0 c3bc cc20 24bc 8983 44bc
000002d0: cd47 c6bb b632 4a3c 8719 da3c b755 583c
000002e0: cd6c 8bbc 730a 4dbc 050d 8cbc 6663 0e3d
000002f0: f1a4 ad3c 9c36 9b3c 9bf3 873c 18d5 16bd
00000300: f427 0b3d f2ad b4bc a000 b5bb 36ae 95bc
00000310: 87d2 833b 4d19 1e3d 485f 3d3d 6528 033b
00000320: 5486 4c3c 042c b23a 9fd3 43bd 3388 7f3d
00000330: 5f03 483d c55c 3a3c b7f0 163d 5f0e 80bc
00000340: 6cbf 34bb 6bc9 0dbc deb9 45bc 4301 10bd
00000350: 2279 b93c a367 59bc cc1f 2c3c 64fe 6f3d
00000360: 29f1 11bd f373 983b 82ed 973b 0bff 843b
00000370: d2f6 9fbd b2cd 01bd 1b83 4fbd 4a85 5abc
00000380: c5c2 063d 46de 563b 1d48 33bd 11f5 dcbc
00000390: f06c 72bc 1592 c23c bfaf cd3c 493c 01bd
000003a0: 5912 d5bb 4c14 02bc 3186 763d c059 c5bc
000003b0: bb97 0d3c 1e93 2d3d 4169 2a3c d559 d0ba
000003c0: 2477 863c eef6 093d 7e17 2dbd 3ab2 333c
000003d0: fcb0 eb3c 097d 893c c31e 623b 93cb 603c
000003e0: de3f 03bd 547f a83c 2153 5cbd 133e 8d3c
000003f0: dd69 46ba 1247 f9bb 0d31 e5bc 369e 87bb
