prompt_sliders/models/carslider/learned_embeds-steps-500.safetensors (safetensors, 3184 bytes, 1 tensors)

<car-ti> f4 [1, 768]
0	0x3cfadf10	0.030623943
1	0xbc876a92	-0.016530309
2	0x3b2191c3	0.002465353
3	0x3ccba52d	0.024859035
4	0x39d93b6e	0.00041433744
5	0xbcb6deef	-0.0223231
6	0xbcc0bac7	-0.023526562
7	0x3ce30028	0.027710035
8	0xbc90f0c3	-0.01769293
9	0xbcbc7d09	-0.02300884
10	0xbc55e7af	-0.013055726
11	0x3c0bd897	0.008535526
12	0xbc7ac29e	-0.015305189
13	0x3c6170ae	0.013759775
14	0xbc8e4ee0	-0.017371595
15	0x3caa295d	0.020771677
16	0x3c5dfeaa	0.013549486
17	0x3c6a7964	0.014311168
18	0x3b2b761b	0.0026162926
19	0x3c10ecb5	0.008845498
20	0xbc5686af	-0.0130936345
21	0x3a928953	0.0011179842
22	0x3be8d620	0.007105604
23	0xbc563463	-0.013074013
24	0x3c84ce24	0.016211577
25	0xbd238fbf	-0.03993201
26	0xbd07616b	-0.03305189
27	0x3c9af164	0.018913932
28	0x3c8dbb38	0.017301187
29	0x3a28554d	0.0006421402
30	0x3b7046ce	0.0036663297
31	0x3ca404d0	0.020021826
32	0x3ba48384	0.0050205607
33	0xbc4e9666	-0.0126091
34	0xbb7ae1ff	-0.0038281677
35	0xbca34262	-0.019929115
36	0x3c9b6333	0.0189682
37	0xb8847393	-6.315778e-05
38	0x3b29773f	0.002585843
39	0xbc8e3cc4	-0.01736296
40	0xbc76d307	-0.015064961
41	0xba0cb033	-0.0005366832
42	0xbc987ed5	-0.018615166
43	0x3b1a812b	0.0023575525
44	0xbb86607e	-0.0041008582
45	0x3c2869f8	0.010279171
46	0x3cef3380	0.029199362
47	0xba94e466	-0.0011359572
48	0xbc6d4e82	-0.01448405
49	0xbb12e41d	-0.0022413798
50	0x3bfa0724	0.0076302458
51	0xbaa5b321	-0.0012641886
52	0x3cec5836	0.028850656
53	0xbbea1532	-0.00714364
54	0xbb8d4043	-0.004310639
55	0xbb115c4b	-0.0022180255
56	0xbc984683	-0.01858831
57	0xbc659fb7	-0.01401513
58	0x3c342ce4	0.010997031
59	0x3cd99e3d	0.026564712
60	0xbb4badc2	-0.003107891
61	0x3a00bc49	0.0004910869
62	0x3ba4eaa4	0.005032854
63	0xbc0849db	-0.00831839
64	0x3bd31206	0.0064413575
65	0xb84788fe	-4.757288e-05
66	0x3c90553a	0.017618764
67	0x3c8411d9	0.016121792
68	0x3c669f10	0.014076009
69	0x3c074352	0.0082557965
70	0xbc8b54d4	-0.017008223
71	0xbb032d85	-0.0020016145
72	0xbcf465ec	-0.029833756
73	0xbcdc5108	-0.026894107
74	0x3c275dc2	0.010215225
75	0xbce33ece	-0.027739909
76	0x3c103a0a	0.0088029
77	0xb9f50e95	-0.00046740906
78	0xbbab8078	-0.0052338205
79	0x3c4b16d0	0.012395576
80	0x3c29c09b	0.010360862
81	0xbc9c21d8	-0.019059107
82	0xbc867c21	-0.016416611
83	0xbae8f9a9	-0.00177746
84	0xbbdf425a	-0.0068133296
85	0x3c9ceb3e	0.019155141
86	0xbb60b62c	-0.003428827
87	0xbc6c808d	-0.014434946
88	0x3bcee6de	0.0063141426
89	0xbc3fbe11	-0.01170303
90	0x3c840dbb	0.016119828
91	0x3cc40c7b	0.023931732
92	0xbc589d73	-0.013221133
93	0x3b19b3bd	0.002345308
94	0xb9e3d06f	-0.0004345211
95	0xbb4f4233	-0.0031625151
96	0x3c380de7	0.011233783
97	0xbc28181b	-0.010259653
98	0x3bf8456e	0.007576636
99	0x3c036d45	0.008021657
100	0x3c4b684a	0.012415001
101	0xbd0e27dc	-0.03470598
102	0x3be4f9f5	0.006987805
103	0xbb06aab5	-0.0020548527
104	0x3b0d565d	0.002156637
105	0x3c3404f8	0.010987513
106	0xbce923e9	-0.028459506
107	0xbd037d2c	-0.032101795
108	0xbca7df94	-0.020492353
109	0xbd027f8c	-0.03185992
110	0x3c3dedf8	0.011592381
111	0x3aadfa1c	0.0013273391
112	0x3c401e2f	0.011725946
113	0xbac1a211	-0.0014773031
114	0x3c82163c	0.015879743
115	0x3b97d465	0.0046334737
116	0x3c64d161	0.013965935
117	0xbb085c21	-0.0020806866
118	0x3c020b93	0.00793733
119	0xbcc67bfc	-0.024229042
120	0x3c3a6173	0.011375773
121	0x3a3d45c4	0.0007220174
122	0xbce7e83e	-0.028308984
123	0xbbe927cd	-0.0071153403
124	0x3963f576	0.00021739848
125	0x3b947357	0.004530351
126	0xbc8668d2	-0.016407404
127	0xbc296479	-0.010338896
128	0xbcbec191	-0.023285659
129	0x3d0751db	0.033037048
130	0x3c9ebefb	0.019378176
131	0xbc8d9b8a	-0.01728608
132	0xbbdc4eb4	-0.0067232493
133	0xbce0f43e	-0.027460214
134	0x3c47fa31	0.012205646
135	0x3cb371bb	0.021904817
136	0x3c66e181	0.01409185
137	0x3c0934e9	0.008374431
138	0x3c1d4038	0.0095978305
139	0x3b56493b	0.0032697457
140	0xba8ae970	-0.0010598134
141	0xbcd5d8f0	-0.02610442
142	0x3c197475	0.009366144
143	0xbc0cfeb9	-0.0086056525
144	0xbc687e6d	-0.0141902985
145	0x3d14c4cb	0.03632049
146	0xbb9c6108	-0.004772309
147	0x3c9e5824	0.019329138
148	0xbc98f2d4	-0.018670477
149	0x3cdfbe3a	0.027312387
150	0xbaca5368	-0.0015436234
151	0xbb4a986c	-0.0030913604
152	0x3c0654a0	0.008198887
153	0x3c3388d9	0.01095792
154	0x3bf50725	0.0074776583
155	0xba0bbfc2	-0.00053310033
156	0x3c198009	0.009368905
157	0x3ca3e631	0.020007225
158	0xbc27fe52	-0.010253506
159	0xbc54eba7	-0.012995637
160	0x3c72654f	0.014794662
161	0xbc94561b	-0.018107465
162	0x3a1fbb15	0.0006093246
163	0xbac07599	-0.0014683484
164	0x3c960182	0.018311266
165	0x3c7ec735	0.015550424
166	0xbc7903d1	-0.015198664
167	0xbc6239fd	-0.013807771
168	0xbb51183a	-0.003190531
169	0x3c81f9c4	0.015866168
170	0x3bd7840c	0.0065770205
171	0x3cbfd793	0.023418223
172	0x3c54a0d0	0.012977794
173	0x3c1ca9aa	0.009561935
174	0xbcbe8302	-0.023255829
175	0x3c85b944	0.016323693
176	0xbbf8b755	-0.0075902143
177	0x3c88e25f	0.016709505
178	0xbb9964f8	-0.004681226
179	0xbd3078f4	-0.0430841
180	0x3bb041f0	0.005378954
181	0xbc6bce4f	-0.0143924495
182	0x3c641a78	0.013922326
183	0x3c87cf1d	0.016578251
184	0xbc71d24b	-0.01475961
185	0x3bd85859	0.0066023287
186	0xbc373ca8	-0.011183895
187	0x3bbe7314	0.005812058
188	0x3b3e6b9a	0.0029055835
189	0xbc40012a	-0.0117190275
190	0xbbfa89a6	-0.0076458035
191	0x3cc76ad1	0.024342926
192	0xbafc7131	-0.0019259808
193	0x3cd41282	0.025887731
194	0x3ca2231d	0.019792134
195	0xbb301824	-0.0026869858
196	0xbc53c604	-0.012925629
197	0xbc4a369c	-0.012342121
198	0xbb40db9c	-0.0029427772
199	0xbcab57e5	-0.020915935
200	0x3b38a71b	0.0028175774
201	0xbb8b6d0e	-0.0042549437
202	0xbac14d3e	-0.0014747751
203	0xba86643a	-0.0010253259
204	0x3af60077	0.0018768449
205	0xbc197f25	-0.0093686925
206	0x3b2db38b	0.002650472
207	0x3bb6c449	0.005577598
208	0xbc5d9e6d	-0.013526541
209	0x3bd1a90e	0.0063983267
210	0x3b9e3a23	0.004828708
211	0x3c2b6772	0.010461675
212	0xbba9a3fc	-0.005177019
213	0xb9a2332f	-0.00030937183
214	0x3be64fc7	0.007028553
215	0xbc3bddf5	-0.011466493
216	0xbb74536e	-0.0037281173
217	0xbb8c14d8	-0.0042749457
218	0xbb3f9b51	-0.0029236863
219	0xbb6f055c	-0.00364717
220	0x3c261657	0.010137162
221	0x3bc3f49f	0.005980089
222	0xbce35acf	-0.027753262
223	0x3bb1c204	0.00542474
224	0x3b0bb083	0.0021314926
225	0xbc9bf1cb	-0.019036194
226	0xbc4a5703	-0.012349847
227	0xbcd40099	-0.025879191
228	0x3bf878f0	0.0075827762
229	0x3c7c8145	0.01541168
230	0x3c93350e	0.017969634
231	0x3bfd124a	0.0077231275
232	0x3c94f99b	0.018185427
233	0xbb9b3116	-0.004736076
234	0xbc5bea2e	-0.013422532
235	0xbccdec56	-0.025137108
236	0xbcbecad1	-0.02329007
237	0x3cd90bf0	0.02649495
238	0xbb98de25	-0.0046651536
239	0xbba20387	-0.004944268
240	0x3a37da10	0.000701339
241	0xbc6e6de2	-0.014552565
242	0xbbb9a26a	-0.005665113
243	0xba9a65f3	-0.0011779651
244	0x3c15aa2b	0.0091348095
245	0xba2521b2	-0.00062992715
246	0xbc34e66c	-0.011041265
247	0xbcac1c90	-0.021009713
248	0x3bd73f50	0.0065688267
249	0x3c3d2486	0.011544352
250	0xbce3e546	-0.027819287
251	0xbc76763d	-0.015042839
252	0x3c22fbeb	0.009947757
253	0xbc5be206	-0.013420587
254	0xbbd931d6	-0.0066282554
255	0xbc8aafa8	-0.016929463
