prompt_sliders/models/carslider/learned_embeds-steps-500.safetensors (safetensors, 3184 bytes, 1 tensors)

<car-ti> f4 [1, 768]
000000 8a 6d 60 3c 4a d3 d0 bc 11 65 14 bb 8a b8 9a 3c
       0.013697991 -0.025491375 -0.0022643248 0.018886823
000010 c1 42 67 3c c0 72 2f 3c ec 4b e9 bc 6b 0a 8b bb
       0.014115036 0.010708511 -0.028478585 -0.0042431853
000020 4d 0a 12 bc ec b0 75 bd 31 73 d3 3c 66 cc a7 bc
       -0.008913589 -0.05998318 0.025811763 -0.020483207
000030 33 6c 13 3d a5 05 aa 3c 9b 28 6c bc 81 51 7e 3c
       0.03599186 0.020754645 -0.014413978 0.015522362
000040 6f ba 8f 3b c5 6a 91 3b 7e 5f 77 bc 9a d3 42 3b
       0.0043862383 0.0044377767 -0.015098451 0.0029728175
000050 e7 06 56 bb a8 df be bc 82 ed 11 bc f7 66 5e bb
       -0.0032657923 -0.023300007 -0.008906724 -0.0033935884
000060 2f 23 bf bc 19 92 2e bc 56 ce cc ba 0c f5 1e 3d
       -0.023332207 -0.01065495 -0.0015625458 0.038807914
000070 9e ee 9b 3c ae 48 8b bc f3 fa 73 3c cc 19 6e 3c
       0.01903468 -0.01700243 0.014891374 0.014532518
000080 79 91 e5 bb b3 fb 4f 3b a5 99 aa 3b 3c 0a a1 bb
       -0.007005867 0.0031735718 0.005206304 -0.00491455
000090 89 38 2c bb 25 94 e5 3b 1f 39 fb bb 9a e8 b6 3c
       -0.0026278815 0.0070061856 -0.0076667215 0.02232771
0000a0 29 2b 2e bc 36 0d b4 bc 67 79 50 bc 65 47 8e 3c
       -0.010630407 -0.021978956 -0.012724257 0.017368028
0000b0 e4 24 4f bc 00 0e c3 ba 7e b0 08 3d 74 36 53 bc
       -0.012643073 -0.0014881492 0.03337144 -0.012891401
0000c0 b7 8e 04 3c c7 83 fb 3b 33 17 9a 3a f8 be 72 3c
       0.0080906665 0.007675621 0.0011756181 0.014816038
0000d0 40 e7 f4 bc 7a 0d d4 bc 4d 9b c8 bc 32 f2 7f 3c
       -0.029895425 -0.025885332 -0.024488116 0.015621709
0000e0 64 85 7f 3b 93 9d 5d bc 17 9d 38 bb 81 aa 95 3c
       0.003898942 -0.013526338 -0.0028169805 0.01826978
0000f0 6c 9b 20 bc 97 54 c5 3b 92 48 0b bc 94 0a df 3c
       -0.00980268 0.006022047 -0.008501189 0.027226724
000100 51 ed af ba cb 97 89 bc 9b 52 dd 3c 53 f7 36 3c
       -0.0013422166 -0.016796013 0.027016928 0.011167365
000110 1c 26 10 bd e6 fe a5 bc 30 be 4d 3c a2 3a a7 3b
       -0.035192594 -0.020263147 0.012557551 0.005103425
000120 f5 4f ed bc 27 17 1a 3b 3f 51 9b b9 f8 bd d2 bb
       -0.02896879 0.0023512335 -0.00029624437 -0.0064313374
000130 b8 8e 21 bc 1e 12 a5 3b d1 5f ff bb 27 07 40 bc
       -0.009860687 0.00503756 -0.0077934046 -0.011720455
000140 48 f5 46 3c 11 89 6d bc 19 22 a6 bc 55 75 78 bc
       0.012143441 -0.014498011 -0.02027993 -0.015164693
000150 8a 04 fb bc 2d 89 44 3c fa aa 31 bd c5 6a 2e bc
       -0.030641813 0.011995596 -0.043375947 -0.010645573
000160 03 f3 13 bc 48 23 c4 bc 64 99 11 3c 74 4b a0 3b
       -0.0090301065 -0.023942605 0.008886669 0.004891807
000170 2a ed bb bb d8 b1 b4 bc 4c 0e 9e bb 1c cf e4 3c
       -0.0057350593 -0.022057459 -0.0048234817 0.027930789
000180 e7 33 5e 3c ba 7a 28 39 26 df 81 bc 59 31 67 3c
       0.013562179 0.00016067448 -0.015853476 0.0141108865
000190 85 42 73 3c cc b7 c7 bc f3 09 7d 3c c3 f9 2e 3d
       0.014847402 -0.024379633 0.015444267 0.04271866
0001a0 71 35 a5 3b d7 a5 c3 3b 12 a3 1e bd 2e e8 51 bd
       0.005041771 0.0059706974 -0.038729735 -0.051246814
0001b0 3a a9 0e bd b7 9c 48 bd f2 99 3f 3d 8b 71 f9 bb
       -0.034829356 -0.04897758 0.046777673 -0.0076124123
0001c0 ff af 43 3a 90 fc a9 3b e9 90 29 3d 7d 82 2d 3b
       0.0007464885 0.0051875785 0.041397963 0.0026475482
0001d0 9f f7 78 bc d0 7a 79 bc cc 56 18 3c 38 10 ae bc
       -0.015195756 -0.015227035 0.009298038 -0.021247968
0001e0 bc d5 71 bc 42 20 bd 3b fc 37 01 bd a3 48 1e 3c
       -0.014760431 0.0057716677 -0.03154753 0.009660873
0001f0 af ba 9a 3c 79 b8 b7 bb 90 71 85 bc bd 38 9c bc
       0.018887846 -0.0056067077 -0.016289502 -0.019070024
000200 d8 2a b7 bc 4c b8 9c 3c f1 a6 a6 3c 10 21 93 3b
       -0.022359297 0.019130848 0.020343276 0.0044900253
000210 96 29 9f 3c 41 3f 8a bc 60 20 1f 3b 5b 17 d1 3b
       0.01942901 -0.016875865 0.0024280772 0.006380958
000220 c3 be 07 bc 0b 68 8c 3c a0 6d cd ba ff 7d eb 3c
       -0.008285227 0.017139455 -0.001567293 0.028746603
000230 7b 44 b5 3b a6 f7 0b bc 91 70 be 3c bf dc 3e bc
       0.005531845 -0.008542931 0.023247035 -0.01164931
000240 d1 89 0c bd 12 20 a1 3c 3a d6 18 bd 0c ab 81 3b
       -0.03431112 0.019668613 -0.037313677 0.003957158
000250 f3 9b 8a bc af 5b 82 3c d2 a9 3f b7 a2 3a c8 bc
       -0.016920066 0.015912859 -1.14240265e-05 -0.02444202
000260 0f 5d c5 3c 79 47 0c bc 18 e6 3d 3c a7 b9 53 3b
       0.024092225 -0.008561962 0.011590503 0.0032306702
000270 b1 0f 9a bb e2 be ad 3c f4 a1 42 3c b8 a6 4d 3a
       -0.0047015776 0.021209184 0.011879433 0.00078449724
000280 b1 3b a4 3c 65 fd 8b 3b e0 0c 0c bc 06 b9 19 bd
       0.020047994 0.0042721503 -0.0085479915 -0.037529968
000290 e2 98 1a 3c 6f 3b e2 bc 05 5f ec bc 57 69 4b bd
       0.009435864 -0.02761623 -0.028853903 -0.049661007
0002a0 1e d7 8c bb 9c 9b b5 bb c1 a0 9c 3b 54 4c 09 3c
       -0.004298105 -0.0055422317 0.0047799055 0.008380014
0002b0 31 ca 5c bc 1c 9f ec bc 31 f4 b7 bc 43 8c fd 3b
       -0.013475941 -0.028884463 -0.022455307 0.0077376678
0002c0 90 be ac 3b 65 ec 90 3c 48 f8 8f bc d2 f0 78 3c
       0.0052717403 0.017690847 -0.017574444 0.015194135
0002d0 90 c0 b6 b9 e6 cc 1a 3c f7 fb 13 3c 6c d3 9f ba
       -0.00034857215 0.009448266 0.009032241 -0.0012193746
0002e0 9a 82 c6 bc 3a a7 81 3b e3 87 b1 bc 79 48 44 bc
       -0.024232198 0.0039567025 -0.021671241 -0.011980169
0002f0 c9 ec 21 3d 45 a0 83 bc 52 c6 a6 bc 4d 02 f2 3b
       0.039532457 -0.016067633 -0.020358238 0.007385528
000300 ed b8 b1 3c df ce 15 3d 91 c4 c1 3c ea e3 2b 3a
       0.021694625 0.03657424 0.0236533 0.0006557094
000310 77 09 50 bb 97 4b 92 bc f2 be 64 3c ff d4 1e bc
       -0.0031743923 -0.01785831 0.013961541 -0.009694337
000320 34 45 11 3c d3 17 51 3c 5e c0 d2 bc a1 81 26 3b
       0.008866597 0.012762028 -0.025726493 0.0025406855
000330 7c 61 03 3c a4 96 bb bc 44 40 de 3b ed 9b ef 3c
       0.008018848 -0.02289898 0.0067825634 0.029249156
000340 a6 76 9f bc 77 5b 43 3c 4d 29 ca 3c 3e 0a 32 3c
       -0.019465756 0.011923662 0.024677897 0.0108667
000350 16 d3 30 3c 12 c6 6e bc 77 ea 89 bb ad 85 fe ba
       0.010792514 -0.014573591 -0.0042088586 -0.0019418501
000360 4b 42 57 bc 6c 04 92 3c a7 a4 33 3c 1e f7 48 bc
       -0.013138364 0.017824374 0.010964549 -0.012265949
000370 07 99 18 bd 52 6b 50 3c 18 de 23 bc e6 10 4b bc
       -0.037255313 0.0127209 -0.010001682 -0.012394166
000380 4c 58 00 bc 68 09 79 bb cc 60 95 3c a2 b3 cb bc
       -0.007833552 -0.0037999991 0.018234633 -0.024865929
000390 ad 3f dc bc 50 d2 05 bc ef 89 8a 3b 62 2f 6e bc
       -0.026885832 -0.008167818 0.0042278687 -0.014537664
0003a0 73 c9 a5 3c 0c af a7 bb 7f a2 fd 3c 74 ed b4 bc
       0.02023766 -0.0051173028 0.030961273 -0.022085883
0003b0 e8 5d 95 bc 8f d3 c8 3c d6 57 fe bb e5 a7 76 3c
       -0.018233255 0.024514941 -0.0077619357 0.015054678
0003c0 94 f5 97 3c a8 41 93 3c f6 61 d8 bc e8 cc de 3b
       0.018549718 0.017975643 -0.026413899 0.006799329
0003d0 eb a3 d2 3b 59 6e d7 bc ed 61 0b bc 75 45 49 bd
       0.006428232 -0.026297735 -0.008507234 -0.049138505
0003e0 8e 4a d7 ba 15 e2 47 3a e4 e3 9a bc b0 07 a6 bc
       -0.0016425417 0.00076249364 -0.018907495 -0.020267338
0003f0 04 23 38 bb 08 20 c9 bb d9 07 55 bc 09 71 cd 3b
       -0.0028097043 -0.0061378516 -0.013002359 0.0062695784
