prompt_sliders/models/carslider/learned_embeds-steps-1500.safetensors (safetensors, 3184 bytes, 1 tensors)

<car-ti> f4 [1, 768]
0	0x3d437184	0.04771568
1	0xbc0bbfc8	-0.008529611
2	0xbbb5ad30	-0.005544327
3	0xbb8c68ba	-0.0042849453
4	0x3b38b471	0.0028183723
5	0x3cfc5531	0.030802341
6	0xbd25f9b1	-0.040521327
7	0x3c00865e	0.007844536
8	0xbcaf7fc0	-0.02142322
9	0xbd39a684	-0.045324817
10	0x3d3ef3a7	0.046619084
11	0xbcdeb822	-0.02718741
12	0x3d26c6d6	0.04071697
13	0x3c9869cc	0.018605135
14	0xbd5b6378	-0.053561658
15	0x3d440a6f	0.047861513
16	0xbb67810d	-0.0035324723
17	0x3c42d001	0.011890412
18	0xbc6eb68d	-0.014569891
19	0x3d01580b	0.031578105
20	0xbc83e242	-0.0160991
21	0xbd37312e	-0.044724636
22	0x3ca57248	0.020196095
23	0xbbaaff51	-0.0052184244
24	0xbd651bc6	-0.05593469
25	0x38e44bfc	0.000108860404
26	0x3b702eda	0.003664902
27	0x3d7884ba	0.060673453
28	0x3ce6e241	0.028184058
29	0xbcc274f6	-0.023737412
30	0x3cf3291b	0.029682687
31	0x3cca7e40	0.024718404
32	0x3ccc0c41	0.024908187
33	0x3c33bb6c	0.010969978
34	0xbb6f21ea	-0.003648872
35	0xbbab9015	-0.005235682
36	0xbb6f7a65	-0.0036541459
37	0x3cbc4acb	0.022984883
38	0xbd08e1e8	-0.033418566
39	0x3d0bcc0c	0.03413014
40	0xbc9ea674	-0.01936648
41	0xbcda77ac	-0.026668392
42	0xbc3d7160	-0.011562675
43	0x3c5b477b	0.0133837415
44	0x3c64c1bc	0.0139622055
45	0xbd4889c5	-0.048959512
46	0x3ca046f4	0.019565083
47	0xbc8826a5	-0.01661999
48	0xbb8a64c0	-0.004223436
49	0x3c5d4e23	0.013507399
50	0x3c0d2cb1	0.008616612
51	0x3cbd0bc2	0.023076896
52	0xbcdb8840	-0.026798368
53	0xbcb5867e	-0.022158857
54	0xbc9ca73e	-0.019122716
55	0xbc48057a	-0.012208337
56	0xbc7efee9	-0.015563705
57	0x3d1b434e	0.037905984
58	0xbbec6691	-0.0072143753
59	0xbc41ca92	-0.011828082
60	0xbc6d6cb0	-0.014491245
61	0x3c46f2b3	0.012142825
62	0x3c5bdbf3	0.013419139
63	0x3b2b9765	0.0026182767
64	0x3b94631e	0.0045284173
65	0xbc5702c7	-0.013123221
66	0x3d0dbc87	0.03460362
67	0x3ba9f1bc	0.0051862877
68	0xbbf080ee	-0.0073395884
69	0x3c043bb6	0.008070877
70	0xbd00e54b	-0.03146867
71	0x3c8307ae	0.015994873
72	0xbca73af1	-0.020413848
73	0xbd143cd3	-0.03619082
74	0xbbb116af	-0.0054043154
75	0x3c81ccd6	0.015844744
76	0x38fc3771	0.00012026623
77	0xbca13e9e	-0.019683179
78	0x3c2df04f	0.010616376
79	0x3b6e2718	0.003633922
80	0xbcf5fd1d	-0.03002792
81	0x3cfbc72d	0.030734623
82	0xbcd198ed	-0.025585616
83	0xbc141c97	-0.0090400195
84	0xbd8289c0	-0.0637393
85	0x3c47efb9	0.01220315
86	0xbd0396d0	-0.032126248
87	0xbd15697a	-0.036477543
88	0x3d227df5	0.039670903
89	0xbce5c9ee	-0.02805039
90	0x3a8724c8	0.0010310644
91	0xbbfc2ef7	-0.0076960283
92	0xbcb9f2c5	-0.02269877
93	0xbcd5bf38	-0.026092157
94	0xbc4b5f32	-0.012412833
95	0x3c9b04bf	0.018923162
96	0xbc8e3daf	-0.017363397
97	0xbcfbe9be	-0.030751105
98	0xbd8b27c2	-0.067946926
99	0x3c7f2659	0.015573108
100	0x3ca7c990	0.020481855
101	0xbc7ef51b	-0.015561367
102	0x3d0b43a7	0.034000065
103	0x3d1917cf	0.03737622
104	0x3c741e30	0.014899775
105	0x3cb0863a	0.02154838
106	0xbd8ea0cb	-0.069642626
107	0xbc43cdfb	-0.011950965
108	0xbce69950	-0.028149277
109	0xbd87e124	-0.06634739
110	0x3d9af967	0.07567101
111	0xbc975654	-0.018473782
112	0xbb876cb3	-0.004132831
113	0xbc3c45ec	-0.01149128
114	0x3d6d780f	0.057975825
115	0xbc9be8ce	-0.019031908
116	0xbca4ebae	-0.020131912
117	0xbd224954	-0.039620712
118	0x3bed7545	0.0072466456
119	0xbcd7b8bf	-0.026333211
120	0xbcc30653	-0.023806727
121	0xbc495c7a	-0.012290115
122	0xbc232270	-0.009956941
123	0xbc9aa14c	-0.01887574
124	0x3d049b51	0.032374684
125	0xbb52a6cc	-0.0032142876
126	0xbcd76b73	-0.026296353
127	0xbd588123	-0.05285753
128	0xbcbe8f5d	-0.02326172
129	0xbb0919dd	-0.0020919957
130	0xbb95695d	-0.0045596794
131	0x3caa6943	0.020802146
132	0x3d3d48a7	0.046211865
133	0x3caeb438	0.02132617
134	0xbb45412e	-0.0030098665
135	0x3cb0a078	0.021560892
136	0xbc7abc56	-0.015303692
137	0x3d25f427	0.040516045
138	0x3d3b62c1	0.045748476
139	0x3b8bc680	0.0042656064
140	0x3cbec6bb	0.023288121
141	0xbbbcac59	-0.00575785
142	0x3d4ec0b9	0.050476763
143	0xbbef6a2a	-0.007306357
144	0xbcc268c0	-0.02373159
145	0x3cb8c769	0.022556024
146	0xbd6f760b	-0.058462184
147	0xbcced48f	-0.02524784
148	0xbce1345d	-0.02749079
149	0x3c960e7c	0.018317454
150	0xbc255658	-0.010091387
151	0xbc42f324	-0.01189879
152	0xba9283b4	-0.0011178167
153	0xbc9c88f2	-0.01910827
154	0x3c89979e	0.01679593
155	0xbc91df82	-0.017806772
156	0xbc3736d0	-0.011182502
157	0x3c282c9b	0.010264541
158	0xbc0b3529	-0.008496561
159	0x3d1cf65c	0.038320884
160	0x3d18a6d4	0.037268475
161	0xbc2d974e	-0.010595156
162	0x3ccb541a	0.024820376
163	0xbd15df6f	-0.036590036
164	0x3befffc0	0.007324189
165	0xbc402e92	-0.011729853
166	0xbcb5de66	-0.022200774
167	0xbd4a791d	-0.04943191
168	0xbc4fe1f8	-0.0126881525
169	0x3b5142c3	0.0031930662
170	0xbca86b0b	-0.020558855
171	0x3c08e201	0.008354665
172	0xbc328e1b	-0.010898138
173	0xbc75b576	-0.014996877
174	0xbcc7e679	-0.02440189
175	0xbc9620d2	-0.018326197
176	0xbc870400	-0.0164814
177	0x3c44845a	0.011994446
178	0xbc3a4697	-0.011369369
179	0x3c100ead	0.0087925615
180	0x3c48590d	0.012228263
181	0x3d0d9487	0.034565475
182	0x3ca88931	0.02057323
183	0x3cbf9338	0.023385629
184	0xbc6424ae	-0.013924761
185	0x3a576cc7	0.0008217808
186	0xbabd6e62	-0.0014452452
187	0xbbb06c6c	-0.0053840186
188	0x3d31b2c4	0.043383375
189	0xbb9876e5	-0.004652845
190	0xbd3174da	-0.04332433
191	0x3b28fcb8	0.0025785398
192	0xbca19cb5	-0.019728044
193	0x3c39ede3	0.0113482205
194	0x3d181090	0.03712517
195	0x3cc28026	0.023742747
196	0xbc1ff7ff	-0.009763717
197	0xbcad5836	-0.021160226
198	0x3cbc104c	0.02295699
199	0xbb0b7ea2	-0.0021285196
200	0xbc967edf	-0.018371044
201	0x3bcb6c74	0.006207997
202	0x3b335ebd	0.00273697
203	0x3bcb8d9b	0.006211949
204	0x3bd58df7	0.0065171677
205	0xbd459390	-0.04823643
206	0x3b186823	0.002325543
207	0x3ccace6d	0.024756635
208	0xbcd57750	-0.02605787
209	0x3c5f9ef7	0.01364874
210	0x3a7f50a7	0.0009739496
211	0x3c828214	0.015931167
212	0x3cea5b9b	0.028608134
213	0xbce17689	-0.027522342
214	0xbc8f8f3d	-0.017524356
215	0x3bfe8c94	0.007768223
216	0xbb15d1d0	-0.0022860654
217	0xbbcce7cd	-0.0062532187
218	0xbc78b84d	-0.0151806595
219	0xbb39312d	-0.002825807
220	0xbd5c6a4f	-0.05381232
221	0xbc36ec8d	-0.011164797
222	0xbbf90a32	-0.0076000923
223	0x3b1ee580	0.002424568
224	0xbba7aa29	-0.00511672
225	0x3c24f5c2	0.010068359
226	0x3ce326c4	0.027728446
227	0xbcbd579f	-0.02311307
228	0x3ca536ff	0.020167826
229	0x3c2fe993	0.010736841
230	0x3bc03bf2	0.005866521
231	0xbd2e19cc	-0.04250507
232	0x3d086a96	0.033304773
233	0xbca428fd	-0.020039076
234	0x3cd0dd80	0.025496244
235	0xbccb92e8	-0.024850324
236	0xbc7aa79f	-0.015298753
237	0x3d3a8226	0.045534275
238	0x3c73ce9b	0.014880802
239	0x3c0de4a9	0.008660474
240	0x3c76b62f	0.015058084
241	0x3d159526	0.036519192
242	0xbd09e35f	-0.033664104
243	0x3ca6db53	0.020368254
244	0x3cb8af9c	0.022544675
245	0xbb8492bb	-0.004045812
246	0xbad5cfbb	-0.0016312519
247	0xbd4e531b	-0.050372224
248	0x3b92812d	0.0044709654
249	0x3c9a6a56	0.018849533
250	0xbb035484	-0.002003939
251	0xbd158094	-0.036499575
252	0x3a837183	0.0010028336
253	0x3c033333	0.008007812
254	0x3a56de7c	0.0008196605
255	0x3cc9b4df	0.024622379
