prompt_sliders/models/carslider/learned_embeds-steps-1500.safetensors (safetensors, 3184 bytes, 1 tensors)

<car-ti> f4 [1, 768]
0	0x3cdd58ca	0.027019877
1	0xbce43488	-0.02785708
2	0x3b6c4e20	0.0036057308
3	0x3cdcbca9	0.026945429
4	0xbbd868da	-0.006604296
5	0xbce86487	-0.028368248
6	0xbd4b1a32	-0.04958553
7	0x3d10b28f	0.035326537
8	0xbcfc2790	-0.030780584
9	0xbd0efc74	-0.034908727
10	0xbc775bde	-0.015097586
11	0x3c70ed98	0.014705084
12	0xbc8cb4e2	-0.017176095
13	0x3bb143b8	0.005409684
14	0xbc58f947	-0.013243026
15	0x3cc6ed4b	0.024283072
16	0x3a2971b5	0.0006463782
17	0xba489993	-0.0007652279
18	0xbc34fce8	-0.011046626
19	0x3cb2cf3d	0.021827335
20	0xbbd375c2	-0.006453247
21	0x3a282282	0.00064138335
22	0x3c226c5f	0.009913533
23	0xbb838a5f	-0.004014298
24	0x3c7085e6	0.014680361
25	0xbd903ecd	-0.07043228
26	0xbd0ac915	-0.033883173
27	0x3cc7a012	0.02436832
28	0x3c589c8c	0.013220917
29	0xbb21a9f4	-0.002466795
30	0x3bcb0f53	0.006196895
31	0x3c3d1b54	0.01154216
32	0x3ca6d8b6	0.020367008
33	0xbc2bcea1	-0.010486276
34	0xbb9edee7	-0.0048483494
35	0xbcc6342f	-0.024194805
36	0x3c9ab516	0.018885177
37	0x3c93db77	0.018048985
38	0xbb46644a	-0.003027218
39	0xbb83e906	-0.0040255813
40	0xbca86eef	-0.02056071
41	0x3850c89c	4.9777896e-05
42	0xbce2dcbe	-0.027693149
43	0x3c4272f5	0.011868228
44	0xbbfc6b26	-0.007703203
45	0x3c73f084	0.014888886
46	0x3cacc9f1	0.021092387
47	0x39057025	0.00012725646
48	0xbb8217ee	-0.003970138
49	0xbbd2cf65	-0.0064334148
50	0x3c039b88	0.008032687
51	0xbb3ccd68	-0.0028808955
52	0x3d0c5538	0.03426096
53	0xbc8be135	-0.01707516
54	0xbc429bf8	-0.011878006
55	0x3b955972	0.004557782
56	0xba697cdf	-0.0008906852
57	0xbc7633b3	-0.0150269745
58	0x3c1741b8	0.009231977
59	0x3c970b46	0.018437993
60	0x3b227f79	0.0024795218
61	0xbb4d0248	-0.0031281877
62	0x3c20493a	0.009783084
63	0xbbc10ab6	-0.0058911694
64	0x3c1828d8	0.009287082
65	0xba59e712	-0.0008312325
66	0x3c8d64ac	0.017259918
67	0x3c7802be	0.015137373
68	0x3c340a80	0.0109888315
69	0xb992344a	-0.00027886248
70	0xbcbcb176	-0.023033839
71	0xbbbb6671	-0.005718999
72	0xbd3004ab	-0.0429732
73	0xbd2b00be	-0.041748755
74	0x3c89a726	0.016803335
75	0xbcc8a9d4	-0.024495043
76	0x3992030b	0.00027849557
77	0x3c73051b	0.01483276
78	0x3b9f7e63	0.0048673614
79	0x3c44ad00	0.012004137
80	0x3c01dd85	0.0079263495
81	0xbc931882	-0.017956022
82	0xbcd92d78	-0.026510939
83	0x3b8036d4	0.003912786
84	0xbc54d256	-0.012989601
85	0x3cd8c204	0.026459701
86	0x3c5ef3b8	0.013607912
87	0xba687030	-0.0008866815
88	0x3c7b449e	0.015336184
89	0x34508877	1.9421155e-07
90	0x3cf7cf59	0.030250238
91	0x3cbe268a	0.023211736
92	0x3bee34d3	0.0072694807
93	0x3bcfd986	0.0063430695
94	0x3b9c5156	0.004770438
95	0xbc0360b1	-0.0080186585
96	0x3c65dd09	0.01402975
97	0xbc36c99c	-0.011156466
98	0x3b68db2d	0.003553103
99	0x3c729e72	0.014808284
100	0x3c364462	0.011124702
101	0xbd6b8c9d	-0.057507146
102	0x3b1f0fac	0.0024270816
103	0xbbfc0200	-0.007690668
104	0xbaf62452	-0.0018779135
105	0xbb1ce335	-0.0023939137
106	0xbd18c6e8	-0.037299067
107	0xbcef9633	-0.029246425
108	0xbccba8a5	-0.02486069
109	0xbd08eb49	-0.03342751
110	0x3c3f3bc2	0.011671962
111	0x3c4c7646	0.01247937
112	0x3c3714bf	0.01117438
113	0xbb9dd178	-0.0048162304
114	0x3c4f0022	0.012634309
115	0xbbe94eab	-0.0071199737
116	0xbbf431ea	-0.0074522393
117	0xbc94ca0c	-0.01816275
118	0x3b61dbc1	0.003446326
119	0xbd1a9b1c	-0.03774558
120	0x3c08c42e	0.008347554
121	0xbb5f1774	-0.0034041079
122	0xbce96684	-0.028491266
123	0xbc0ae5ac	-0.00847761
124	0xbaaa30fe	-0.0012984572
125	0x3c22437b	0.009903784
126	0xbc847096	-0.016166966
127	0x39e7a2cf	0.00044181055
128	0xbd0b3f65	-0.033996005
129	0x3d0b631c	0.034030065
130	0x3c78ebbc	0.015192922
131	0xbc1d6fc7	-0.009609169
132	0xbca970dc	-0.020683698
133	0xbcabda3d	-0.020978088
134	0x3c99e4f5	0.018785933
135	0x3ca69fd3	0.020339882
136	0x3be654f9	0.0070291725
137	0x3ce0cc77	0.027441246
138	0x3cbb85da	0.022890974
139	0x3c23c73d	0.009996233
140	0xbb5593fd	-0.0032589429
141	0xbcf83a46	-0.030301224
142	0x3bd32a61	0.006444261
143	0xbc880467	-0.016603662
144	0xbc21b3e5	-0.00986955
145	0x3d6e8a17	0.05823716
146	0xbcd7ded2	-0.026351366
147	0x3c83f726	0.01610906
148	0xbcb8150f	-0.022470979
149	0x3d5afa60	0.053461432
150	0xbbfe2a6e	-0.007756523
151	0xbbc2fca4	-0.0059505273
152	0x3ce8c9c7	0.028416527
153	0xbb1938a9	-0.002337972
154	0x3c761111	0.015018717
155	0xbb30d132	-0.002698016
156	0x3bae8804	0.005326273
157	0x3c121ad1	0.008917526
158	0xbc305a75	-0.010763754
159	0xbc3c890d	-0.011507285
160	0x3c7d95ac	0.015477579
161	0xbcbb7124	-0.022881098
162	0x3c320c82	0.01086724
163	0x3ba0e7d3	0.004910448
164	0x3c69e5f8	0.01427602
165	0x3cc398ac	0.02387651
166	0xbc28593c	-0.010275181
167	0xbc52742a	-0.0128450785
168	0xbc3c1ea3	-0.011481914
169	0x3caab351	0.020837458
170	0x3c49917a	0.012302751
171	0x3ce9dd3c	0.028547876
172	0x3b58529b	0.003300822
173	0x3c4811fc	0.012211319
174	0xbcbb36d4	-0.022853293
175	0x3c223934	0.009901334
176	0x3b877659	0.004133981
177	0x3d067918	0.032830328
178	0x3b69314a	0.0035582357
179	0xbd73e233	-0.059541892
180	0x3bc293fa	0.0059380503
181	0xbc88759a	-0.01665764
182	0x3bd87c77	0.0066066342
183	0x3cc5e40a	0.024156589
184	0xbbf1f773	-0.0073842346
185	0x3c35c3fc	0.01109409
186	0xbc8a74db	-0.016901424
187	0x3bf5f579	0.0075060693
188	0x3c3aec3b	0.011408861
189	0xbb0dc278	-0.0021630805
190	0xbc326d07	-0.010890252
191	0x3cbf3f48	0.023345605
192	0xbbe4ce3a	-0.006982592
193	0x3c9859dc	0.018597536
194	0x3cdaa29e	0.02668887
195	0xbcb17be4	-0.021665521
196	0xbca2d264	-0.019875713
197	0xbc80542f	-0.015665142
198	0xbb372361	-0.0027944671
199	0xbccbd86e	-0.024883475
200	0x3c38b590	0.011273757
201	0x3b282ad1	0.0025660286
202	0xbaadadc3	-0.0013250638
203	0x3b8ea4af	0.004353128
204	0x3d0f7948	0.035027772
205	0xbcf68b9e	-0.030095872
206	0xb9b0dffb	-0.00033736214
207	0x3c234772	0.009965764
208	0xba9fee94	-0.0012201839
209	0xbb08f842	-0.0020899926
210	0x3ba9a88b	0.0051775626
211	0x3bb54b52	0.0055326605
212	0xbc1d4de7	-0.009601093
213	0xbc86f4a1	-0.01647407
214	0x3c2cf91b	0.010557438
215	0xbc818df2	-0.015814755
216	0x3bef65d0	0.007305838
217	0x3b337522	0.002738305
218	0xbc6f5883	-0.014608505
219	0x3b190952	0.0023351503
220	0x3c6b7a9e	0.014372496
221	0xbbbe96fa	-0.0058163377
222	0xbcc98c41	-0.024603011
223	0x3b79fa87	0.003814371
224	0xb9a257a4	-0.00030964345
225	0xbc93802b	-0.018005451
226	0xbc6290e1	-0.013828487
227	0xbd0c70a8	-0.034287125
228	0xb968df51	-0.00022208436
229	0xba613535	-0.00085909973
230	0x3d027cbb	0.031857233
231	0x3c5515e3	0.0130057065
232	0x3bcaa084	0.0061836857
233	0x3bafad40	0.005361229
234	0xbad5c07c	-0.0016307975
235	0xbd0bc4c4	-0.034123197
236	0xbce2b8b1	-0.027675958
237	0x3cc50f7c	0.024055235
238	0xbc981d8c	-0.018568777
239	0xbb03e206	-0.0020123734
240	0xbb5b5ad3	-0.0033470883
241	0xbb559f3b	-0.003259613
242	0xbc6378ea	-0.013883809
243	0x3bce7100	0.0063000917
244	0xbb989cc5	-0.0046573603
245	0x3c329aef	0.010901197
246	0xbce058de	-0.027386125
247	0xbcf0afca	-0.029380698
248	0x3bb97b23	0.005660431
249	0x3c82900b	0.015937826
250	0xbd1f02fd	-0.03882121
251	0xbc823c1c	-0.015897803
252	0x3c6e90c2	0.01456088
253	0xbcb0bcb0	-0.021574348
254	0xbbc27f61	-0.005935595
255	0xbc8d7abe	-0.017270442
