prompt_sliders/models/carslider/learned_embeds-steps-1000.safetensors (safetensors, 3184 bytes, 1 tensors)

<car-ti> f4 [1, 768]
0	0x3d1ac816	0.037788473
1	0xbc3325ef	-0.010934337
2	0xbc51a884	-0.012796525
3	0x3c2d30b8	0.0105706975
4	0x3a3ed3b8	0.00072794734
5	0x3c284a92	0.010271685
6	0xbd2cb3a8	-0.04216352
7	0xbc01fadc	-0.007933345
8	0xbc0496ef	-0.008092626
9	0xbd5234f1	-0.05132002
10	0x3d2fef1b	0.042952638
11	0xbd071954	-0.03298314
12	0x3d003ff2	0.031310983
13	0x3cbf0233	0.023316478
14	0xbcf1a2cd	-0.029496575
15	0x3d00d410	0.03145224
16	0xbc603f81	-0.0136870155
17	0x3ccc5761	0.02494401
18	0xbca17cb5	-0.019712785
19	0x3b669366	0.003518307
20	0xbc39908f	-0.011325969
21	0xbce60eda	-0.028083254
22	0xbad220a6	-0.0016031459
23	0xbbdeb579	-0.0067965356
24	0xbd22930b	-0.039691012
25	0x3b0dc978	0.0021634977
26	0x3a5ff416	0.00085431465
27	0x3d0b32de	0.033984058
28	0x3cab9288	0.020943895
29	0xbc9cda30	-0.019147009
30	0x3d039859	0.032127712
31	0x3bcd2076	0.006259973
32	0x3b8153b6	0.0039467467
33	0x3bf2138f	0.0073875855
34	0x38bf3593	9.117569e-05
35	0xbc001e85	-0.007819776
36	0xbc35a30a	-0.011086235
37	0x3c9c5c14	0.019086875
38	0xbd168c1f	-0.036754724
39	0x3ccb8e19	0.02484803
40	0xbc2ee559	-0.010674798
41	0xbca8c523	-0.020601815
42	0xbc7858d5	-0.015157898
43	0x3c748f0c	0.014926683
44	0xbb7d53b9	-0.003865464
45	0xbcfb77d1	-0.030696781
46	0x3cf80343	0.030274993
47	0xbc782fcb	-0.0151481135
48	0xbb96d7e1	-0.0046033715
49	0x3c9ed99a	0.01939087
50	0x3bb006a0	0.0053718835
51	0x3c3b88ec	0.011446219
52	0xbce6699d	-0.028126532
53	0xbc2741b2	-0.010208534
54	0xbcc4140d	-0.023935342
55	0xbb09d2cc	-0.0021030186
56	0xbc4831b4	-0.012218881
57	0x3ca388db	0.019962719
58	0x3acbfd46	0.0015563152
59	0xbc5e2d5c	-0.013560619
60	0xbc91e2f9	-0.017808424
61	0x3acc477f	0.0015585272
62	0xbad9f5aa	-0.0016629
63	0x3c9684dd	0.018373901
64	0xbbeb4fda	-0.00718115
65	0xbca23664	-0.019801326
66	0x3d1664b9	0.03671715
67	0x3bea5e5f	0.007152363
68	0xbcf1f5e5	-0.029536197
69	0xb9b8836a	-0.00035193126
70	0xbc2c845d	-0.010529605
71	0x3c8990b4	0.016792633
72	0xbc4ac76a	-0.012376646
73	0xbc8e70f2	-0.01738784
74	0xbcc121cf	-0.023575692
75	0x3c842579	0.01613115
76	0x3b73e190	0.0037213303
77	0xbc2a62ba	-0.010399515
78	0x3c85366d	0.016261304
79	0x3a640709	0.0008698558
80	0xbc4845e2	-0.012223693
81	0x3c008d60	0.007846206
82	0xbcae983c	-0.021312825
83	0xbb4f7929	-0.003165791
84	0xbd5df021	-0.054184083
85	0x3bbb6058	0.005718272
86	0xbd0cc7fc	-0.034370407
87	0xbccb936d	-0.024850572
88	0x3cb522eb	0.022111377
89	0xbcc498d6	-0.02399866
90	0x3c1270ae	0.008937998
91	0xbbf495a3	-0.007464127
92	0xbb43f530	-0.0029900782
93	0xbc938f19	-0.01801257
94	0xbb9f9b39	-0.004870799
95	0x3cf63d37	0.030058486
96	0x3b1e6337	0.0024168023
97	0xbcb74693	-0.02237252
98	0xbd424e5a	-0.047438003
99	0x3cd1b39f	0.025598345
100	0x3ca44711	0.020053418
101	0xbcbe7a93	-0.023251807
102	0x3cfeac3b	0.031087985
103	0x3d3cc286	0.04608395
104	0x3c58e63d	0.013238487
105	0x3cb5e536	0.022204023
106	0xbd761e74	-0.060087636
107	0xbd40a7d3	-0.04703505
108	0xbca5a21b	-0.0202189
109	0xbd718431	-0.05896396
110	0x3d5e408e	0.054260783
111	0xbc4c61e4	-0.012474511
112	0xbbc18c36	-0.005906607
113	0x3ba24b5d	0.0049528317
114	0x3d3ff79e	0.046867006
115	0xbc80095b	-0.015629461
116	0xbc077d01	-0.008269549
117	0xbd2a9b51	-0.041652028
118	0x3c884646	0.016635071
119	0xbcd7854e	-0.026308682
120	0xbc71ed8c	-0.014766108
121	0x3bc52be2	0.006017194
122	0xbcca8bda	-0.02472489
123	0xbc56aec6	-0.013103193
124	0x3ca86cfe	0.020559784
125	0xbc021c5d	-0.007941333
126	0xbcfa7790	-0.03057459
127	0xbd659515	-0.05605038
128	0xbcf5d1a1	-0.030007185
129	0x3b013a7e	0.0019718702
130	0x3c3469a0	0.011011511
131	0x3bb16229	0.005413313
132	0x3d2d4dbf	0.042310473
133	0x3be307f1	0.006928437
134	0xbc21942e	-0.009861989
135	0x3c5fa198	0.013649367
136	0xbc940054	-0.018066563
137	0x3ce2b645	0.027674804
138	0x3cc97d7c	0.024595968
139	0x3cc55b0f	0.024091272
140	0xba980859	-0.0011599167
141	0xbc40a7a5	-0.01175872
142	0x3d20d5a2	0.039266236
143	0xbc84527a	-0.01615261
144	0xbcf6dbcb	-0.030134102
145	0x3c4c8bd2	0.012484508
146	0xbd6e0586	-0.058110736
147	0xbc44cf75	-0.012012352
148	0xbd0b9b74	-0.0340838
149	0x3c9e1f98	0.019302174
150	0xbbd0c32b	-0.006370922
151	0xbc6ee7fc	-0.014581677
152	0x3c80de1e	0.015730914
153	0x3aeba7d0	0.0017979089
154	0x3c8401a3	0.016114062
155	0xbc587f6f	-0.013213976
156	0xbc14b955	-0.00907739
157	0x3ca0546d	0.019571507
158	0x3abd22f5	0.0014429974
159	0x3c4fdf8b	0.012687574
160	0x3d3311cf	0.043718155
161	0x3c819d01	0.015821936
162	0x3c70b217	0.014690897
163	0xbd36c41b	-0.044620614
164	0xbc2438d6	-0.010023316
165	0xbce51495	-0.027963916
166	0xbcd8ee7e	-0.02648091
167	0xbd5fccb4	-0.05463858
168	0xbc4ebda4	-0.012618456
169	0x3a4f454f	0.0007906751
170	0xbc9d26be	-0.019183513
171	0x3c3a1927	0.011358536
172	0xbce11196	-0.027474206
173	0xbce6426e	-0.028107848
174	0xbcf73fe5	-0.030181834
175	0xbc186e0d	-0.009303582
176	0xbc245c76	-0.01003181
177	0x3b6484a5	0.0034869101
178	0xbbe1363e	-0.0068729213
179	0x3c9d276e	0.01918384
180	0x3bae6c1b	0.005322946
181	0x3cb8b224	0.022545882
182	0x3ca04fa0	0.019569218
183	0x3ca098f0	0.019604176
184	0xbcadb20c	-0.021203063
185	0xbc164c09	-0.009173402
186	0xbc8fa7e4	-0.017536111
187	0xbcc06f12	-0.023490462
188	0x3cec25ec	0.028826676
189	0xbc326900	-0.010889292
190	0xbd085965	-0.03328838
191	0xbb09ff2b	-0.0021056633
192	0xbb9f5004	-0.0048618335
193	0x3d112a72	0.03544087
194	0x3ceeec06	0.02916528
195	0x3c9a4e2f	0.018836109
196	0xbc297413	-0.010342616
197	0xbcc507b7	-0.02405153
198	0x3cde5fac	0.02714523
199	0xbba572d3	-0.0050490885
200	0xbbd3323e	-0.0064451983
201	0x3ba47aff	0.005019545
202	0xbc2277c9	-0.009916254
203	0x3a78f3ce	0.0009496779
204	0x3c52c9b0	0.012865469
205	0xbd180235	-0.03711148
206	0x3c9e4f01	0.019324781
207	0x3cc70e93	0.024298942
208	0xbc89034c	-0.016725205
209	0x3c518794	0.012788672
210	0x3c62ffc4	0.013854925
211	0x3c3da4e8	0.011574961
212	0x3d0e81da	0.034791805
213	0xbcfee7c6	-0.031116378
214	0xbc81c644	-0.01584161
215	0x3b8b4b14	0.0042508934
216	0xbbf5452d	-0.007485053
217	0x3c1a8815	0.009431859
218	0x3bd369f6	0.0064518405
219	0xbb92e35d	-0.00448267
220	0xbd68a08f	-0.056793746
221	0xbc9b6b62	-0.018972103
222	0xbc9b9adf	-0.018994747
223	0xbc5b9ec4	-0.013404552
224	0xbbe451c4	-0.006967755
225	0xbaf647df	-0.001878973
226	0x3c85e55d	0.01634472
227	0xbc8e4938	-0.017368898
228	0x3b00f3e7	0.0019676627
229	0xbb5cce8a	-0.0033692443
230	0x3bf7ce4f	0.0075624357
231	0xbcafbf67	-0.021453572
232	0x3d048f07	0.032362964
233	0xbcf9be0b	-0.030486127
234	0x3d18188d	0.03713279
235	0xbc70d36c	-0.014698844
236	0xbc6e9742	-0.01456243
237	0x3d2cb6ce	0.042166524
238	0xbadfca34	-0.0017073811
239	0x3bb44e1b	0.005502475
240	0x3c9063a3	0.017625635
241	0x3d06cd91	0.032910887
242	0xbcb626f1	-0.022235366
243	0x3b4a596b	0.0030876051
244	0x3c87ca87	0.016576065
245	0xbbc8f122	-0.006132261
246	0xbb9dda0a	-0.004817252
247	0xbd203f80	-0.03912306
248	0x3c586ea9	0.013209977
249	0x3c9e51bf	0.019326089
250	0xbc036eee	-0.008022053
251	0xbd17d31f	-0.037066575
252	0x3aa54a88	0.0012610713
253	0x3bcd9f3c	0.0062750857
254	0xbbfe2e16	-0.0077569587
255	0x3caa1ddf	0.020766197
