prompt_sliders/models/ageslider/learned_embeds-steps-1500.safetensors (safetensors, 3184 bytes, 1 tensors)

<weather-ti> f4 [1, 768]
-0.0114441225 0.008525272 -0.01117166 0.018947475 0.045887288 0.020679591 0.00069702294 0.022864914
0.021145549 -0.0103493435 -0.0011180426 -0.030587884 -0.020568322 -0.0064203776 0.0264068 -0.023658337
0.009675331 0.014295399 -0.008845681 0.015898177 -0.031647164 -0.0048321537 0.018422227 0.015000562
0.00074161566 0.0276959 -0.014374966 0.005693251 -0.023958217 -0.0008008737 0.010654496 0.004515033
-0.0036072975 -0.0006400576 -0.02772214 -0.014223867 0.032161936 -0.011528018 -0.030037273 0.013485942
-0.009052052 -0.025095953 0.004358698 0.01618739 -0.03129986 -0.017325435 0.03021628 0.011272097
0.012454822 -0.013090282 -0.01619516 0.022471445 0.010108467 -0.014721512 -0.024899889 0.0059727496
-0.0036438247 0.017730663 -0.022841448 0.011917159 0.0056381254 -0.026210137 -0.012366396 -0.003362905
-0.01023105 -0.0001425498 -0.0006477249 7.296095e-05 0.014991663 -0.021877605 0.012989947 -0.006452588
-0.0440047 -0.0052866735 0.0042143846 -0.00085248094 -0.011555791 -0.0042261835 -0.0020584445 -0.032146707
0.014655709 0.011773802 -0.01254243 0.017850086 0.023644015 -0.023874268 -0.0010215116 -0.01535764
0.007099882 -0.02093769 0.014701656 -0.0077642654 0.023419857 -0.032366056 -0.01681236 -0.0020063345
-0.015054581 0.0053504794 -0.0027510417 -0.02737479 0.012524116 -0.015439403 0.0039648525 -0.012807786
-0.0022257129 -0.0027367868 0.020799045 0.012846456 -0.010051036 -0.020196587 9.4406794e-05 0.0019807473
-0.012820909 -0.01463808 0.023439113 0.01478486 0.034968838 -0.022634974 -0.036985043 0.008905473
0.0033632084 -0.0024795297 0.012242455 -0.0024055904 -0.01734737 0.021235112 0.016253687 -0.0025072838
0.0008701371 -0.003900737 -0.0058917985 0.0039380263 0.014274171 0.025873434 0.012330481 0.0038129902
-0.025895841 0.006841498 0.0040016226 0.0058224285 -0.0043206825 0.0026297204 0.003430224 -0.026560726
-0.0016371866 -0.0054699867 -0.011675953 0.034231517 -0.00663649 -0.0088830525 -0.011544498 -0.0034237138
-0.0151556535 0.0020659913 0.0025870514 0.03849472 0.028742498 0.0006158573 0.025105631 0.001915231
-0.031075712 -0.03326943 -0.010474128 0.0017597408 -0.015713591 0.023004342 -0.02175128 0.0020250548
0.005260235 -0.007840205 -0.027137544 -0.0024790121 0.008177565 0.036437187 0.0015494865 0.024866275
-0.018705914 -0.004877312 -0.013020168 0.014088398 -0.0007671805 -0.0027407568 -0.004932346 -0.023105416
-0.014658112 -0.0031226096 -0.010327674 0.010221221 0.010448805 0.006830239 0.0444405 -0.004904389
0.0100244265 -0.0032177272 0.022482293 0.009307156 -0.022687607 0.0205279 0.017920092 -0.0027710905
-0.0042190687 -0.0066308766 -0.010672967 0.008847569 0.016688067 0.0046360055 -0.01110214 0.023669638
-0.035285898 -0.019406088 -0.0005795368 0.010535893 0.007173186 0.020800956 -0.011401702 -0.008446019
0.0025221084 -0.0021040638 -0.014450168 -0.010314188 -0.0068978234 0.017901244 -0.008645451 0.017388083
-0.033311993 0.007721178 0.0064149504 0.0035707687 0.035569664 0.014588833 -0.024228176 0.00026531197
-0.0010193015 0.024481948 0.009210148 -0.028887462 0.023149427 -0.008236633 -0.0019265668 0.026671758
0.009155928 0.021348568 0.015037072 0.04063484 0.016576594 -0.028264802 0.0003190113 -0.0075239716
0.027351312 0.0052554063 -0.02116308 -0.013729909 0.008523744 -0.014968278 0.0031140894 0.0035557235
00000000: 2180 3bbc 95ad 0b3c 5709 37bc bc37 9b3c
00000010: 4ff4 3b3d 3f68 a93c 6bb8 363a 334f bb3c
00000020: 6e39 ad3c 4b90 29bc 498b 92ba 7193 fabc
00000030: e67e a8bc 0862 d2bb 1353 d83c 21cf c1bc
00000040: 4885 1e3c 4037 6a3c 7aed 10bc e53c 823c
00000050: 75a0 01bd 0b57 9ebb 36ea 963c ebc4 753c
00000060: fc68 423a 83e2 e23c fa84 6bbc 738e ba3b
00000070: 0644 c4bc b9f1 51ba 3290 2e3c d8f2 933b
00000080: 6968 6cbb 8ac9 27ba 8b19 e3bc 390b 69bc
00000090: 3cbc 033d 03e0 3cbc ba10 f6bc 24f4 5c3c
000000a0: 0f4f 14bc 0796 cdbc 69d3 8e3b 6b9b 843c
000000b0: 4834 00bd 12ee 8dbc 2288 f73c 9aae 383c
000000c0: 4f0f 4c3c 9f78 56bc b6ab 84bc 0916 b83c
000000d0: fc9d 253c 7f32 71bc dafa cbbc 0eb7 c33b
000000e0: 3ccd 6ebb e53f 913c fd1d bbbc 3040 433c
000000f0: 06c0 b83b a4b6 d6bc 6d9c 4abc 2f64 5cbb
00000100: 22a0 27bc 6c79 15b9 15cc 29ba 9d02 9938
00000110: 989f 753c aa38 b3bc c9d3 543c 3b70 d3bb
00000120: 463e 34bd d53b adbb d218 8a3b 0779 5fba
00000130: 8054 3dbc cc7b 8abb f8e6 06bb 44ac 03bd
00000140: 801e 703c e8e6 403c c47e 4dbc 583a 923c
00000150: 18b1 c13c f893 c3bc 3ee4 85ba 9c9e 7bbc
00000160: 20a6 e83b 8585 abbc 37df 703c 616b febb
00000170: 00db bf3c 4592 04bd 13ba 89bc b57c 03bb
00000180: 7da7 76bc 1353 af3b d24a 34bb 1841 e0bc
00000190: f331 4d3c 8df5 7cbc 98eb 813b c0d7 51bc
000001a0: 44dd 11bb aa5b 33bb c262 aa3c f179 523c
000001b0: 1aad 24bc 5073 a5bc 43fc c538 6dcf 013b
000001c0: ca0e 52bc 8fd4 6fbc 6203 c03c 333c 723c
000001d0: 7c3b 0f3d fb6c b9bc a17d 17bd 43e8 113c
000001e0: 4669 5c3b 9b7f 22bb 9494 483c 1ca7 1dbb
000001f0: 121c 8ebc 42f5 ad3c 7426 853c 3e51 24bb
00000200: ea19 643a 82a3 7fbb fd0f c1bb 8f0a 813b
00000210: 36de 693c 86f4 d33c c905 4a3c 5ce3 793b
00000220: 8423 d4bc a52e e03b 0b20 833b 12ca be3b
00000230: 8394 8dbb 6357 2c3b 9ccd 603b e195 d9bc
00000240: de96 d6ba 933d b3bb 7f4c 3fbc 5936 0c3d
00000250: ea76 d9bb 398a 11bc 2225 3dbc 6360 60bb
00000260: 6b4f 78bc 9565 073b 858b 293b a4ac 1d3d
00000270: 6375 eb3c 7c71 213a 53aa cd3c 7d08 fb3a
00000280: 7e92 febc 8745 08bd ad9b 2bbc 1aa7 e63a
00000290: cab9 80bc 9a73 bc3c be2f b2bc c8b6 043b
000002a0: 0d5e ac3b 3474 00bc 8e4f debc ec76 22bb
000002b0: 32fb 053c 293f 153d 2418 cb3a 5cb4 cb3c
000002c0: 253d 99bc dcd1 9fbb 8b52 55bc 06d3 663c
000002d0: 9d1c 49ba 459e 33bb 849f a1bb 9247 bdbc
000002e0: 9428 70bc b2a4 4cbb 6835 29bc e876 273c
000002f0: 7731 2b3c 33d0 df3b 3e07 363d ffb4 a0bb
00000300: 7e3d 243c 81e0 52bb c92c b83c 0b7d 183c
00000310: 5cdb b9bc 202a a83c 28cd 923c 2f9b 35bb
00000320: 1d40 8abb d347 d9bb abdd 2ebc 65f5 103c
00000330: 6ab5 883c a2e9 973b c0e5 35bc d4e6 c13c
00000340: f287 10bd 84f9 9ebc 0eec 17ba bd9e 2c3c
00000350: 0c0d eb3b c466 aa3c 34ce 3abc 2c61 0abc
00000360: f549 253b 55e4 09bb 66c0 6cbc d7fc 28bc
00000370: 2307 e2bb a1a5 923c a6a5 0dbc 7471 8e3c
00000380: 2872 08bd ef01 fd3b 8134 d23b 8f03 6a3b
00000390: 7fb1 113d 0006 6f3c 2b7a c6bc 9219 8b39
000003a0: 159a 85ba 5e8e c83c 29e6 163c 66a5 ecbc
000003b0: dea3 bd3c f1f2 06bc db84 fcba bb7e da3c
000003c0: bf02 163c 31e3 ae3c 0d5e 763c b870 263d
000003d0: a3cb 873c 968b e7bc f940 a739 a68b f6bb
000003e0: dc0f e03c 8b35 ac3b 325e adbc 6af3 60bc
000003f0: 2ca7 0b3c 823d 75bc c015 4c3b 2407 693b
