prompt_sliders/models/ageslider/learned_embeds-steps-500.safetensors (safetensors, 3184 bytes, 1 tensors)

<weather-ti> f4 [1, 768]
0.0075549986 0.008660352 -0.009678609 -0.0010927942 0.01776732 0.01913654 -0.011489774 0.012087686
0.014135648 -0.014636899 -0.0033933467 -0.0072924253 -0.010503571 0.0023578834 0.01664138 0.0015788671
-0.0041587753 0.008317868 -0.008918352 0.00020703214 -0.018760638 0.006997122 0.0065026823 -0.0036176157
0.018675936 0.016891716 -0.0071770777 -0.013669485 0.002097787 0.008423341 0.0057863793 0.009995867
-0.002294857 -0.007082855 -0.01567513 -0.010895847 -0.00225789 8.122615e-05 -0.02817933 0.024409935
0.0014325555 -0.007974927 -0.011910234 -0.0174767 -0.023627765 -2.9189023e-05 0.003302332 -0.0029294929
0.007712121 -0.0010083182 0.007033749 0.02360813 0.006659484 -0.006468996 -0.015709998 0.0069001443
-0.0019079233 0.021041181 0.00066850596 0.014866048 -0.003235314 -0.011291575 -0.010594213 -0.0010696348
-0.009179637 -0.007469047 0.0010431386 0.02064603 0.023940347 -0.0043626446 -0.002662617 -0.0071064075
-0.025203727 0.02224037 -0.0026854088 -0.0046571903 -0.0014969823 -0.01627665 0.0036405004 -0.03580453
0.0067838016 0.0019826074 -0.010326279 0.008967754 0.01153466 0.005018366 0.017095497 -0.016088568
0.0022221182 0.009694353 0.011486635 -0.017076328 0.026296979 -0.011495858 -0.0041993856 0.010123562
0.009173029 -0.0010516337 0.0041053365 -0.011637505 0.0021068242 -0.01996611 -0.008800438 -0.00043204447
0.005443174 -0.0019769256 0.017424718 0.014247753 -0.004867712 -0.015241721 -0.003706812 0.0016571297
0.00094668666 -0.009798792 0.0026008938 0.02980423 0.009479201 -0.019992467 -0.047500804 -0.00575472
0.0015379704 -0.009085829 -0.006064807 -0.008202115 -0.0054256506 0.03885756 0.028332535 0.0018012826
-0.0061376086 0.004469694 0.0003304454 0.0014601537 -0.0012902478 -0.0039268523 0.0028008285 -0.00570132
-0.008336774 0.014478838 -0.010933121 0.01813311 -0.004261983 -0.0014166719 -0.022901619 -0.015362968
0.0013602574 -0.0015013992 0.0030467631 0.007596634 -0.019857533 -0.011077467 0.0038178256 -0.0032387136
0.003043983 -0.0031514566 0.013032081 0.024616381 0.0042002574 -0.00027794993 0.011702313 -0.0050439355
0.0019824852 -0.00634654 -0.004801294 0.008562502 0.002656788 0.010093174 0.013283134 -0.015544177
-0.004844771 0.009293251 -0.0151852425 0.0031821742 0.00296483 0.0012955389 -0.001151325 0.009746272
-0.0137196025 0.004152679 -0.021431347 0.021626746 -0.0022108583 0.0093618 -0.021535471 -0.0001035027
0.014704268 -0.0025822031 -0.01605384 0.0048390725 -0.0049555753 0.0062731127 0.012165155 -0.009763747
0.008968 -0.0014494878 0.0035973848 0.022493133 -0.017424691 0.01620962 -0.0018110973 -0.0055798306
-0.006583229 -0.0018004383 0.011050708 -0.00678136 0.013610704 0.0045866026 -0.015052156 0.007316587
-0.0076631117 -0.016462583 0.0028479027 0.001991861 -0.003514333 0.00867338 0.0052272263 0.004331006
0.0069866995 0.00065484236 0.004085899 0.01955699 -0.011888505 0.01951003 -0.024271276 0.0007121749
-0.013653121 0.008227365 0.0046625137 -0.0039737695 0.010157467 0.02015731 -0.02232999 0.012823522
-0.0076155267 0.011290006 0.0115511855 -0.009830901 0.01440185 0.0014461909 -0.012156529 0.018116023
0.0013079307 0.020606166 -0.003604597 0.0038567097 0.009414514 -0.03370185 -0.0040297112 -0.00096923445
2.480237e-05 0.0028234974 -0.0237348 -0.009499504 0.001649802 -0.0014806334 0.005650664 -0.005742197
00000000: ec8f f73b 26e4 0d3c 0793 1ebc 173c 8fba
00000010: c58c 913c 3cc4 9c3c 9b3f 3cbc 6e0b 463c
00000020: 3499 673c 9bcf 6fbc e962 5ebb 4cf5 eebb
00000030: 2b17 2cbc b886 1a3b 8153 883c fdf1 ce3a
00000040: 5646 88bb ab47 083c 481e 12bc c416 5939
00000050: e9af 99bc 1d48 e53b 7414 d53b 8515 6dbb
00000060: 47fe 983c 7f60 8a3c b12d ebbb faf5 5fbc
00000070: 077b 093b 0e02 0a3c ab9b bd3b b4c5 233c
00000080: 5065 16bb 4b17 e8bb 2169 80bc 7f84 32bc
00000090: 1cf9 13bb f557 aa38 57d8 e6bc 58f7 c73c
000000a0: 96c4 bb3a 45a9 02bc 2423 43bc 4c2b 8fbc
000000b0: 048f c1bc f3da f4b7 f06b 583b bcfc 3fbb
000000c0: f6b5 fc3b 8b29 84ba 5d7b e63b d665 c13c
000000d0: cd37 da3b dff9 d3bb 41b2 80bc 9b1a e23b
000000e0: 4813 faba 8e5e ac3c ad3e 2f3a b990 733c
000000f0: 9007 54bb 4c00 39bc 5a93 2dbc fd32 8cba
00000100: 3066 16bc e8be f4bb ecb9 883a dd21 a93c
00000110: 8c1e c43c 84f4 8ebb 4d7f 2ebb dedc e8bb
00000120: 0c78 cebc 7031 b63c affd 2fbb 589b 98bb
00000130: 6436 c4ba 9c56 85bc 7695 6e3b c5a7 12bd
00000140: a74a de3b a2ee 013b 8e2f 29bc 7ded 123c
00000150: dffb 3c3c 1b71 a43b db0b 8c3c 2ccc 83bc
00000160: f5a0 113b 10d5 1e3c 7032 3c3c a8e3 8bbc
00000170: c36c d73c 2059 3cbc 009b 89bb 4cdd 253c
00000180: 794a 163c f9d6 89ba 0f86 863b 3cab 3ebc
00000190: a512 0a3b f88f a3bc b62f 10bc 0784 e2b9
000001a0: a75c b23b 4f8f 01bb 48be 8e3c 686f 693c
000001b0: 5481 9fbb 69b8 79bc fced 72bb 0c34 d93a
000001c0: 112b 783a 1d8b 20bc c273 2a3b 0028 f43c
000001d0: a74e 1b3c 3ec7 a3bc 3490 42bd 1792 bcbb
000001e0: b995 c93a bbdc 14bc 4abb c6bb 2a62 06bc
000001f0: a8c9 b1bb 1b29 1f3d a219 e83c 0419 ec3a
00000200: fe1d c9bb 8376 923b a13f ad39 a162 bf3a
00000210: 881d a9ba d3ac 80bb 1b8e 373b 23d2 babb
00000220: f796 08bc a638 6d3c d520 33bc e38b 943c
00000230: 1ba8 8bbb 9faf b9ba 2d9c bbbc f5b4 7bbc
00000240: aa4a b23a 99ca c4ba 34ac 473b 2fed f83b
00000250: 44ac a2bc 447e 35bc 7c34 7a3b 9940 54bb
00000260: 8f7d 473b ab88 4ebb 8284 553c 4ba8 c93c
00000270: 50a2 893b cfb9 91b9 0fbb 3f3c 9947 a5bb
00000280: 95ec 013b a3f6 cfbb 2c54 9dbb bd49 0c3c
00000290: 821d 2e3b d75d 253c 81a1 593c 01ad 7ebc
000002a0: e3c0 9ebb b842 183c 86cb 78bc 068c 503b
000002b0: 984d 423b 12cf a93a 0ee8 96ba d4ae 1f3c
000002c0: 2fc8 60bc 3213 883b cb90 afbc 932a b13c
000002d0: 0ce4 10bb 3c62 193c 286b b0bc 970f d9b8
000002e0: 2cea 703c 2e3a 29bb 5883 83bc 1591 9e3b
000002f0: 6162 a2bb af8e cd3b 5c50 473c 20f8 1fbc
00000300: 85ee 123c bdfc bdba 1ac2 6b3b 8543 b83c
00000310: 3abe 8ebc 09ca 843c 5762 edba 03d7 b6bb
00000320: 21b8 d7bb affc ebba 070e 353c 2c36 debb
00000330: 6eff 5e3c 364b 963b 519d 76bc fbbf ef3b
00000340: d71a fbbb 8adc 86bc e1a3 3a3b e289 023b
00000350: b950 66bb cb1a 0e3c 2749 ab3b 1deb 8d3b
00000360: aff0 e43b baa9 2b3a 01e3 853b fb35 a03c
00000370: 01c8 42bc 80d3 9f3c 8ed4 c6bc 40b1 3a3a
00000380: 57b1 5fbc 12cc 063c 00c8 983b 6536 82bb
00000390: 816b 263c f120 a53c 62ed b6bc c019 523c
000003a0: ab8b f9bb b8f9 383c 2f41 3d3c ca11 21bc
000003b0: bdf5 6b3c 1d8e bd3a 2e2c 47bc 0e68 943c
000003c0: df6e ab3a 43ce a83c 1a3b 6cbb dac0 7c3b
000003d0: 553f 1a3c f30a 0abd ab0b 84bb 3914 7eba
000003e0: af0e d037 6d0a 393b 7c6f c2bc cfa3 1bbc
000003f0: 2b3e d83a d011 c2ba 3529 b93b 0a29 bcbb
