prompt_sliders/models/ageslider/learned_embeds-steps-2000.safetensors (safetensors, 3184 bytes, 1 tensors)

<weather-ti> f4 [1, 768]
000000 de 87 ad bc 9a 30 4b 3a aa d0 9a bc 25 a6 80 3c
       -0.02118295 0.00077510776 -0.018898327 0.015704224
000010 04 7c 22 3d 8b ab ac 3b be 2a f6 bb d3 0a 45 3c
       0.03966905 0.005269473 -0.0075124195 0.0120265065
000020 64 43 e5 3c 6e 0b 50 bb 31 69 0a 3c c7 2c 07 bd
       0.027986236 -0.0031745094 0.008447931 -0.033001687
000030 93 91 28 bc 33 a4 73 bc a6 7f 06 3d 2f b6 b3 bc
       -0.010288614 -0.014870691 0.03283658 -0.021937458
000040 17 42 3e 3c 47 3f 20 3c b7 34 c0 bc 93 85 68 3c
       0.011612437 0.0097807115 -0.023462636 0.014192003
000050 de 4c 37 bc 02 d9 e7 bb 23 fb 91 3c 02 fd 7f 3c
       -0.01118776 -0.00707543 0.017819947 0.015624287
000060 69 d8 90 bb 75 81 dc 3c d3 2c 9d bc 4b ee f8 3b
       -0.0044203294 0.026917199 -0.019186413 0.007596766
000070 c3 1e ec bc 98 20 85 bc 6b cb d7 3b 27 63 97 ba
       -0.028823262 -0.016250893 0.0065855286 -0.0011549935
000080 8a c9 64 bb c4 8d 98 bb 28 ab fc bc da 4a 5d bc
       -0.0034910166 -0.0046555717 -0.030843332 -0.013506616
000090 26 10 12 3d fd 01 22 bc 9d 52 12 bd c9 6c 11 3c
       0.03565993 -0.009888169 -0.035723317 0.008876034
0000a0 c1 a7 b4 ba 33 29 05 bd 00 cd da 3a 51 6c b0 3c
       -0.0013782905 -0.032509994 0.0016693175 0.021536024
0000b0 2c 64 10 bd 98 42 c7 bc 7b a9 f6 3c 04 2f 97 3b
       -0.03525178 -0.024323747 0.030110111 0.004613759
0000c0 85 48 57 3c 78 9f 2f bc 37 d2 48 bc e6 9b d5 3c
       0.013139849 -0.010719173 -0.01225715 0.026075315
0000d0 66 5b 11 39 dd c1 fc bb e1 03 e1 bc 45 17 5a 3b
       0.00013862326 -0.00771354 -0.02746767 0.003327803
0000e0 9c 47 23 3b 10 13 8c 3c e9 65 08 bd 57 ca 70 ba
       0.0024914509 0.017098933 -0.033300314 -0.00091854244
0000f0 c1 36 16 3c 85 a9 15 bd cc f7 08 bc 3b e6 84 bc
       0.009168328 -0.03653862 -0.008359861 -0.016223064
000100 66 73 1e bc f7 0d 35 bb 9f be 8f bb 08 bd a6 bb
       -0.009671068 -0.0027626732 -0.0043867375 -0.0050884522
000110 1a 04 1e 3c 8f 9b f3 bc 37 03 86 3c e0 0e 82 bb
       0.009644533 -0.029737262 0.016358955 -0.0039690584
000120 aa 7e 24 bd dc 13 38 bc c7 96 34 3c b8 e4 ba b9
       -0.04015986 -0.011235204 0.011022276 -0.00035647093
000130 00 ce 08 bc ff d1 1c bb 9d 68 c4 bc b6 43 00 bd
       -0.0083498955 -0.0023928878 -0.023975665 -0.031314574
000140 e2 9d 39 3c 39 88 13 3b 75 f9 0f bc 81 f7 da 3c
       0.011329146 0.0022511615 -0.008787503 0.026729347
000150 17 ff 7e 3c f5 c3 fc bc a9 89 58 3c d2 ab 94 bc
       0.015563748 -0.030855158 0.0132164145 -0.018148337
000160 b1 93 b3 3c 9e 73 e2 bc 9e 01 64 3c 9c cf 4e bc
       0.02192101 -0.027643021 0.013916401 -0.01262274
000170 91 c1 c9 3c aa f0 02 bd 14 49 cc bc 67 0f 9c bb
       0.024628432 -0.031967796 -0.02493719 -0.0047625783
000180 3f a6 d7 bc 1c 87 0b 3c bb f3 4e bb ec 59 07 bd
       -0.02632439 0.008516099 -0.003157838 -0.03304474
000190 42 82 0a 3c 5e f5 61 bc b7 2b 84 3b 83 33 3e bc
       0.008453907 -0.01379141 0.0040335315 -0.011608961
0001a0 46 f6 c3 b9 f0 53 df bb 15 97 d7 3c fe f0 71 3c
       -0.00037376786 -0.006815426 0.026317159 0.01476693
0001b0 c1 af 09 bc 2f cf 8c bc 6e 2f 48 39 99 20 b6 ba
       -0.008403719 -0.017188637 0.00019091155 -0.0013895213
0001c0 d2 cb c0 bc a9 be 4c bc 00 ef e4 3c c8 ed 3b 3c
       -0.02353469 -0.012496629 0.027945995 0.011470266
0001d0 8e fb 4a 3d 0e 23 94 bc f1 c3 f9 bc 31 b5 25 3c
       0.049556307 -0.018083122 -0.03048894 0.010114
0001e0 42 7b c5 3b 30 55 4d bb 6e 32 8a 3c 49 5a 3f 3a
       0.0060266564 -0.0031331293 0.01686975 0.00072995253
0001f0 e1 7f 9d bc cb b9 b9 3c 8e ba 48 3c 57 f7 a8 bb
       -0.019226016 0.0226716 0.012251509 -0.0051564383
000200 62 90 9a 3b 5f 41 52 3b 9e 53 e2 bb c1 1a ec 3a
       0.004716919 0.0032082421 -0.0069069406 0.0018013344
000210 3e 51 9a 3c 58 8d cd 3c 72 8b ae 3c 18 e1 30 bb
       0.018837567 0.025091812 0.021306727 -0.0026989635
000220 00 a0 14 bd 11 b3 cd 3b ba 55 e8 3b 92 66 cd 3b
       -0.0362854 0.00627745 0.0070902975 0.006268331
000230 b9 29 b8 bb 4a b7 f2 3b 70 b7 6c 3c 90 87 56 bc
       -0.005620208 0.0074071037 0.014448032 -0.013093844
000240 fc a2 b2 bb d8 63 ab 3b 8f 4c 74 bc 4d 0e 34 3d
       -0.005451558 0.005230408 -0.014910831 0.04395895
000250 5f d7 3d 39 36 06 1d bc c1 db 8b bc 6b 4f 7b bb
       0.00018104677 -0.009584 -0.01707256 -0.0038346897
000260 4f 83 2f bc 6c fa 4f 3b df 38 bf 3a d6 d0 ff 3c
       -0.010712459 0.0031734956 0.0014589092 0.03122751
000270 5a b9 ff 3c fb a7 00 3b b9 fb 07 3d 1b e7 4b 3c
       0.031216312 0.0019631374 0.033199046 0.012445237
000280 d5 20 e2 bc 00 f0 3d bd b9 ec cc bb f6 d7 8a bb
       -0.027603546 -0.04637146 -0.0062538055 -0.0042371703
000290 e6 08 a2 bc 2b 33 b1 3c 6e 5b 1c bd fd 76 01 3c
       -0.019779634 0.021630844 -0.03817313 0.007901904
0002a0 16 07 9e 3c 82 1f ba bb 2e 2d 96 bc fe c4 ae bb
       0.019290488 -0.0056800256 -0.01833209 -0.005333542
0002b0 08 4f 0a 3c 18 1b 22 3d ad 06 10 bb e2 b5 d5 3c
       0.008441694 0.03957662 -0.0021976635 0.026087705
0002c0 9a 84 5c bc 13 cd 62 bb 5d b7 8c bc f2 33 8b 3c
       -0.013459349 -0.0034607097 -0.017177278 0.016992543
0002d0 62 24 78 bb d0 73 10 bc 29 e3 fe 3a ca 1c 74 bc
       -0.0037863483 -0.008816674 0.0019446361 -0.014899442
0002e0 af 5c a3 bc fc 25 6b bb 03 52 4b bc 33 68 5a 3c
       -0.019941656 -0.0035880795 -0.01240969 0.013330507
0002f0 2d a6 dd 3b e0 7d 12 3c b7 eb 1b 3d 78 61 a0 bc
       0.0067641945 0.008941144 0.038066592 -0.019577727
000300 7a 86 18 3c 93 2a 03 3b e2 c0 d4 3c 77 8e 90 3c
       0.009309405 0.002001439 0.02597088 0.017646058
000310 71 4f c4 bc 83 b0 8a 3c 81 14 cf 3c d3 86 98 bb
       -0.023963662 0.01692987 0.025278332 -0.004654744
000320 89 b9 37 bc e1 11 39 bb 5f 71 bc bb 78 4e 6a 37
       -0.011213669 -0.0028239416 -0.0057508196 1.3965757e-05
000330 a8 70 a5 3c 42 34 69 3c 8d f9 0a bc e7 7e d9 3c
       0.02019532 0.014233651 -0.008482349 0.02654977
000340 a2 5d 15 bd 67 95 0a bc 90 39 88 3b 28 c0 3e 3c
       -0.03646625 -0.008458472 0.0041572526 0.011642493
000350 ad e8 94 3c 73 33 7c 3c 2d 2a 85 bb c2 09 44 bc
       0.018177355 0.015393126 -0.0040638656 -0.011965217
000360 12 12 01 bc 58 a2 0d 39 17 b9 85 bc 0b 96 89 bc
       -0.007877843 0.00013507286 -0.01632361 -0.016795179
000370 02 96 e7 bb 51 93 f5 3b d5 c5 f6 bb 21 fa 85 3c
       -0.007067443 0.007494368 -0.0075309076 0.016354622
000380 02 9c 09 bd 7b bf 5c 3b 1d f3 d0 3a 89 bc c8 bb
       -0.033596046 0.0033683467 0.0015941594 -0.0061259908
000390 63 5f 2d 3d 3f 52 4e 3c 63 c1 f4 bc f7 71 5b 3a
       0.042327296 0.012592851 -0.02987737 0.0008371169
0003a0 8d 29 34 3c 2a 64 b4 3c 53 25 1e bb d4 d3 0d bd
       0.010996235 0.022020418 -0.0024131134 -0.034625843
0003b0 36 49 c1 3c b1 94 21 bb 80 26 c9 ba 1c 3f d7 3c
       0.02359448 -0.0024655277 -0.0015346557 0.02627521
0003c0 f5 5a ae 3b f4 97 3a 3c 81 0c cd 3c ba 8d 2b 3d
       0.0053209015 0.0113887675 0.025030376 0.041883208
0003d0 79 96 0a 3d d1 d4 da bc 64 59 4d 3c 68 94 a5 bc
       0.03383491 -0.026712807 0.012533519 -0.020212367
0003e0 2f f1 2b 3d 38 39 62 3b bf 46 93 bc 02 f1 87 bc
       0.041978057 0.0034518968 -0.01797807 -0.016594414
0003f0 78 b5 87 3c bf de a4 bc 2e 78 a0 3b 76 e3 fd 3b
       0.016566023 -0.020125745 0.004897139 0.0077480627
