prompt_sliders/models/skyslider_xl/learned_embeds-steps-2000.safetensors (safetensors, 3184 bytes, 1 tensors)

<sky-ti> f4 [1, 768]
0.0016410521 0.015639223 -0.010251213 0.029663764 0.021191271 0.030996012 -0.022321487 0.047821566
-0.016834302 0.017165476 -0.016762203 -0.013554794 -0.0045144665 -0.045943808 -0.029982798 -0.020265682
-0.0018832048 -0.036368854 0.016489891 0.05817628 0.042639565 0.014894802 -0.023702888 -0.0044619837
0.012602576 0.009024287 -0.034105033 -0.0005219607 -0.008533938 0.022569675 0.0136132045 0.0053124665
0.034295376 0.006115713 0.045504868 0.022754563 0.002654565 -0.0011250835 -0.030948343 -0.035530046
0.013427326 -0.0006407896 -0.016513968 -0.019025655 0.009674518 -0.031650256 0.007282289 -0.010849108
0.01389095 -0.017057238 0.026692038 0.029512765 0.003247717 0.010935294 0.01208415 -0.0065156915
0.028642545 -0.006045852 0.02271828 0.0016386105 0.017227124 -0.02435907 0.0092044175 0.017804984
-0.0604446 0.015491354 0.02004767 0.023959009 -0.0011840748 -0.029978663 0.0017462422 -0.0043802042
-0.06363986 -0.010194589 0.0067922203 -0.014888802 0.026351018 0.01580013 0.013944657 -0.0049899276
-0.009081961 0.008196108 0.00789437 0.007952632 0.0020918094 -0.013573039 -0.009465832 -0.027234694
-0.023718009 0.013505876 -0.011606511 -0.034556195 -0.036687307 0.0076417495 -0.022034885 0.021297248
0.024300085 -0.00011691094 -0.033384707 -0.027157625 -0.022267977 -0.039170906 -0.028663943 0.020298213
0.027333148 -0.009054114 0.04067489 -0.041424308 -0.017415045 0.03026307 0.026199259 -0.01219548
0.014242953 -0.010494379 -0.021969287 0.011416891 -0.012624276 0.035016105 0.0042168386 0.0070756916
0.031854343 0.008025456 0.02925356 0.012837006 0.011040917 -0.024401557 0.0121708745 0.03694915
-0.021267608 -0.0047817626 -0.008669723 0.07839204 0.004944986 -0.016728282 0.016367748 0.017157193
0.0033130415 0.0064357263 0.013613175 0.009226987 -0.02303242 -0.002370891 -0.013891133 -0.0085639255
-0.051539987 -0.009949611 -0.00068478886 0.017658949 0.0049260445 -0.02383384 0.0071876105 -0.011794677
0.011872659 -0.0059798583 -0.026018657 -0.01988826 -0.0018640327 0.017415348 -0.023201983 0.032546412
-0.019961745 -0.0050366386 0.011281539 -0.00078411377 -0.0017694774 -0.0395933 -0.05860005 0.011542398
-0.0048622955 -0.0056910794 -0.009055971 -0.0077206027 -0.018158784 0.029132841 0.0002544897 0.011326224
-0.008046925 0.011531947 0.0072632777 -0.029415144 -0.0018721981 0.02570885 -0.01899759 -0.010995785
-0.011104027 -0.032379415 0.0418421 -0.028766189 0.02167701 -0.013607573 0.0058004004 0.017150147
-0.013440261 0.0031891004 0.016581755 0.041139305 0.0047740154 -0.018829271 0.00353927 0.05052683
-0.036033858 -0.0112795895 -0.0036525677 0.017173324 0.014533641 -0.025081607 -0.044345107 -0.00029127134
0.012001554 -0.030186852 0.0074298684 0.0038577456 0.0059354156 0.02441924 0.03688982 0.012740865
-0.019991713 0.0077929846 0.020138409 -0.01951427 0.019102426 0.00045521502 -0.024511827 0.044540823
0.009925297 0.02009706 -0.0019220591 0.024614176 0.023229728 0.007559711 -0.0031784684 -0.00017786642
-0.008954012 0.050523218 -0.025004335 0.0021241002 -0.00657854 0.0044815578 0.007358057 -0.020219125
-0.029809842 0.0063768085 -0.014120376 -0.020791123 0.031188564 -0.01777751 0.04417502 -0.0013591481
0.050829083 0.01716231 -0.022532193 -0.024337135 -0.02308515 -0.011923601 0.009423858 0.024450593
00000000: 9218 d73a d41d 803c b4f4 27bc 6c01 f33c
00000010: 5199 ad3c 59eb fd3c 8ddb b6bc 8ce0 433d
00000020: 17e8 89bc 9d9e 8c3c e350 89bc ed14 5ebc
00000030: 17ee 93bb 932f 3cbd 7c9e f5bc 3704 a6bc
00000040: ded5 f6ba 82f7 14bd cf15 873c 404a 6e3d
00000050: d3a6 2e3d 5409 743c 8f2c c2bc d535 92bb
00000060: 097b 4e3c 9ada 133c b8b1 0bbd 31d4 08ba
00000070: eed1 0bbc 0ae4 b83c eb09 5f3c 3314 ae3b
00000080: 4f79 0c3d 5266 c83b 5063 3a3d c767 ba3c
00000090: 36f8 2d3b 8a77 93ba 6187 fdbc f487 11bd
000000a0: 4afe 5b3c aafa 27ba 4d48 87bc b1db 9bbc
000000b0: df81 1e3c b3a3 01bd 45a0 ee3b 75c0 31bc
000000c0: de96 633c 9fbb 8bbc 43a9 da3c c1c4 f13c
000000d0: a6d7 543b f329 333c 99fc 453c 9581 d5bb
000000e0: c5a3 ea3c 481c c6bb b01b ba3c a5c6 d63a
000000f0: e61f 8d3c ac8c c7bc 20ce 163c c2db 913c
00000100: c294 77bd 73cf 7d3c 033b a43c af45 c43c
00000110: f532 9bba d095 f5bc 2ae2 e43a d187 8fbb
00000120: 9d55 82bd 3507 27bc 4691 de3b 29f0 73bc
00000130: 17de d73c 466f 813c 2178 643c 8c82 a3bb
00000140: 81cc 14bc f848 063c 6357 013c c24b 023c
00000150: bd16 093b 7461 5ebc 9416 1bbc 4b1b dfbc
00000160: 454c c2bc c047 5d3c 3c29 3ebc cc8a 0dbd
00000170: 6e45 16bd a467 fa3b 8182 b4bc 9177 ae3c
00000180: f910 c73c 152e f5b8 67be 08bd ab79 debc
00000190: 556b b6bc ac71 20bd a5d0 eabc 7048 a63c
000001a0: c4e9 df3c b557 14bc b79a 263d 89ac 29bd
000001b0: ffa9 8ebc 42ea f73c d49f d63c 8dcf 47bc
000001c0: 465b 693c 9ef0 2bbc eff8 b3bc e90d 3b3c
000001d0: 0dd6 4ebc 0c6d 0f3d 682d 8a3b 34db e73b
000001e0: b379 023d 347d 033c 29a5 ef3c 4e52 523c
000001f0: f6e4 343c c6e5 c7bc 5968 473c fe57 173d
00000200: 6839 aebc 55b0 9cbb 740b 0ebc 028c a03d
00000210: 8d09 a23b c009 89bc a815 863c 3e8d 8c3c
00000220: 9d1f 593b c9e2 d23b cb09 5f3c ca2c 173c
00000230: 7cae bcbc f360 1bbb a297 63bc b54f 0cbc
00000240: 981b 53bd b103 23bc 6783 33ba 80a9 903c
00000250: a86a a13b 2f3f c3bc 0c86 eb3b 763e 41bc
00000260: 8b85 423c b0f2 c3bb 1425 d5bc b4ec a2bc
00000270: 8f52 f4ba a2aa 8e3c 1612 bebc 634f 053d
00000280: d086 a3bc 630a a5bb 34d6 383c fc8c 4dba
00000290: cfed e7ba 962c 22bd 9b06 70bd 531c 3d3c
000002a0: e453 9fbb 3c7c babb 7f5f 14bc 1cfd fcbb
000002b0: bbc1 94bc ffa7 ee3c 086d 8539 a091 393c
000002c0: 40d7 03bc 7ef0 3c3c ca00 ee3b 07f8 f0bc
000002d0: 8b64 f5ba 5e9b d23c d5a0 9bbc aa27 34bc
000002e0: aaed 35bc 47a0 04bd 9f62 2b3d 12a7 ebbc
000002f0: fc93 b13c 4cf2 5ebc 4911 be3b 777e 8c3c
00000300: 8a34 5cbc 3a00 513b 76d6 873c b081 283d
00000310: 586f 9c3b d83f 9abc 19f3 673b 39f5 4e3d
00000320: 3d98 13bd 07ce 38bc eb5f 6fbb 12af 8c3c
00000330: 821e 6e3c f177 cdbc 37a3 35bd c7b5 98b9
00000340: 2aa2 443c 6b4a f7bc 4176 f33b 3bd2 7c3b
00000350: e07d c23b dc0a c83c c819 173d 10bf 503c
00000360: a9c5 a3bc 4b5c ff3b 4ef9 a43c 64dc 9fbc
00000370: b17c 9c3c eda9 ee39 07cd c8bc 7070 363d
00000380: b79d 223c 97a2 a43c 9aed fbba aba3 c93c
00000390: 454c be3c 74b7 f73b da4d 50bb a781 3ab9
000003a0: d9b3 12bc 6ff1 4e3d e4d5 ccbc 7d34 0b3b
000003b0: cb90 d7bb 08da 923b db1b f13b 94a2 a5bc
000003c0: c533 f4bc 8cf4 d03b 2659 67bc 2552 aabc
000003d0: 297f ff3c 24a2 91bc def0 343d 7125 b2ba
000003e0: 2832 503d f997 8c3c 6f95 b8bc ac5e c7bc
000003f0: 121d bdbc 355b 43bc 8666 1a3c 9c4c c83c
