prompt_sliders/models/personaslider_xl/learned_embeds.safetensors (safetensors, 3184 bytes, 1 tensors)

<person-ti> f4 [1, 768]
0.010793774 0.007268311 -0.0027198794 -0.067839235 0.053541593 0.026621586 -0.022930427 -0.0020676502
-0.04434278 -0.05561701 -0.003369768 -0.026751265 0.038675018 0.023458717 0.014638967 -0.0019071803
-0.014040189 0.010791833 -0.014193121 -0.006118626 0.03318208 -0.024573782 0.058981158 -0.045224503
-0.015700197 -0.0108563 -0.009737135 0.016313892 -0.000425827 -0.030223325 -0.0012625268 -0.0019831639
-2.881311e-05 0.002586611 0.0076371343 0.11006215 0.019599324 -0.0045370134 0.036985543 0.0063030436
-0.010211623 0.014930939 -0.015077847 -0.03875447 0.047799956 -0.0035945408 0.04329244 -0.011657847
-0.04450849 -0.023560291 -0.025379708 0.04412655 -0.010964382 0.026622567 -0.01367318 0.03730046
-0.02346711 -0.019428004 -0.010601176 -0.0052284664 -0.017196152 0.0657744 -0.0059442674 -0.03485383
-0.00826203 -0.026598772 0.026384557 -0.011934197 -0.016002849 0.026612215 -0.005604119 -0.0068590357
-0.0008517797 -0.024741156 -0.023822479 0.008516238 -0.0015294128 -0.0065963017 0.013950985 -0.04112652
-0.05392184 0.05831879 -0.013980924 -0.0034637032 0.013559532 0.02989225 -0.02609615 0.0012342337
0.016624602 -0.029999655 0.022340141 0.049523365 -0.016143866 -0.022835443 -0.021177677 -0.011656706
-0.04864498 -0.0024799826 0.027809309 -0.010319444 -0.015628865 0.005623716 -0.030389527 -0.009805851
-0.044654306 -0.025837494 -0.012144359 0.004282846 -0.038186505 0.0011875519 -0.014111066 -0.05108183
-0.018042922 0.010433882 -0.009083817 0.030393962 -0.010611173 8.591169e-05 0.021228304 0.0071973964
0.02568296 0.0117208 0.0069325403 0.06202011 0.007902393 -0.021009168 0.06939109 0.03846532
-0.028537357 0.006329865 0.012015268 0.02634882 0.021442203 0.0017469221 -0.041043263 -0.029855859
0.022961235 0.034500174 -0.005672682 0.012992988 0.009070808 -0.03018168 -0.014634591 -0.0058794613
0.007148755 0.014787566 0.012206822 0.01163026 0.023685576 -0.04507758 -0.013241413 0.013539564
0.017418714 0.03145949 0.013701027 -0.007743316 -0.03184937 -0.022142608 -0.034367394 -0.033332784
-0.04671886 0.064947 0.055081006 0.009016172 0.03134324 0.0018543187 -0.011734509 0.0066465484
-0.03243501 0.045934044 -0.022229418 0.026987808 -0.057809625 -0.0064105764 0.044464275 0.022857832
-0.017621227 -0.015164653 0.031901043 0.013300959 -0.029419975 0.029314818 -0.020262899 0.0117628565
-0.09075402 -0.013056114 0.036868963 -0.014444732 0.013720478 0.030541908 -0.024377082 0.010721669
-0.07856774 -0.058093864 0.018885737 0.010344138 0.024913315 -0.0072679687 0.023316896 -0.050082285
0.06108596 -0.0016224246 -0.0067732744 0.013706724 0.028530452 -0.012683983 0.031340994 -0.024403999
0.033950508 0.032984048 0.023130152 0.03538939 -0.06711751 0.0552717 -0.023748826 -0.030976823
-0.020690303 0.019038297 0.005457282 0.019045884 0.046649106 -0.021232365 -0.03150542 -0.011684609
-0.013613648 -0.0076378593 0.060228273 -0.0034035833 -0.017086081 -0.015151453 0.041961756 0.0148128
0.010376786 0.051189672 0.01957962 0.02924887 -0.02881084 -0.010924769 0.0161869 0.07075569
0.036515735 -0.012080413 -0.04169584 -0.029237328 0.022336556 0.018745048 -0.0020007188 0.0020077666
0.06221692 0.060855266 -0.033202436 0.018871762 -0.015432633 -0.013292789 -0.031634063 0.058595896
00000000: 5fd8 303c 032b ee3b 0140 32bb 4cef 8abd
00000010: 6e4e 5b3d 8315 da3c 97d8 bbbc 6a81 07bb
00000020: c6a0 35bd a9ce 63bd 53d7 5cbb 7825 dbbc
00000030: b269 1e3d 7f2c c03c 47d8 6f3c 5afa f9ba
00000040: d208 66bc 3ad0 303c 448a 68bc c17e c8bb
00000050: efe9 073d f54e c9bc 3a96 713d 543d 39bd
00000060: b39d 80bc 9fde 31bc 8188 1fbc b6a4 853c
00000070: 8841 dfb9 e896 f7bc 5f7b a5ba f8f7 01bb
00000080: afb3 f1b7 2284 293b ed40 fa3b 4468 e13d
00000090: c38e a03c 3aab 94bb 277e 173d c389 ce3b
000000a0: a74e 27bc e6a0 743c 1309 77bc 02bd 1ebd
000000b0: e3c9 433d 6392 6bbb 6a53 313d 8e00 3fbc
000000c0: 894e 36bd 8301 c1bc 1be9 cfbc 0bbe 343d
000000d0: f4a3 33bc 9217 da3c 7905 60bc 5ec8 183d
000000e0: 193e c0bc 7a27 9fbc 8eb0 2dbc 8e53 abbb
000000f0: f2de 8cbc bbb4 863d 21c8 c2bb e4c2 0ebd
00000100: 775d 07bc abe5 d9bc 6d24 d83c a687 43bc
00000110: 6818 83bc dc01 da3c c2a2 b7bb c3c1 e0bb
00000120: f849 5fba f7ad cabc 5c27 c3bc b187 0b3c
00000130: 9476 c8ba ca25 d8bb ac92 643c 4874 28bd
00000140: 26dd 5cbd afdf 6e3d 3f10 65bc 4cff 62bb
00000150: cd28 5e3c 98e0 f43c 98c7 d5bc 03c6 a13a
00000160: 5130 883c d6c1 f5bc ac02 b73c 03d9 4a3d
00000170: 2440 84bc 6511 bbbc cf7c adbc c5fb 3ebc
00000180: f53f 47bd 3487 22bb 59d0 e33c e312 29bc
00000190: 1b08 80bc 2647 b83b 75f3 f8bc b8a8 20bc
000001a0: 6fe7 36bd 27a9 d3bc 22f9 46bc 1e57 8c3b
000001b0: 7469 1cbd a1a7 9b3a 1a32 67bc 2e3b 51bd
000001c0: c0ce 93bc dff2 2a3c 4ad4 14bc c2fc f83c
000001d0: 7cda 2dbc 7d2b b438 fbe6 ad3c 23d8 eb3b
000001e0: 1265 d23c 9908 403c 5d2a e33b cd08 7e3d
000001f0: 0a79 013c 6b1b acbc ea1c 8e3d d08d 1d3d
00000200: 2dc7 e9bc c26a cf3b b0db 443c 7bd9 d73c
00000210: 8fa7 af3c fbf8 e43a fb1c 28bd 4694 f4bc
00000220: 3319 bc3c 0e50 0d3d e8e1 b9bb 8be0 543c
00000230: ba9d 143c 923f f7bc ecc5 6fbc 7fa8 c0bb
00000240: 1a40 ea3b 8c47 723c 1fff 473c d98c 3e3c
00000250: 4108 c23c 45a3 38bd 83f2 58bc 0cd5 5d3c
00000260: b1b1 8e3c abdb 003d 467a 603c a4bb fdbb
00000270: 7c74 02bd 6a64 b5bc d3c4 0cbd f587 08bd
00000280: 465c 3fbd ef02 853d 9f9c 613d 91b8 133c
00000290: c561 003d 9c0c f33a 1942 40bc 4acb d93b
000002a0: 93da 04bd 5625 3c3d 781a b6bc 8915 dd3c
000002b0: c9c9 6cbd d00f d2bb 2c20 363d 5940 bb3c
000002c0: 645a 90bc 2a75 78bc abaa 023d 44ec 593c
000002d0: 2902 f1bc a125 f03c 61fe a5bc ffb8 403c
000002e0: 3edd b9bd 50e9 55bc e903 173d 99a9 6cbc
000002f0: dbcb 603c 0633 fa3c 72b2 c7bc f0a9 2f3c
00000300: 20e8 a0bd d5f3 6dbd 43b6 9a3c 767a 293c
00000310: 0217 cc3c 2428 eebb 1303 bf3c 1523 4dbd
00000320: 4635 7a3d 89a7 d4ba 58f2 ddbb 2b92 603c
00000330: b2b8 e93c 7bd0 4fbc 6a5f 003d e5ea c7bc
00000340: b00f 0b3d 481a 073d 727b bd3c 77f4 103d
00000350: e874 89bd 9464 623d e68c c2bc 1bc3 fdbc
00000360: b67e a9bc 34f6 9b3c 00d3 b23b 1d06 9c3c
00000370: 2213 3f3d 7fef adbc d40b 01bd cd70 3fbc
00000380: c70b 5fbc 0247 fabb ecb1 763d a70e 5fbb
00000390: 1cf8 8bbc cd3d 78bc 17e0 2b3d 63b1 723c
000003a0: 6503 2a3c 43ac 513d 7065 a03c 549b ef3c
000003b0: b604 ecbc cdfd 32bc 649a 843c 5ce8 903d
000003c0: 8691 153d edec 45bc 42c9 2abd 1f83 efbc
000003d0: 27fb b63c 378f 993c 7e1e 03bb bc94 033b
000003e0: 2bd7 7e3d 5f43 793d 47ff 07bd f498 9a3c
000003f0: 28d9 7cbc 00ca 59bc b892 01bd 4002 703d
