prompt_sliders/models/personaslider_xl/learned_embeds-steps-1000.safetensors (safetensors, 3184 bytes, 1 tensors)

<person-ti> f4 [1, 768]
0	0x3c1aca73	0.009447682
1	0x3c3e6242	0.011620106
2	0xbc9e5be7	-0.019330932
3	0xbd05fd09	-0.032712016
4	0x3d23227b	0.039827805
5	0x3c558451	0.013032035
6	0xbcc8cab2	-0.024510715
7	0xbbe8051e	-0.007080688
8	0xbd06f68f	-0.03294998
9	0xbd6cf020	-0.05784619
10	0x3c50aab8	0.012736015
11	0xbbc7652e	-0.0060850596
12	0x3ceaced4	0.028663076
13	0x3d06c80a	0.032905616
14	0x3c2f5146	0.010700529
15	0xbb1fb2a6	-0.0024367957
16	0xbc23e2da	-0.010002816
17	0x3bde4bfc	0.0067839604
18	0xbc594425	-0.013260876
19	0x3bce4919	0.006295335
20	0x3ccf6131	0.0253149
21	0xbc926e1b	-0.017874768
22	0x3d48b9b3	0.04900522
23	0xbcf38024	-0.029724188
24	0xbbb0e147	-0.005397949
25	0x3b3cd4c5	0.0028813344
26	0xbbd10edf	-0.0063799466
27	0x3cbce080	0.023056269
28	0xba047e83	-0.0005054252
29	0xbb13c4b7	-0.002254767
30	0xbc94b7eb	-0.018154105
31	0x3a829a22	0.0009964148
32	0xbb9b98b1	-0.004748427
33	0x3b36dc02	0.002790213
34	0x3bc46250	0.005993165
35	0x3d39802f	0.04528826
36	0x3ba23994	0.0049507115
37	0xbb9f4e81	-0.0048616533
38	0x3cd57427	0.026056362
39	0xbb3ee500	-0.0029128194
40	0xbbce0eae	-0.006288371
41	0x3cfd97d4	0.030956186
42	0xbbd5d928	-0.006526131
43	0xbd50f8f8	-0.051018685
44	0x3d067d9b	0.03283463
45	0xbca28791	-0.019840034
46	0x3cdc0a8f	0.026860503
47	0xbc0ad58e	-0.008473767
48	0xbd1285ce	-0.035772137
49	0xbc7ce4fa	-0.015435452
50	0xbca6a795	-0.020343581
51	0x3c8d9ae3	0.01728577
52	0xbc95dc10	-0.01829341
53	0x3d240c4b	0.040050786
54	0xbcb0049a	-0.02148657
55	0x3cecb2c8	0.028893843
56	0xbcbca4c0	-0.023027778
57	0xbcbde1bd	-0.02317893
58	0xbb1d36fe	-0.0023989077
59	0xbc8392f5	-0.016061286
60	0xbc2efa9b	-0.010679866
61	0x3d7c7edd	0.061644424
62	0x3bbf07b4	0.0058297757
63	0xbd10c119	-0.035340402
64	0xbbcf7c6b	-0.0063319704
65	0xbd0998e5	-0.033593077
66	0x3cd96588	0.026537672
67	0x39914ea3	0.00027715144
68	0xbc61f946	-0.013792342
69	0x3cd04f93	0.025428569
70	0xbc95f07c	-0.018303148
71	0xbbeed1b5	-0.0072881826
72	0x3c1b84f4	0.009492148
73	0x3b3db0bf	0.002894446
74	0xbc7c38ca	-0.015394399
75	0x3cd2a808	0.02571489
76	0x3caecd1c	0.021338038
77	0x3ba095b3	0.004900658
78	0x3c414179	0.011795395
79	0xbcfbb37e	-0.030725237
80	0xbd16eb2f	-0.036845382
81	0x3d646f0f	0.055769976
82	0xbc7e4717	-0.015519879
83	0xbc5a9ae5	-0.013342594
84	0x3c8d3caa	0.017240841
85	0x3c830aad	0.015996302
86	0xbccda162	-0.025101367
87	0xbb1d51b7	-0.0024005005
88	0xbbdbb465	-0.0067048543
89	0xbbd3edce	-0.0064675575
90	0x3b57d77b	0.0032934833
91	0x3d45bf85	0.04827835
92	0xbc937283	-0.01799894
93	0xbbf6167e	-0.0075100055
94	0xbc99f3ee	-0.018793073
95	0xbc678c4d	-0.014132571
96	0xbd09da62	-0.03365553
97	0xbafa47f5	-0.0019094931
98	0x3d07616a	0.033051886
99	0xbc87086b	-0.016483506
100	0xbcd90ef1	-0.026496382
101	0x3ca18018	0.0197144
102	0xbcb51a0f	-0.022107152
103	0xbb1992f0	-0.002343353
104	0xbd02c2b9	-0.031923983
105	0xbc0be164	-0.008537624
106	0x3ac5ff01	0.0015105904
107	0xbb0d1767	-0.0021528841
108	0xbd184579	-0.03717563
109	0x3bac43e4	0.0052571166
110	0xbc8bd888	-0.017071024
111	0xbd6e5c59	-0.05819354
112	0xbd1cc0b0	-0.0382697
113	0xbc439e8d	-0.011939657
114	0xbbfdd998	-0.0077468865
115	0x3c368a3c	0.011141356
116	0xbb893c4b	-0.0041880957
117	0x3c1e6597	0.009667776
118	0x3ca376fa	0.019954193
119	0xbc1a8725	-0.009431635
120	0x3c916c50	0.017751843
121	0x3bf6273c	0.0075120013
122	0xbc3303a9	-0.010926166
123	0x3d6528d0	0.055947125
124	0xbc02c96b	-0.007982592
125	0xbc558496	-0.013032099
126	0x3caadb0a	0.0208564
127	0x3cefd2d6	0.02927534
128	0xbcab383a	-0.020900834
129	0x3c276c3c	0.010218676
130	0xbadefd62	-0.001701277
131	0x3cce04b3	0.025148725
132	0x3c59d9de	0.0132965725
133	0x3b57c2f4	0.0032922598
134	0xbd05ffc4	-0.03271462
135	0xbcefba0f	-0.029263524
136	0x3c5e02d1	0.013550476
137	0x3cc320bf	0.023819325
138	0xbbf62319	-0.007511508
139	0x3cb434d8	0.021997854
140	0x3c8c95a5	0.0171612
141	0xbc15a449	-0.009133407
142	0xbc8d435c	-0.017244034
143	0x3c90c49f	0.017671881
144	0x3be91128	0.007112641
145	0x3cb0dc0e	0.021589305
146	0x3c7c0c15	0.01538374
147	0xbb1f5f37	-0.0024318227
148	0x3bfbe52a	0.0076872306
149	0xbd3e0cf0	-0.046399057
150	0xbc3deec9	-0.011592575
151	0x3c28023d	0.01025444
152	0x3c86c965	0.016453454
153	0x3d19ff34	0.037596896
154	0x3c0df5b4	0.008664537
155	0xbb91a05d	-0.0044441656
156	0xbcabe12e	-0.020981397
157	0xbcb5d8db	-0.022198131
158	0xbcfee61b	-0.031115582
159	0xbd1ab90a	-0.037774123
160	0xbcb58dac	-0.022162281
161	0x3d9084e3	0.07056596
162	0x3d1e0a77	0.0385842
163	0x3c5d2478	0.013497464
164	0x3c92ac1f	0.01790434
165	0xbc221c61	-0.009894461
166	0xbc64f452	-0.013974266
167	0x3c1e4726	0.009660518
168	0xbcdc72f1	-0.026910277
169	0x3d0f12cb	0.03493003
170	0xbcaef9ca	-0.021359343
171	0x3cad413c	0.02114927
172	0xbceb6867	-0.028736306
173	0x3c60b81c	0.01371577
174	0x3d34084b	0.04395322
175	0x3c7967cc	0.015222501
176	0xbb20b3b9	-0.0024521186
177	0x3b6db2c9	0.0036269894
178	0x3ccaf803	0.024776464
179	0x3b4e6d92	0.0031498414
180	0xbb9e67c8	-0.004834149
181	0x3c6a647a	0.014306182
182	0xbc5ecb10	-0.013598219
183	0x3c9368c2	0.017994288
184	0xbd837975	-0.064196505
185	0xbc49fde0	-0.012328595
186	0x3c560af7	0.013064138
187	0x3a4f081f	0.00078976335
188	0x3c27d22a	0.010242978
189	0x3cb9f2f8	0.022698864
190	0xbcc0d567	-0.023539258
191	0x3c96d6db	0.018412998
192	0xbd64391a	-0.05571852
193	0xbd1f81fb	-0.03894232
194	0x3d2bd26c	0.04194872
195	0x3b56f609	0.0032800457
196	0x3c08fad1	0.008360581
197	0xbc5ccc10	-0.013476387
198	0x3c0327d7	0.008005104
199	0xbcdab67f	-0.026698349
200	0x3d60f045	0.05491664
201	0x3c7cee56	0.015437683
202	0xbc569541	-0.013097108
203	0x3c24d2e6	0.010060048
204	0x3d24dc7d	0.040249337
205	0xbc9707e6	-0.018436383
206	0x3b9aa763	0.004719661
207	0xbc90f6dc	-0.017695837
208	0x3c8bdbff	0.017072676
209	0x3ca36df2	0.019949887
210	0x3d0424be	0.032261603
211	0x3ca8b2c4	0.020593055
212	0xbd0af389	-0.03392366
213	0x3d433afa	0.047663666
214	0xbca4e1e6	-0.020127248
215	0xbd040598	-0.032231897
216	0xbc9404e6	-0.018068742
217	0x3ccd1d66	0.025038432
218	0xbc1c17ba	-0.009527141
219	0x3cb386f7	0.021914942
220	0x3cf888b2	0.030338619
221	0xbc54eadd	-0.012995449
222	0xbc34a5fc	-0.011025902
223	0x3babaa78	0.0052388273
224	0xbc128023	-0.008941683
225	0xbca7c91e	-0.020481642
226	0x3d416f70	0.047225416
227	0xbc3efdee	-0.011657221
228	0xbc6d31ce	-0.014477206
229	0xbc10cbe7	-0.008837677
230	0x3d2436df	0.04009139
231	0x3c1fd0a8	0.009754337
232	0xbaa93844	-0.0012910445
233	0x3cc9fa3f	0.02465546
234	0x3c655d12	0.0139992405
235	0x3d03705b	0.032089572
236	0xbd0e383a	-0.03472159
237	0xbcc73a80	-0.024319887
238	0x3b509b49	0.0031830838
239	0x3d51c31b	0.051211458
240	0x3cfbd2b1	0.030740114
241	0xbcd1398e	-0.02554014
242	0xbd67adf8	-0.056562394
243	0xbc8becb8	-0.01708065
244	0x39e08ec8	0.0004283099
245	0x3d24c787	0.040229347
246	0x3c43fdae	0.011962337
247	0x3c482ea6	0.012218153
248	0x3d22e0f7	0.039765324
249	0x3d16b7de	0.036796443
250	0xbd3393b8	-0.043842047
251	0x3c66baf3	0.014082658
252	0x3b1ee0da	0.0024242909
253	0xbb962a6b	-0.0045826933
254	0xbccbe3fa	-0.024888981
255	0x3d0f36ff	0.034964558
