prompt_sliders/models/personaslider_xl/learned_embeds-steps-500.safetensors (safetensors, 3184 bytes, 1 tensors)

<person-ti> f4 [1, 768]
0	0x3c983806	0.018581402
1	0x3c2f45bd	0.010697779
2	0xbca7bed9	-0.020476745
3	0xbc4ea883	-0.0126134185
4	0x3ce19cfb	0.027540674
5	0xbc03be5d	-0.008040992
6	0xbcf2db41	-0.029645564
7	0x3a6be037	0.0008997949
8	0xbcb7cde7	-0.02243705
9	0xbd13cb47	-0.036082532
10	0xbab5782d	-0.0013845019
11	0x3a614804	0.00085938
12	0x3cc194f3	0.023630595
13	0x3cd69bdc	0.026197366
14	0xbbacc196	-0.0052721007
15	0x3af7c06b	0.001890195
16	0xb987bc3f	-0.0002588946
17	0x3c820d9f	0.015875636
18	0xbbee4d85	-0.0072724246
19	0x3bfebdb2	0.0077740783
20	0x3cf65569	0.030070024
21	0xbb425a4b	-0.002965587
22	0x3d15a3ee	0.03653329
23	0xbcb0b3e1	-0.021570148
24	0x3b90995c	0.004412813
25	0x3873622f	5.8027155e-05
26	0xbc03a6f5	-0.008035411
27	0x3c897023	0.016777104
28	0x3b1e47ea	0.002415175
29	0x3bd38e8f	0.0064562033
30	0xbd020754	-0.03174527
31	0x3bd9b276	0.0066435887
32	0xbbdf8de9	-0.006822337
33	0xbbcfe17c	-0.0063440185
34	0x3c4efdd1	0.012633757
35	0x3c6a7315	0.014309664
36	0xbbac4cd5	-0.0052581825
37	0xbb22d892	-0.0024848324
38	0x3cd6d58f	0.02622488
39	0xbaea002a	-0.0017852832
40	0xbcaa3c05	-0.020780573
41	0x3d0792e7	0.03309908
42	0xbc80ea42	-0.015736703
43	0xbd310674	-0.043219045
44	0x3d01976d	0.03163855
45	0xbc6e2895	-0.014536043
46	0x3c74a8e5	0.014932846
47	0x3bb4b352	0.0055145407
48	0xbc5fe9fd	-0.013666627
49	0xbca2829a	-0.019837666
50	0xbcbcb9ce	-0.023037817
51	0x3b3f6d01	0.0029209259
52	0xbc6ea5c4	-0.014565889
53	0x3d055fb3	0.03256197
54	0xbc64a29b	-0.013954784
55	0x3c2faf98	0.010723017
56	0xbd00c1aa	-0.031434692
57	0xbc8805ab	-0.016604265
58	0xbabd7563	-0.001445454
59	0xbc297eb1	-0.010345147
60	0xb98f018b	-0.00027276235
61	0x3d1aad87	0.037763145
62	0x3c8b83bd	0.017030591
63	0xbcfd1225	-0.030892441
64	0xbb20ec29	-0.0024554825
65	0xbb29c7e4	-0.0025906498
66	0x3ce47e85	0.02789236
67	0xba9996df	-0.0011717937
68	0xbcba8025	-0.022766182
69	0x3c8df982	0.017330889
70	0xbcf03027	-0.029319836
71	0x3a472014	0.00075960276
72	0x3c33ba39	0.010969692
73	0x3bcdedaf	0.0062844376
74	0xbb7ca0e9	-0.0038548058
75	0x3d1f3cab	0.038876217
76	0x3d03e0de	0.032196872
77	0x3a839792	0.0010039678
78	0x3b53f182	0.0032339995
79	0xbc284ff5	-0.0102729695
80	0xbce8a563	-0.028399175
81	0x3d4a8e27	0.049451973
82	0xbaf8d310	-0.00189838
83	0xbcae4c2d	-0.021276558
84	0x3c929b8b	0.017896434
85	0x3b3fb7ed	0.0029253915
86	0xbcd4d7b2	-0.025981758
87	0x3bcf69c7	0.0063297483
88	0xbc25397d	-0.010084507
89	0x3bec9174	0.007219488
90	0xbab9f583	-0.0014187548
91	0x3cc90fb4	0.02454362
92	0xbc0c002f	-0.008544966
93	0x3c098847	0.008394307
94	0xbc895b03	-0.01676703
95	0xbc39fa7d	-0.011351225
96	0xbc92c198	-0.017914578
97	0x3a2e71a3	0.00066545064
98	0x3c6ee435	0.014580776
99	0xbb86d411	-0.0041146358
100	0xbc97104d	-0.01844039
101	0x3cd71507	0.026255144
102	0xbcb9d7ff	-0.022686003
103	0xbc1fc8a3	-0.009752425
104	0xbcb008cf	-0.021488575
105	0xba2a83c1	-0.0006504618
106	0xbb2467d1	-0.0025086293
107	0x3a1a923b	0.0005896424
108	0xbce0edef	-0.027457206
109	0x3c8224af	0.015886633
110	0xbb9cc255	-0.0047839084
111	0xbd1c1e62	-0.038114913
112	0xbceb3a7c	-0.028714411
113	0xbcd5a2c9	-0.026078599
114	0xbc4e40cb	-0.01258869
115	0xbb8b6b04	-0.0042547006
116	0xbc16ec84	-0.009211663
117	0x3c08935d	0.008335915
118	0x3cb0c064	0.021576114
119	0xbc12bd3a	-0.008956248
120	0x3cc7ee76	0.0244057
121	0x3c6c6aa7	0.014429725
122	0xbc9d9256	-0.019234817
123	0x3d3eaf43	0.04655386
124	0xbc6ae000	-0.014335632
125	0x3b39b2a4	0.0028335238
126	0x3b9bc8e5	0.004754173
127	0x3c529ea8	0.012855209
128	0xbca18f88	-0.019721761
129	0x3c8e8495	0.017397204
130	0xbc5dcffe	-0.013538359
131	0x3cb815ef	0.022471396
132	0x3c485898	0.012228154
133	0x38a6a9e5	7.947142e-05
134	0xbcfed576	-0.031107645
135	0xbd0b3a80	-0.033991337
136	0x39b2faa6	0.00034137553
137	0x3c9a0a43	0.018803721
138	0xbaf8bf56	-0.0018977921
139	0x3cb09aa1	0.021558108
140	0x3a67d41f	0.0008843559
141	0x3b75912a	0.0037470558
142	0xbb5cbf13	-0.0033683225
143	0x3c9e9b19	0.019361066
144	0x3c52d28b	0.01286758
145	0x3c80faa1	0.01574451
146	0x3bcac2bd	0.0061877654
147	0xbcac7835	-0.021053413
148	0x3c38fcac	0.01129071
149	0xbd05752f	-0.032582458
150	0xbc1e3c9d	-0.009658006
151	0x3c944f0e	0.018104102
152	0x3c44e4f2	0.012017475
153	0x3c956e73	0.018241143
154	0xbb4e6366	-0.0031492352
155	0xbca1f4ac	-0.019769989
156	0x3a573b22	0.00082104106
157	0xbcbe71fa	-0.023247708
158	0xbca58dee	-0.020209279
159	0xbd03eb7b	-0.032206994
160	0xbc020033	-0.007934618
161	0x3d7f4b3e	0.062327616
162	0x3c7c968d	0.0154167535
163	0x3c1c95ad	0.00955717
164	0x3b873c3a	0.0041270526
165	0xbcc1ff80	-0.023681402
166	0xbcaf725c	-0.021416835
167	0x3c4fe4e8	0.012688853
168	0xbc98003c	-0.0185548
169	0x3c668a13	0.014071005
170	0xbcc61bd7	-0.024183197
171	0x3c754629	0.014970341
172	0xbc88f629	-0.01671894
173	0x3bb4fcc1	0.0055232947
174	0x3cf1291c	0.029438548
175	0x3bfe0c49	0.0077529293
176	0x39f69ee8	0.0004703917
177	0x3cc0dbb7	0.023542268
178	0x3b8b0908	0.00424302
179	0x3bcaba1c	0.0061867367
180	0x3be28ff0	0.0069141313
181	0xbb93d85a	-0.004511875
182	0xbc66980f	-0.0140743395
183	0x3bb5734f	0.0055374275
184	0xbd3b4b7c	-0.045726284
185	0xbc9b884b	-0.018985888
186	0x3b150ab3	0.0022741973
187	0x3c74fbc5	0.014952605
188	0xbbc65238	-0.0060522817
189	0x3c1b733f	0.009487926
190	0xbca0786e	-0.019588675
191	0x3c20d957	0.009817443
192	0xbd1b5cdb	-0.03793035
193	0xbcfc4ef6	-0.03079937
194	0x3d30b63c	0.043142542
195	0x3bd8ed4b	0.0066200844
196	0x3bb7024a	0.0055849897
197	0xbc722a7e	-0.014780639
198	0x3c72b73f	0.014814197
199	0xbc731704	-0.01483703
200	0x3d364d49	0.0445073
201	0x3c61f197	0.01379051
202	0xbc254812	-0.010087984
203	0xbc0a0d3f	-0.00842601
204	0x3d254689	0.04035047
205	0xbc7c67ea	-0.015405634
206	0xbc09383a	-0.008375222
207	0x3b286465	0.0025694605
208	0x3c75ddcc	0.015006494
209	0x3c4d1782	0.012517812
210	0x3cf432d7	0.029809399
211	0x3c58a9b9	0.013224059
212	0xbc73eb42	-0.014887633
213	0x3ce32f78	0.027732596
214	0xbca081f2	-0.019593213
215	0xbd06ff56	-0.03295835
216	0xbc8597cb	-0.016307732
217	0x3bca14a2	0.0061670104
218	0xbc86d6da	-0.016459871
219	0x3cececf8	0.02892159
220	0x3c9c0fa3	0.019050425
221	0xbbc65928	-0.0060531087
222	0x3aaf5141	0.0013375656
223	0xbc154d35	-0.009112646
224	0xbb82d621	-0.0039928113
225	0xbc862e58	-0.01637952
226	0x3d0fa6a3	0.035071027
227	0xbc226a39	-0.009913021
228	0xbc57592c	-0.013143819
229	0xbc478fa5	-0.012180244
230	0x3d0088b7	0.03138038
231	0x3cba46c3	0.02273882
232	0xbbb7880b	-0.0056009344
233	0x3cadfc6d	0.02123853
234	0x3c8de3ae	0.01732048
235	0x3d0bf6da	0.034170963
236	0xbd45038c	-0.048099086
237	0xbcae338d	-0.021264816
238	0xbc190cf8	-0.009341471
239	0x3cdb8464	0.026796527
240	0x3ca31083	0.019905334
241	0xbb82e1e7	-0.003994215
242	0xbd6224be	-0.05521082
243	0xbb7c85f1	-0.0038531984
244	0x3bd36ff1	0.0064525534
245	0x3cea453e	0.02859747
246	0x3bbb4fd7	0.0057163048
247	0x3c9c0adb	0.019048145
248	0x3d1b8c13	0.037975382
249	0x3ce1ebab	0.027578196
250	0xbd22fed4	-0.039793804
251	0x3cb639ed	0.022244418
252	0x3c5c8c2c	0.013461154
253	0x3b034c49	0.0020034483
254	0xbc31529e	-0.01082292
255	0x3ca042a4	0.019563027
