prompt_sliders/models/personaslider_xl/learned_embeds-steps-1500.safetensors (safetensors, 3184 bytes, 1 tensors)

<person-ti> f4 [1, 768]
0	0x3c5f8932	0.01364355
1	0x3c46dbeb	0.0121373935
2	0xbc315081	-0.010822416
3	0xbd4b75e8	-0.04967299
4	0x3d356c0a	0.044292487
5	0x3cb5e15e	0.02220219
6	0xbc934ed3	-0.017981922
7	0xbbca85da	-0.006180507
8	0xbd1febaf	-0.039043125
9	0xbd79b043	-0.060959112
10	0x3b8a8abc	0.004227964
11	0xbca11110	-0.019661456
12	0x3cf43db6	0.029814582
13	0x3cf0f8d1	0.02941552
14	0x3c8a5b57	0.016889257
15	0xbb3d65c5	-0.002889977
16	0xbc5eb782	-0.013593556
17	0x3c61758e	0.013760937
18	0xbc6d2ad3	-0.014475542
19	0x3b89df08	0.0042074956
20	0x3cdbc8df	0.026829181
21	0xbca707c2	-0.020389441
22	0x3d5601fb	0.052247982
23	0xbd263860	-0.040581107
24	0xbbb73a96	-0.005591701
25	0xba05c4be	-0.0005102864
26	0xbc08828f	-0.008331909
27	0x3c9807b4	0.01855836
28	0xbb2977aa	-0.002585868
29	0xbc89dfbe	-0.016830321
30	0xbbe72763	-0.007054256
31	0x380a2f0b	3.2945576e-05
32	0x3b719b68	0.003686631
33	0x3c1e9968	0.00968013
34	0x3bdf37f6	0.006812091
35	0x3d9efaf1	0.07762707
36	0x3c5c1680	0.013433099
37	0xb989653e	-0.00026206108
38	0x3ce0cf13	0.02744249
39	0x3bd9322c	0.0066282954
40	0xbbdaa367	-0.006672311
41	0x3ce6e7bb	0.02818667
42	0xbc58ad17	-0.013224862
43	0xbd402062	-0.046905883
44	0x3d1e6a3b	0.038675528
45	0xbc8407c4	-0.016116984
46	0x3d14b32d	0.036303688
47	0xbc2d74ac	-0.010586899
48	0xbd334227	-0.04376426
49	0xbc99259e	-0.018694695
50	0xbcc8795b	-0.02447193
51	0x3cebb7cc	0.028774165
52	0xbc4bc3b8	-0.0124368
53	0x3d047fce	0.032348447
54	0xbca4ff86	-0.020141374
55	0x3d147271	0.036241952
56	0xbccaa27e	-0.024735685
57	0xbcc513d2	-0.024057303
58	0xbbf2c347	-0.007408533
59	0xbc0c129b	-0.008549358
60	0xbc43c748	-0.011949368
61	0x3d8a53aa	0.06754239
62	0x3a89a444	0.0010501225
63	0xbd13da6a	-0.036096968
64	0xbc028632	-0.007966565
65	0xbd16a3b7	-0.036777224
66	0x3cc9ea94	0.024647988
67	0xbc247a34	-0.010038901
68	0xbc1b8dd7	-0.0094942665
69	0x3cd2ef1a	0.025748778
70	0xbc472a40	-0.012156069
71	0xbbfa744e	-0.007643259
72	0x3b9bb120	0.0047513396
73	0xbc4bd093	-0.012439865
74	0xbcb220bd	-0.021744126
75	0x3c96ed67	0.01842375
76	0x3c393a4b	0.011305402
77	0xba675b5a	-0.0008825563
78	0x3c4c519f	0.012470632
79	0xbd23f306	-0.040026687
80	0xbd44b205	-0.048021335
81	0x3d6d96cb	0.058005136
82	0xbcb67a27	-0.022275044
83	0xbbc822e4	-0.006107675
84	0x3c3d7d06	0.011565452
85	0x3cb994d6	0.022653978
86	0xbcda9f93	-0.026687419
87	0xbb00afd3	-0.001963605
88	0x3b22541f	0.0024769378
89	0xbcb6f15a	-0.022331882
90	0x3c3c0d1e	0.011477737
91	0x3d4c9725	0.04994883
92	0xbc923769	-0.017848687
93	0xbc9678b4	-0.018368103
94	0xbc94b962	-0.018154804
95	0xbc731849	-0.014837333
96	0xbd352db6	-0.044233046
97	0xbb40053f	-0.0029300002
98	0x3d12ec8c	0.03587012
99	0xbc64441f	-0.013932257
100	0xbcfaea6f	-0.030629365
101	0x3c5d1234	0.0134931095
102	0xbccde4b6	-0.025133472
103	0xbbd3d3cf	-0.0064644585
104	0xbd15c134	-0.036561206
105	0xbc3560d4	-0.011070449
106	0xbb9e637f	-0.004833638
107	0x3bcac7e3	0.006188379
108	0xbd0eb83d	-0.034843672
109	0x3b95dc9c	0.004573418
110	0xbc51b8de	-0.012800423
111	0xbd5cb190	-0.053880274
112	0xbcb1dbd5	-0.02171127
113	0x3b800797	0.003907155
114	0xbbd79ace	-0.0065797335
115	0x3cb704f9	0.022341238
116	0xbbcc5045	-0.006235155
117	0x3bc46e09	0.0059945625
118	0x3c89c84e	0.016819146
119	0xbad975bb	-0.0016590873
120	0x3cc4e1de	0.024033483
121	0x3bf99d9a	0.0076176645
122	0x3a0ace57	0.0005295029
123	0x3d5d770a	0.054068603
124	0x3b36cac9	0.0027891865
125	0xbc670c2d	-0.014102024
126	0x3d4030ea	0.046921648
127	0x3d1d7679	0.038443062
128	0xbca6128b	-0.020272514
129	0x3bc17eba	0.0059049996
130	0x3b52e3f5	0.003217933
131	0x3cc812a1	0.024422945
132	0x3c4f83c3	0.012665692
133	0x3b1b281d	0.0023675032
134	0xbd1373fe	-0.03599929
135	0xbd0ddaf6	-0.034632646
136	0x3cb4e41f	0.022081433
137	0x3cf70ecb	0.030158421
138	0xbc1dc28b	-0.009628902
139	0x3c8d323c	0.017235868
140	0x3c8ba1e3	0.017044967
141	0xbcb4d513	-0.022074258
142	0xbc78dae9	-0.015188911
143	0x3b65bbd0	0.0035054572
144	0x3b1076cf	0.0022043472
145	0x3cab5772	0.02091572
146	0x3bb0cb83	0.0053953542
147	0x3b89e471	0.0042081405
148	0x3c51ec57	0.0128126955
149	0xbd38eb39	-0.0451462
150	0xbc80ea07	-0.015736593
151	0x3c39edf9	0.011348241
152	0x3c906132	0.017624471
153	0x3d023d1a	0.031796552
154	0x3c36b537	0.011151603
155	0xbbf82e2f	-0.007573865
156	0xbce4fa57	-0.027951403
157	0xbcbf47a7	-0.023349596
158	0xbd16f2f6	-0.0368528
159	0xbd16286b	-0.03665964
160	0xbd094ebe	-0.03352236
161	0x3d90b4a9	0.07065708
162	0x3d477392	0.0486942
163	0x3c549010	0.0129738
164	0x3caba4e2	0.020952646
165	0x3b55aeda	0.003260544
166	0xbc8b5e65	-0.017012784
167	0x3bc2a4f7	0.0059400755
168	0xbd0f6840	-0.03501153
169	0x3d26e11e	0.040742032
170	0xbca9145c	-0.02063959
171	0x3cbd534f	0.023111014
172	0xbd36525b	-0.044512134
173	0x39f24dee	0.000462159
174	0x3d3bee39	0.045881484
175	0x3cbb8042	0.022888307
176	0xbc3308e0	-0.010927409
177	0xbbe83226	-0.0070860563
178	0x3d08e101	0.033417705
179	0x3c078713	0.00827195
180	0xbc8e3468	-0.017358974
181	0x3c8aba3a	0.016934503
182	0xbc87f1ec	-0.01659485
183	0x3c95bdbb	0.018278947
184	0xbd9faa3c	-0.077961415
185	0xbc280010	-0.010253921
186	0x3cf75fe4	0.030197091
187	0xbb7d8606	-0.003868462
188	0x3c3c5f85	0.011497383
189	0x3cd6eaa5	0.026234934
190	0xbcb71c94	-0.022352494
191	0x3c8942ad	0.016755426
192	0xbd8d75a2	-0.06907202
193	0xbd485e9e	-0.04891836
194	0x3cf6ea4d	0.03014102
195	0x3a945d53	0.0011319317
196	0x3c9d70dd	0.019218856
197	0xbc6e31c8	-0.014538236
198	0x3c9149a9	0.01773532
199	0xbd152cf6	-0.03641983
200	0x3d847284	0.064671546
201	0x3be5d526	0.0070139347
202	0xbba18b2e	-0.0049299216
203	0x3c7d4ee1	0.015460701
204	0x3d132719	0.03592596
205	0xbc6445f4	-0.013932694
206	0x3cb55b16	0.02213816
207	0xbcb168e8	-0.021656469
208	0x3ce12ff5	0.027488688
209	0x3ce434ee	0.02785727
210	0x3cdeb413	0.027185475
211	0x3cff835d	0.031190569
212	0xbd507bc3	-0.05089928
213	0x3d67407c	0.05645798
214	0xbc9fa9c7	-0.019490136
215	0xbd0b8637	-0.034063544
216	0xbc83e68e	-0.016101148
217	0x3ca7d931	0.020489307
218	0x3aab260e	0.0013057606
219	0x3c5bbc35	0.013411571
220	0x3d2a5b2f	0.041590866
221	0xbc908c03	-0.017644888
222	0xbcb6e6cb	-0.022326848
223	0xbb9d36a3	-0.004797773
224	0xbc7ccc42	-0.015429558
225	0xbc7f38a2	-0.015577467
226	0x3d55071f	0.052008744
227	0xbba96476	-0.0051694466
228	0xbc616f32	-0.013759421
229	0xbbf3fc08	-0.007445816
230	0x3d261d3d	0.040555228
231	0x3c2e150b	0.010625134
232	0x3b815a00	0.0039474964
233	0x3d08d9ba	0.033410765
234	0x3c4dba64	0.012556646
235	0x3d00cfa1	0.03144801
236	0xbd008a5a	-0.031381942
237	0xbc983981	-0.018582107
238	0x3c1b3e03	0.009475234
239	0x3d89d37a	0.06729789
240	0x3d0108f0	0.031502664
241	0xbc9cb129	-0.019127445
242	0xbd4ad33e	-0.049517862
243	0xbcc3c588	-0.023897901
244	0x3c3a55cb	0.011372994
245	0x3d0066c1	0.031347994
246	0x3b88aeed	0.0041712434
247	0x3c01148c	0.007878434
248	0x3d5b733b	0.05357669
249	0x3d4b4cd6	0.049633823
250	0xbd14bdfa	-0.03631399
251	0x3c9924db	0.018694332
252	0xbbb4d981	-0.0055190925
253	0xbbaaa93b	-0.005208162
254	0xbce5c302	-0.028047089
255	0x3d4f6371	0.050631944
