prompt_sliders/models/appleslider_xl/learned_embeds-steps-500.safetensors (safetensors, 3184 bytes, 1 tensors)

<apple-ti> f4 [1, 768]
0	0xbbc347b7	-0.005959477
1	0xbc88dde5	-0.01670737
2	0xbc4eb2e0	-0.012615889
3	0xbc5e3d92	-0.013564484
4	0xbcadcfc7	-0.02121724
5	0x3ca0f339	0.019647228
6	0xbcf71419	-0.03016095
7	0x3c84b39d	0.016198928
8	0x3adc1e7c	0.0016793753
9	0x3b68a212	0.0035496992
10	0x3cc8af67	0.0244977
11	0xbc2eed53	-0.0106767
12	0x3c46d2be	0.012135206
13	0xbcd23ac8	-0.025662795
14	0x3c178455	0.009247859
15	0x3d6c7dae	0.057737045
16	0x3b0d1e42	0.0021532928
17	0x3a8000ad	0.0009765826
18	0x3b80f922	0.003935949
19	0x3cfb80d5	0.03070108
20	0xbc532822	-0.012887986
21	0x3a36043e	0.0006943381
22	0x3d1fbee2	0.0390004
23	0xbd27aaad	-0.040934253
24	0x3c0ba0d6	0.008522233
25	0xbc30aebc	-0.010783847
26	0xbd3d471d	-0.046210397
27	0x3ca80032	0.020507906
28	0xbba3216e	-0.0049783504
29	0x3d60b436	0.054859363
30	0xbc0f419d	-0.008743671
31	0x3cb654ed	0.022257293
32	0xbbfc1e5b	-0.0076940483
33	0xbcee72ac	-0.029107414
34	0xbd0bc811	-0.034126345
35	0x3c961a67	0.018323136
36	0x3cf98c10	0.030462295
37	0x3c0caa36	0.008585503
38	0xbc18381c	-0.009290721
39	0xbceec3b1	-0.029146047
40	0x3adb34c0	0.0016724095
41	0x3c17c39e	0.009262947
42	0xbc8b36de	-0.016993936
43	0x3c1cb3e7	0.009564376
44	0x3cb09376	0.02155469
45	0xbbfa707d	-0.007642804
46	0x3c24beec	0.010055285
47	0xbd0eac71	-0.03483242
48	0x3d225659	0.03963313
49	0x3bbfbc8c	0.005851334
50	0xbccc3aa9	-0.024930315
51	0xbcdd9c1b	-0.027051976
52	0x3c141008	0.009037025
53	0xbc9e8f96	-0.019355576
54	0xbaecd02a	-0.0018067409
55	0x3d557574	0.052113965
56	0x3c714e19	0.014728093
57	0xbc6deca6	-0.014521753
58	0xbc4bd292	-0.012440341
59	0x3d67af09	0.05656341
60	0x3cb3670e	0.021899726
61	0x3cd2da59	0.025738882
62	0x3a194d69	0.0005848022
63	0x3b0ed533	0.0021794557
64	0xbd1b4b90	-0.03791386
65	0x3acf1fc1	0.001580231
66	0x3d0e962f	0.034811195
67	0xbceb168e	-0.028697278
68	0xbc4bd0d5	-0.012439926
69	0xbccc7b3d	-0.024961108
70	0x3c52b316	0.01286008
71	0xbc07c23d	-0.008286056
72	0xbcbf088b	-0.023319503
73	0xbcd128ce	-0.025532153
74	0xbcd42ef8	-0.025901303
75	0xba6e338f	-0.00090866623
76	0xbc8a7485	-0.016901264
77	0xbc8e1bf8	-0.01734732
78	0xbc2c8a25	-0.010530983
79	0x3c87baf8	0.016568646
80	0xbc426a33	-0.01186614
81	0xbbe385df	-0.006943449
82	0xbbc5ba98	-0.0060342066
83	0x3ca40827	0.020023419
84	0xb93e6c6d	-0.00018160204
85	0xbcae8d0a	-0.021307487
86	0x3b909f62	0.004413531
87	0xbcf5be20	-0.029997885
88	0x3ccee614	0.025256194
89	0x3c82536f	0.015908925
90	0xbb8af1b5	-0.0042402395
91	0xbce73238	-0.028222188
92	0xbc3e4dbc	-0.011615213
93	0x3bc8ab7c	0.006123958
94	0x3c8bf0da	0.01708262
95	0xbc0a6174	-0.008446086
96	0x3ca7f479	0.020502316
97	0xbc6290b5	-0.013828446
98	0xbc90e0fd	-0.017685408
99	0xbcb8ca6e	-0.022557463
100	0xbac13cb9	-0.0014742828
101	0x3b8a1244	0.004213603
102	0xbc428846	-0.01187331
103	0x3bf3d155	0.007440726
104	0x3cd2db9e	0.025739487
105	0xbd17185b	-0.03688846
106	0xbb16c499	-0.0023005365
107	0xbae56409	-0.0017501126
108	0xbd4b9184	-0.04969932
109	0xba0eb4cf	-0.00054438127
110	0xbc69ffe9	-0.014282205
111	0xbca1d294	-0.019753732
112	0xba8c2b13	-0.001069399
113	0x3b27a645	0.0025581282
114	0xbc9d6211	-0.0192118
115	0xbcf79e57	-0.03022687
116	0x3c8ed9f3	0.01743791
117	0x3ceffbb1	0.02929482
118	0x3c8e375d	0.017360384
119	0xbcd03723	-0.025416916
120	0x3caf667e	0.021411177
121	0x3bd702e6	0.006561625
122	0x3c3085ad	0.010774058
123	0x3b530673	0.003219989
124	0x3c86d0bc	0.016456954
125	0x3c4ab340	0.012371838
126	0xbc038cf4	-0.008029211
127	0xbbf2dd71	-0.007411652
128	0xbd2ac5fe	-0.041692726
129	0x3c28b204	0.0102963485
130	0x3ce914d6	0.028452318
131	0x3d8bcaeb	0.06825813
132	0x3c355ebd	0.011069951
133	0x3cc8725b	0.024468591
134	0x3ca0e56e	0.01964065
135	0x3c32aee4	0.010905955
136	0x3a9d9564	0.0012022671
137	0xbc4e3f6a	-0.012588361
138	0xbc5d0cd2	-0.013491826
139	0x3cd5b3a3	0.026086634
140	0x3aa0ef2b	0.0012278309
141	0x3c941ce0	0.018080175
142	0x3c0977ea	0.008390406
143	0x3ccded52	0.025137577
144	0x3bd0b56c	0.0063692834
145	0x3c467d12	0.01211478
146	0x3c840ff6	0.016120892
147	0xb888a8f1	-6.516453e-05
148	0x3c01613e	0.0078967195
149	0xbcb29b96	-0.021802705
150	0xbb89183c	-0.004183797
151	0xbc02ae8a	-0.007976184
152	0x3d05f57b	0.03270481
153	0xbc7e17b6	-0.015508583
154	0xbcf3145b	-0.029672792
155	0xbc79d5a6	-0.015248692
156	0xbb8e7fb0	-0.0043487176
157	0x3a0a320b	0.0005271739
158	0xbc84be2e	-0.016203966
159	0x3b4aa7c9	0.0030922762
160	0x3cced8d9	0.025249885
161	0xbc142ab0	-0.009043381
162	0x3ca162f9	0.019700514
163	0xbd09b356	-0.033618294
164	0x3c033407	0.00800801
165	0x3c8ea032	0.017410371
166	0xbc975c05	-0.018476496
167	0xbc13d53c	-0.009023007
168	0xbbd06f2b	-0.0063609085
169	0x3bef839b	0.0073093898
170	0x3c387bc9	0.011259981
171	0x3c1f6f46	0.0097311195
172	0x3c6c0681	0.0144058475
173	0xbc8eb15e	-0.01741856
174	0x3bf2ff89	0.007415716
175	0xbcc72d1f	-0.024313508
176	0xbd119789	-0.035544906
177	0x3bcad647	0.0061900946
178	0x3d261cdd	0.04055487
179	0xbce3069d	-0.027713114
180	0xbbbcf552	-0.005766549
181	0xba8fad1c	-0.0010961625
182	0xbcb93a7e	-0.022610899
183	0xbc3fbc3c	-0.011702593
184	0xbca1cad9	-0.019750046
185	0xbbf43814	-0.007452974
186	0xbccfdbca	-0.025373358
187	0x3cc0c66e	0.023532119
188	0xbd486116	-0.048920713
189	0x3bcb7bf3	0.0062098443
190	0x3c21d7fa	0.009878153
191	0xbc98b1d8	-0.01863949
192	0xbc913c1e	-0.017728861
193	0x3cc1ad84	0.023642309
194	0x3b52c60a	0.0032161498
195	0xbc93aa5d	-0.018025571
196	0xbca89034	-0.020576574
197	0x3c389be7	0.011267639
198	0x3d81a9f2	0.063312426
199	0x3b7215ec	0.0036939336
200	0xbd043e28	-0.03228584
201	0x3b349d0d	0.002755943
202	0xbb95e571	-0.0045744707
203	0xbcb3c166	-0.021942805
204	0xbd01054c	-0.031499192
205	0xbcfb86ff	-0.03070402
206	0x3c0c8af0	0.008578047
207	0xbb746b52	-0.0037295413
208	0x3bb9ddc3	0.005672188
209	0xbc47908d	-0.01218046
210	0xbbcdbd86	-0.0062786965
211	0xbaaa2d31	-0.0012983439
212	0xbcaaf51b	-0.020868829
213	0xbc240596	-0.010011097
214	0x3d25e5b8	0.04050228
215	0xbcc26fa7	-0.02373488
216	0xbc825697	-0.01591043
217	0xbc50df46	-0.012748545
218	0xbcade930	-0.021229357
219	0xbccba5c5	-0.024859319
220	0x3c12272c	0.008920472
221	0xbcca4c1c	-0.024694495
222	0x3caed979	0.021343933
223	0x3cc312f7	0.023812754
224	0x3bb8186a	0.0056181448
225	0xbc7dffbd	-0.015502867
226	0x3a6d1d03	0.00090451556
227	0xbc476370	-0.012169704
228	0xbc582c1b	-0.013194109
229	0x3c0a57f9	0.008443826
230	0x3c7051f2	0.014667975
231	0xbb8f71c8	-0.0043775775
232	0x3d1b2c40	0.037883997
233	0x3a16aeb9	0.00057480816
234	0xbcf31ba9	-0.029676275
235	0x3b8cc8f0	0.0042964146
236	0x3b870f62	0.004121707
237	0xba4296f2	-0.00074230053
238	0xba42cc9e	-0.0007431003
239	0xbced53bb	-0.02897059
240	0x3d2c5f35	0.042082984
241	0xbb123fa3	-0.0022315762
242	0x3cdbecce	0.026846316
243	0xbcdd88ee	-0.027042832
244	0x3b87e3f5	0.0041470476
245	0xbcb35e96	-0.021895688
246	0x39b6ab52	0.0003484139
247	0xbd19bef6	-0.03753563
248	0xbc1e739e	-0.00967112
249	0x3b939aa3	0.004504518
250	0x3c3fa1c9	0.011696287
251	0xbd23c36a	-0.039981283
252	0x3bdd9b69	0.006762911
253	0x3c82a9fc	0.015950195
254	0x3cecf9d7	0.028927727
255	0xbc8a16f3	-0.016856646
