prompt_sliders/models/appleslider_xl/learned_embeds-steps-1500.safetensors (safetensors, 3184 bytes, 1 tensors)

<apple-ti> f4 [1, 768]
000000 48 64 f1 bc 25 1e b8 bc de b9 dc bc 24 b1 0e bd
       -0.029466763 -0.022475312 -0.026944097 -0.034836903
000010 5d ef 5d bd a7 35 5c 3c ff a5 b1 bc 13 9c b6 3c
       -0.054183353 0.013440526 -0.021685598 0.022291219
000020 be 4b d3 ba 43 5e 34 3d 9e 9c 17 3d 80 a2 8a bb
       -0.0016120595 0.044035207 0.037014596 -0.0042307973
000030 1f 7c 45 3c fb df c8 bc 3f 58 cd bc 6b eb aa 3d
       0.012053519 -0.024520865 -0.025066493 0.08345684
000040 4c 3e 01 bd 21 f6 ab 3b a2 26 87 ba 8e 6c f9 3c
       -0.03155355 0.0052478467 -0.0010311196 0.03044727
000050 45 e2 50 bb e5 cd 20 3c 3e 96 14 3d ec e2 aa bc
       -0.0031873148 0.009814714 0.036276095 -0.020860158
000060 a0 53 8a 3b 33 8c 3b bc ac 05 9b bd d0 9c 58 3d
       0.0042213947 -0.011447 -0.07569441 0.052883923
000070 3a 5b b8 bc 11 03 57 3d 63 c7 4f 3c 3b 70 3f 3d
       -0.022504438 0.05249316 0.012681815 0.04673789
000080 36 b2 3b bc d3 a3 44 bd 1b 46 1b bd 9e 26 bd 3c
       -0.011456063 -0.048007797 -0.037908655 0.023089703
000090 35 e5 39 3d 50 f2 18 3c 96 72 83 bc 88 e5 55 bd
       0.045384604 0.009335116 -0.01604585 -0.05222085
0000a0 da 46 9b 3c b0 db 0b 3d 9f 0b 30 bd b1 d1 24 3c
       0.018954683 0.034145057 -0.042979833 0.01005976
0000b0 c3 c9 4c 3c f3 b9 83 bc b5 10 ae 3c 9b 61 39 bd
       0.012499276 -0.016079878 0.0212482 -0.0452591
0000c0 62 1e 44 3d a1 11 06 3c f6 56 40 bd 07 e6 ac bc
       0.047880538 0.008182914 -0.046957932 -0.02110578
0000d0 e0 62 12 bb c9 7f 1f bd 86 7f 9b bb e0 14 29 3d
       -0.0022336766 -0.038940225 -0.0047454266 0.041279674
0000e0 c6 b1 6d 3c 54 6c 9e bc 5b fd 1e bd 09 2b 40 3d
       0.0145077165 -0.019338764 -0.038815837 0.04691604
0000f0 7e 2e 3a 3d c0 10 87 3c 6b 47 ad bb 88 46 47 3a
       0.045454495 0.01648748 -0.0052880547 0.00076017575
000100 7b 2e 2d bd ed 93 c6 3c 76 b6 26 3d 67 1c ec bc
       -0.042280655 0.024240458 0.040701352 -0.028822137
000110 00 d4 ce 3a 2d 85 01 bd 23 50 ae 3c 84 ed 4f bc
       0.0015779734 -0.031621147 0.021278447 -0.0126909055
000120 46 13 21 bd 88 0f 0b bd ce 33 dc bc ce 31 c9 bb
       -0.03932502 -0.03395036 -0.026880171 -0.0061399704
000130 43 f4 1f bc 3f 15 1c bc 37 92 9c bb d2 aa e1 3c
       -0.009762826 -0.00952655 -0.0047781724 0.027547274
000140 3a 32 ad 3b e8 0f 12 bc 0d 52 12 bc 42 f6 25 3d
       0.0052855285 -0.008914925 -0.008930695 0.040518053
000150 8f be c5 bb e1 6c 24 bd e6 f5 a5 3c e9 ae 10 bd
       -0.0060346792 -0.040142898 0.020258855 -0.035323057
000160 ec c3 4d 3d fb 41 9e 3c 9a fe 38 bc 1f 01 06 bd
       0.050235674 0.019318571 -0.0112911705 -0.032715913
000170 4c 4f 8a bc 32 33 9e bc f8 5a b1 3c c3 01 07 bc
       -0.016883515 -0.019311521 0.021649823 -0.008240166
000180 c3 7b e3 3c d6 ba 1f bc 04 93 d1 bc e9 08 2f bd
       0.027768975 -0.009749135 -0.025582798 -0.042733107
000190 53 87 a1 3c 95 d0 83 3c 62 1a 64 bc c4 15 77 ba
       0.019717848 0.01609067 -0.013922306 -0.00094255456
0001a0 34 86 06 3d af 31 94 bd bd 96 e7 ba c5 be 28 bc
       0.03284283 -0.07236039 -0.0017668825 -0.010299389
0001b0 0d 87 39 bd d9 7b 85 3c 2b 4c ab 3b 29 50 ba 3b
       -0.04529481 0.016294407 0.005227586 0.0056858254
0001c0 c4 9c f9 3b 9a 65 26 3c 2a e5 07 bc f5 dc 6e bc
       0.007617565 0.01015606 -0.008294383 -0.014579047
0001d0 da 1e 93 3c b0 24 d8 3c 2c 0a b2 3c f7 14 32 bd
       0.017959047 0.026384681 0.021733366 -0.043477025
0001e0 57 dc 81 3c 73 a8 aa bc 13 51 af 3c 1e c8 50 3c
       0.015852137 -0.020832276 0.021400964 0.012743024
0001f0 d2 22 7e 3c 26 f4 d0 3b a4 70 90 3b a7 89 22 bb
       0.0155112315 0.006376761 0.004407959 -0.0024801285
000200 57 e4 50 bd 41 8c 56 3b 8b 1a 47 3c e8 e9 5e 3d
       -0.05099901 0.0032737406 0.012152324 0.05442229
000210 b7 51 a9 3c ee 7f 0f 3d 9e 51 60 3d c5 f2 35 3b
       0.020668847 0.035034113 0.054765336 0.002776311
000220 a5 35 92 3c 0e 13 3e 3b 42 bd 1d bb 09 03 39 3d
       0.017847845 0.0029003057 -0.0024069105 0.04516891
000230 24 8a 16 bc 28 67 1b 3d 08 59 93 3c 98 2c 2e 3d
       -0.009188209 0.037940174 0.01798679 0.042522997
000240 d7 c9 ad 3c 66 c3 8a 3c 8a f3 e3 3c 14 bd b3 3b
       0.021214409 0.016938876 0.02782609 0.0054851864
000250 2a 08 a2 ba 06 e0 10 bd f5 4b b8 ba d4 36 b6 3b
       -0.0012362052 -0.035369895 -0.0014060723 0.0055607352
000260 e0 9a 01 3d c3 34 7e bc b6 7c 1f bd 3f 51 c4 bc
       0.03164184 -0.015515509 -0.038937293 -0.023964522
000270 22 8c ca bb fa 94 e2 3b 26 c8 7c bc a8 fc 3b 3a
       -0.006181256 0.006914732 -0.0154285785 0.00071711326
000280 a7 a2 da 3c eb 9c c6 bb 68 64 0a 3d 60 3e 18 bd
       0.026688887 -0.0060611865 0.03378716 -0.03716886
000290 ad f2 ce 3c 45 04 9f bc 33 9e c5 bc 2c 83 06 bb
       0.025262201 -0.019411216 -0.024123287 -0.0020524962
0002a0 e7 66 c5 bb 2e 00 08 3d 18 0e 49 3b f5 d8 8c 3c
       -0.00602423 0.033203296 0.0030678567 0.017193297
0002b0 95 0e 87 3c e2 c0 d1 bc 15 26 f3 3c d8 dc 9e bc
       0.016486445 -0.025604669 0.029681245 -0.019392416
0002c0 b9 f0 1d bd 2e c5 06 bb ec ba 0b 3d 5a 5e a1 bc
       -0.03855965 -0.0020564306 0.03411381 -0.01969831
0002d0 a1 7c 1b 3c 87 ff 12 3c 36 8a f3 bc d0 5c 58 bc
       0.009490163 0.008972055 -0.02972899 -0.013205722
0002e0 e3 57 b8 bc 23 ec 66 bb de 80 47 bd a1 e0 08 3d
       -0.022502845 -0.0035235963 -0.04870688 0.033417348
0002f0 03 ab 53 bd 28 9d 6b 3c c2 cb b6 3c 46 55 86 bc
       -0.05167676 0.014380731 0.022313956 -0.016398083
000300 6a 25 bc bc b0 1c e6 3c 32 8c 3e 3c 4a c1 15 bd
       -0.02296706 0.028089851 0.011630105 -0.036561288
000310 93 84 8a bb f8 5f 79 3b 74 9f 66 3d 68 3e aa 3c
       -0.00422723 0.0038051587 0.05630441 0.02078171
000320 c1 93 08 bd 5d 66 ad 3c 5a c8 d1 3b 6e 65 10 bd
       -0.033344034 0.021166975 0.0064020576 -0.03525298
000330 af 5e 05 bd dc c6 e3 bc 81 7e 1a 3b ad b2 c2 3b
       -0.032561 -0.027804784 0.0023573937 0.00594171
000340 16 00 a8 3a cd 48 93 bb 24 1d 8b 3b c9 d7 ab bb
       0.0012817408 -0.0044947625 0.004245417 -0.0052442295
000350 22 7b 38 bd 21 88 e1 bb 18 f6 48 3d 05 d0 dc bc
       -0.045039304 -0.006882683 0.04906282 -0.02695466
000360 95 cc 9b bc ea 22 29 bd 12 13 98 bc b8 51 66 bd
       -0.01901845 -0.041293062 -0.018563781 -0.056230277
000370 0a 5c 79 3a 12 f0 49 bd 52 d9 19 3d 8a 9c dd 3c
       0.0009512311 -0.049301215 0.03756077 0.027052183
000380 05 e4 4c 3c 6f 03 b2 bc 52 99 fb 3c 88 41 f2 ba
       0.012505536 -0.021730153 0.030712757 -0.0018482665
000390 81 87 bb bc 66 70 4c 3c 0f 19 14 3d e1 3f c2 bb
       -0.022891762 0.01247797 0.03615671 -0.005928025
0003a0 03 da 50 3d 9e 74 44 bc 75 f0 7d bc 62 5f 85 3c
       0.050989162 -0.011990694 -0.015499224 0.016280834
0003b0 5f 64 2a bb a8 3d 89 bc 84 43 a4 3b 0a c7 37 bd
       -0.0025999767 -0.016753033 0.0050129313 -0.044867553
0003c0 53 b5 0b 3d 41 0c 45 3c d0 da ed 3c f2 30 62 bc
       0.03410847 0.012026847 0.029035002 -0.013805615
0003d0 77 aa 2c 3c e1 f1 e2 bc 96 86 96 bb ef 73 40 bd
       0.010538689 -0.027703227 -0.0045936806 -0.046985563
0003e0 b7 9d f2 bc 1e 3c ef bb d2 0d 40 3b d2 f1 49 bd
       -0.02961622 -0.0073008677 0.0029305113 -0.049302883
0003f0 67 9b 3c bc 99 f2 03 3d da 5d 1f 3d 7c 7c 3a bd
       -0.01151166 0.03221378 0.038907863 -0.045528874
