prompt_sliders/models/appleslider_xl/learned_embeds-steps-1000.safetensors (safetensors, 3184 bytes, 1 tensors)

<apple-ti> f4 [1, 768]
0	0xbc8dc4e7	-0.017305804
1	0xbca686cb	-0.020327946
2	0xbc9d56e7	-0.019206477
3	0xbcdbfc36	-0.026853662
4	0xbd0dbb5b	-0.034602504
5	0x3c2aebb6	0.010432174
6	0xbcbd31a8	-0.023094967
7	0x3c5a14ea	0.01331065
8	0xbc1cb395	-0.0095643
9	0x3d14621e	0.036226384
10	0x3d0cf79f	0.034415837
11	0xbb16f9ea	-0.0023037144
12	0x3c4741c4	0.012161676
13	0xbd010390	-0.031497538
14	0xbc4d6fc2	-0.012538852
15	0x3d8b55cc	0.06803474
16	0xbc98ded7	-0.018660946
17	0x3b99796a	0.004683663
18	0x3c3aa9f0	0.011393055
19	0x3d1072d5	0.035265762
20	0xbbcf5dcf	-0.0063283215
21	0x3b81a631	0.003956579
22	0x3d0ebc1e	0.03484737
23	0xbd07564d	-0.033041287
24	0xbba3ebf1	-0.0050024916
25	0xbaaef879	-0.0013349197
26	0xbd84f552	-0.06492104
27	0x3d2add69	0.04171506
28	0xbc34c9cb	-0.011034439
29	0x3d7d615c	0.061860427
30	0x3c2a7f29	0.010406294
31	0x3d0c8f2c	0.034316227
32	0xbc701557	-0.014653525
33	0xbd2155d9	-0.03938851
34	0xbd15e3dd	-0.03659426
35	0x3cca8aba	0.024724353
36	0x3d1af064	0.03782691
37	0x3c6dc0e4	0.014511321
38	0xba8a0793	-0.0010530822
39	0xbd0ff13d	-0.035142172
40	0x3bd960e8	0.0066338666
41	0x3cdc2c8b	0.026876708
42	0xbcf5ced1	-0.030005844
43	0x3ae2ad4d	0.0017294079
44	0x3c53bbc5	0.012923186
45	0xbca1bca0	-0.019743264
46	0x3c3f00a2	0.011657866
47	0xbd2e1512	-0.042500563
48	0x3d38c9a9	0.045114193
49	0x3c3227a6	0.010873711
50	0xbd2350d0	-0.03987199
51	0xbcad48f1	-0.021152945
52	0xbb040a2d	-0.0020147667
53	0xbd114d70	-0.03547424
54	0xbb7d96ae	-0.0038694548
55	0x3d5c2e26	0.053754948
56	0x3cac5335	0.02103577
57	0xbc2a90e1	-0.010410518
58	0xbd1f328e	-0.038866572
59	0x3d43812f	0.04773062
60	0x3d1a9e00	0.037748337
61	0x3ce0cbbf	0.027440904
62	0xbbdfcc08	-0.0068297423
63	0xbae2c179	-0.0017300091
64	0xbd2652d3	-0.04060633
65	0x3c2f2725	0.010690485
66	0x3d1eb17a	0.038743474
67	0xbcfc18ac	-0.030773483
68	0xbb169b29	-0.0022980666
69	0xbc8abbe5	-0.016935298
70	0x3cad78f9	0.021175848
71	0xbb52d089	-0.0032167754
72	0xbcd1e262	-0.025620643
73	0xbcc81081	-0.024421932
74	0xbd0fba19	-0.035089586
75	0xbc2ce72f	-0.010553165
76	0xbc5ef86e	-0.013609035
77	0xbc07aa60	-0.008280367
78	0xba50675e	-0.0007949973
79	0x3cb24351	0.021760615
80	0xbc53078f	-0.01288022
81	0xbc5f33ae	-0.013623161
82	0xbc4113eb	-0.011784534
83	0x3d3de02a	0.046356358
84	0xbb97f269	-0.004637052
85	0xbcdfa06e	-0.027298179
86	0x3c991960	0.018688858
87	0xbcf85432	-0.030313585
88	0x3d26c67c	0.040716633
89	0x3c8e1dc2	0.017348174
90	0xb9dae5d7	-0.00041751444
91	0xbce23977	-0.027615292
92	0xbcbb7dbc	-0.022887103
93	0xbb203e7a	-0.0024451301
94	0x3cee3b63	0.029081052
95	0xbb0ca3c6	-0.0021459921
96	0x3bd8469b	0.0066002137
97	0xbc8bbaf7	-0.017056925
98	0xbca18e4f	-0.019721178
99	0xbd07baba	-0.03313706
100	0x3cc6246a	0.024187285
101	0x3c06395b	0.008192386
102	0xbc8008e6	-0.015629243
103	0x3b727fdd	0.0037002482
104	0x3cdead95	0.02718238
105	0xbd7713af	-0.060321506
106	0x3c00e5ee	0.0078673195
107	0xbc055b78	-0.008139484
108	0xbd2d9a19	-0.042383287
109	0x3c84edec	0.016226731
110	0x3a67a1b3	0.0008836046
111	0xbc2e2977	-0.010630003
112	0x3b75e9a2	0.003752329
113	0x3b789d12	0.0037935418
114	0xbc474a4d	-0.012163711
115	0xbd116d2b	-0.0355045
116	0x3c67a921	0.014139445
117	0x3cfe15f0	0.03101632
118	0x3cd1984f	0.025585322
119	0xbd0dfa82	-0.03466273
120	0x3ccd7a51	0.02508274
121	0xbc13b8dd	-0.009016243
122	0x3c73b7ba	0.014875347
123	0xbae9a5fc	-0.0017825956
124	0x3c92005e	0.01782244
125	0x3bdbe739	0.0067109135
126	0x3aa6d713	0.0012728892
127	0xbb37b9ab	-0.002803425
128	0xbd064c3b	-0.032787543
129	0x3b72781d	0.0036997863
130	0x3d012619	0.031530473
131	0x3d6c2087	0.057648208
132	0x3ca82495	0.020525256
133	0x3d19cac6	0.037546895
134	0x3d30af35	0.04313584
135	0x3c72ac1d	0.014811543
136	0x3c707409	0.014676102
137	0x3a8f4c46	0.0010932765
138	0xbbd4ce09	-0.006494288
139	0x3d45a560	0.048253417
140	0xbb99c4a0	-0.004692629
141	0x3ce7417f	0.028229473
142	0x3ca581b3	0.020203447
143	0x3d109151	0.035294835
144	0x3c40e06f	0.011772259
145	0x3c91bce2	0.017790262
146	0x3cf4aa07	0.029866232
147	0xbb80571d	-0.0039166347
148	0x3bb3247a	0.005466995
149	0xbceed4e5	-0.02915425
150	0x3b90786c	0.0044088867
151	0xbb80b970	-0.003928356
152	0x3d27c9c6	0.04096391
153	0xbcac2932	-0.021015737
154	0xbd18418c	-0.037171885
155	0xbcfa3738	-0.030543908
156	0xbc7ec684	-0.0155502595
157	0xbb650fbc	-0.0034952005
158	0xbcbb9956	-0.022900265
159	0xb95e3a50	-0.00021193293
160	0x3ca7f23d	0.02050125
161	0xbc2d8761	-0.010591359
162	0x3cec8d88	0.028876081
163	0xbcd0e1b6	-0.025498252
164	0x3cbb3b3b	0.022855392
165	0xbbaf793c	-0.0053550284
166	0xbcbd4861	-0.023105802
167	0xbc71d5e2	-0.014760466
168	0xbbb6ec8c	-0.005582398
169	0x3c84f5ce	0.01623049
170	0x3c27116b	0.010197024
171	0x3c491a78	0.012274377
172	0x3ca0610d	0.019577527
173	0xbcfc85f9	-0.030825602
174	0x3ca4537d	0.020059342
175	0xbce701bf	-0.028199075
176	0xbcf9afa9	-0.03047927
177	0xbb035441	-0.0020039233
178	0x3d3eb6d0	0.046561062
179	0xbcb73508	-0.022364154
180	0xb7c3bbca	-2.3333258e-05
181	0x3b98ee6b	0.0046670935
182	0xbd0886bf	-0.03333163
183	0xbc30f1af	-0.010799809
184	0xbca7fa26	-0.020505022
185	0xbc10f8e6	-0.0088484045
186	0xbd41986c	-0.0472645
187	0x3ce5b834	0.028041936
188	0xbd74a895	-0.059731085
189	0x3ca4ad4a	0.020102162
190	0x3ca48603	0.020083433
191	0xbcbf2bc6	-0.023336302
192	0xbc8d5ce2	-0.017256204
193	0x3cd3fe9b	0.025878241
194	0x3c42635d	0.01186451
195	0xbcd80ab5	-0.026372293
196	0xbbe07de0	-0.006850943
197	0x3c4823ec	0.012215596
198	0x3d6da1a0	0.058015466
199	0x3c660eec	0.014041644
200	0xbd3950cf	-0.04524308
201	0x3c5e0f89	0.013553509
202	0x3bba52f0	0.0056861565
203	0xbcb40bbe	-0.021978255
204	0xbd0aae4c	-0.03385763
205	0xbcff4819	-0.031162309
206	0x3c18b569	0.009320595
207	0xbb743bca	-0.0037267082
208	0x3b846572	0.0040404135
209	0x3b3e2f90	0.0029020049
210	0xbbe30875	-0.0069284984
211	0xb9103429	-0.00013752341
212	0xbce0d8c4	-0.027447112
213	0xbc8b90ab	-0.017036757
214	0x3d5d664c	0.054052636
215	0xbcb831e2	-0.022484723
216	0xbc4d6493	-0.012536186
217	0xbcdde000	-0.02708435
218	0xbcb4b653	-0.022059595
219	0xbd5fdc29	-0.05465332
220	0x3c0fe552	0.008782702
221	0xbd2fda1f	-0.042932626
222	0x3cffb694	0.03121499
223	0x3d0b0cab	0.033947628
224	0x3c006676	0.007836929
225	0xbc4ddef6	-0.012565365
226	0x3ca23745	0.019801745
227	0xb9419de1	-0.00018464729
228	0xbc86716f	-0.016411511
229	0x3c580613	0.013185042
230	0x3d016595	0.031591017
231	0xbc8c7091	-0.01714352
232	0x3d4a5341	0.049395803
233	0xbbce4246	-0.0062945215
234	0xbcd5a790	-0.026080877
235	0x3c2cb1aa	0.010540405
236	0x3b827d2f	0.003982208
237	0xbb7370f4	-0.0037146183
238	0x3bd25764	0.006419109
239	0xbd295c95	-0.04134806
240	0x3d0c5910	0.034264624
241	0x3c344491	0.011002676
242	0x3cffa516	0.031206649
243	0xbc854ad3	-0.01627103
244	0x3bc6cf31	0.0060671796
245	0xbc9d5fc4	-0.019210704
246	0x3a1ecfce	0.0006058187
247	0xbd3b6ecb	-0.045759957
248	0xbcc61114	-0.024178065
249	0xbb842e42	-0.0040338347
250	0x3b46ec0d	0.00303531
251	0xbd3b462f	-0.04572123
252	0xbc05a3fc	-0.008156773
253	0x3cc1264d	0.023577834
254	0x3cee7204	0.029107101
255	0xbcf69cfa	-0.03010415
